models/model_UG2_fold_2_l2.pkl (torch_old, 710126 bytes, 38 tensors)

weight f4 [16, 3, 3, 3]
00000000: 3894 453c 2564 933d f455 023e 3ed4 28bc
00000010: 6562 f53b 4332 39bd ffb2 de3d d09e 953d
00000020: 8699 203e b36f cdbd 9efb 20bc e2a5 27be
00000030: a641 02be f64f c2bd c0eb 3abd b64a cfbd
00000040: 0e70 99bc b2aa f1bd 1b6e 8f3d b2e1 b6bd
00000050: bff7 a5bd 682e dd3d 5a3b 013c 5639 6b3d
00000060: 8d09 7f3b 82df 6abd db80 17be 3f97 bf3d
00000070: 0e4e 293e 69cf 173e 1e36 1dbe f881 e43d
00000080: 3d8f ffbd 3c81 02bd 0f34 a6bc b2dc 04be
00000090: fd2e c23a 085e 103e e421 673e 47cb d73b
000000a0: 7b19 a63d b271 793d f909 febd 9fb3 1fbe
000000b0: 263e 3f3d 3723 51bd e240 03be 21e3 893c
000000c0: 2992 ff3d 78ac 9dbd e154 b23d f949 ad3c
000000d0: 3917 82be 83b1 e8bd 6d4c 28bb feba 0e3e
000000e0: e07f 113d 1520 15be 753d cbbd 26e7 7c3d
000000f0: 94f1 b5bd d067 f53d f640 173e 74b8 6b3d
00000100: 5a35 453d 2971 0a3e 043f 05bd 3404 f93b
00000110: 3ee8 463e e6ed d9bc 7f92 e93d debc 003e
00000120: eff9 55be 3143 7d3d dbc0 e83c 6718 89bd
00000130: 31e5 6ebd 1a99 243d a580 50be dabe 413b
00000140: ef34 c3bd da66 91bc 431a c33c 0416 00be
00000150: 13a7 41bc e537 093e 07cc 35bc af3a 4cbd
00000160: 22d6 bebd 2db4 d4bd 34ae 47be bb6a 8e3d
00000170: 00b0 26be 1bd8 0a3e b546 ca3d 65f7 f43b
00000180: b64f a2bc c2f4 bdbd 8798 debc c04a 7d3d
00000190: 2e0d a23d 1579 bf3c 3065 8dbb 4659 563e
000001a0: e572 c6bd b6d8 943d 3d9c 263e 86be 3d3e
000001b0: 15d7 d93d eebd d63d 203e 1abe 5093 ca3d
000001c0: 60a7 023e 44c2 c0bd 66f2 14be 62e2 be3d
000001d0: 780a 4bbe 6d63 dd3d 5845 0f3e 1653 3bbe
000001e0: 07b4 e63d ebaa 943d 4933 57bc cf30 df3d
000001f0: c01d e8bd f4ea 00be 8921 163e 3e50 1cbe
00000200: ffb2 d2b9 6b9f b6bd c6b8 1e3d 6083 d83d
00000210: 225f 0a3e 3735 803c 60c1 2bbe 1e02 02be
00000220: 0910 453d 3fe9 bfbd 4298 2ebe fbd5 39be
00000230: 18ee a3bd 8901 4c3d 5272 9c3d 3b62 883c
00000240: f28a a93d 4833 f0bc 20ce d33d 4bc7 4fbe
00000250: 608f 06be 17db c33d ec70 c53d d2a7 293e
00000260: fea3 a83c e170 533d 931e 953d 9333 62bd
00000270: 6334 e5bd 6570 f93d f837 25bc 7347 c23d
00000280: f565 273e 8999 dbb9 aa80 9f3d 005c 863d
00000290: a319 d43d 1d70 d7bc 2264 fabd 9ff3 15be
000002a0: ecb1 973d 5724 603d b5a2 ffbd 920a 463e
000002b0: a2cd 1fbe 27d3 45be a271 0c3e 1db6 cebd
000002c0: 4867 5cbd 3ccb 403e dbda 113d c223 9abd
000002d0: 75d5 103e 3c50 df3d 701b 35be 1329 5c3e
000002e0: 8282 1bbd dbba c6bd 357d 2c3e 99ec debd
000002f0: 486b 15be b73b 03be 594f ae3d 4be7 863d
00000300: 7450 933d c89f a1bd eb56 263e e16c 9ebd
00000310: b326 07be 70f6 e83d 8ec2 473e 0070 6b3b
00000320: 62df 1e3d 8f01 da3d 602c 1f3e 8e9d 10bc
00000330: 6b25 ef3d dad5 afbc f8ea f33c a9b8 1cbe
00000340: a9d9 04be 04f2 18be 52b6 25be f8ea 0cbe
00000350: c558 0cbe 4cd8 e3bd 77bc b33d 13a5 2dbe
00000360: 7cf4 03be e2a3 3dbd 3b97 8abd 60c9 853d
00000370: ec19 0fbe da19 26be ec62 46be 9fc0 fbbd
00000380: d530 48be 41ac 313e 4f93 37bd f90a bdbd
00000390: 438e ef3d 958b 8c3d ea99 103e c554 873d
000003a0: 6464 343d f068 f13c 2aa6 583c 97d0 bcbd
000003b0: ca1c 073e 4703 143e fe53 343e 1e2d 21bd
000003c0: 4689 5bbc 0f30 2f3e c85d 3b3e cd6a aebd
000003d0: 5e7e d8bd 4fa8 14be ff32 68bd 0185 bbbd
000003e0: 73d0 be3a 677a 62bc b660 c4bd 5bfa c33d
000003f0: e67d ac3b f9f5 a8bb 273a adbd 472a 9dbd
0.012059264 0.071968354 0.12728101 -0.010304509 0.007488536 -0.04521395 0.108739845 0.07305682
0.15683565 -0.100310706 -0.009825615 -0.16371873 -0.12720355 -0.094879076 -0.045634985 -0.10121672
-0.01873019 -0.11800136 0.07003423 -0.08929767 -0.081038944 0.10799867 0.007887686 0.057427727
0.0038915605 -0.05734206 -0.14795248 0.0935502 0.16533682 0.14825214 -0.15352675 0.11157602
-0.124784924 -0.03186153 -0.020288495 -0.12974814 0.0014815029 0.1409837 0.22571522 0.006585512
0.08110329 0.060899444 -0.12404246 -0.15595864 0.04669013 -0.051058974 -0.1281772 0.016831936
0.1247905 -0.076989114 0.087075956 0.021153437 -0.25408342 -0.11361983 -0.002568032 0.1393852
0.03552234 -0.1456302 -0.099238314 0.061743878 -0.08883968 0.11982691 0.14770874 0.057548955
0.048146583 0.1351973 -0.0325308 0.007599378 0.19424531 -0.026602697 0.11404895 0.12572047
-0.20896123 0.061831657 0.028412273 -0.066941075 -0.058324043 0.04018507 -0.20361574 0.002956322
-0.09531581 -0.017749239 0.023816234 -0.12508398 -0.011819619 0.13400228 -0.011096007 -0.049860653
-0.09318186 -0.10385928 -0.19500047 0.06953951 -0.16278076 0.13559 0.098767675 0.007475781
-0.0198134 -0.092751995 -0.02717234 0.061838865 0.0791267 0.023373166 -0.004315041 0.20932493
-0.09689883 0.07267897 0.16270538 0.1852971 0.10636727 0.10485445 -0.15062761 0.09891379
0.12759161 -0.09412053 -0.14545593 0.09320523 -0.19828212 0.108099796 0.13991296 -0.18293414
0.11264806 0.072591625 -0.013134786 0.108979814 -0.11333799 -0.12589628 0.1466123 -0.15264985
-0.00040187684 -0.08917125 0.038750432 0.10571933 0.13512853 0.015650375 -0.16772985 -0.1269612
0.048110995 -0.0937066 -0.17050269 -0.18148033 -0.08004397 0.04980615 0.07638992 0.016648402
0.08278455 -0.029321328 0.103420496 -0.20290868 -0.1314063 0.095632724 0.09640679 0.16567925
0.02058601 0.05162132 0.07281222 -0.055224966 -0.111916326 0.12179641 -0.010084145 0.09486284
0.16347487 -0.00041885328 0.077882126 0.06560516 0.10356452 -0.026298577 -0.1222613 -0.14643715
0.07406983 0.054722156 -0.12482206 0.1933997 -0.15605786 -0.1931883 0.13715222 -0.10093329
-0.053809434 0.18827528 0.035609107 -0.075263515 0.14143927 0.10903975 -0.17686248 0.21500044
-0.03796626 -0.097036086 0.16844638 -0.10884971 -0.14591706 -0.12815748 0.08511228 0.065870844
0.071930796 -0.07891804 0.16244094 -0.07735611 -0.13198356 0.11375129 0.1950781 0.0035924911
0.038787253 0.106448285 0.15544271 -0.008826626 0.11677059 -0.021464277 0.029775128 -0.15304817
-0.12973656 -0.14936072 -0.16182831 -0.13761508 -0.13705738 -0.1112524 0.08776181 -0.16957502
-0.12886232 -0.04629887 -0.06767126 0.0653255 -0.13974732 -0.16220799 -0.19373673 -0.12292599
-0.19549878 0.17350866 -0.04481822 -0.092306085 0.11697056 0.06862561 0.14121214 0.066079654
0.044041052 0.029468983 0.01322321 -0.09219473 0.13194576 0.14454375 0.17610165 -0.039349668
-0.013399428 0.17108177 0.18297493 -0.085164644 -0.10570978 -0.1451733 -0.05668926 -0.09156228
0.0014557972 -0.013823128 -0.09588759 0.09569236 0.0052640317 -0.0051562754 -0.08458357 -0.076740794

bias f4 [16]
00000000: 3d2c 6739 4fe6 af39 45c5 1eba 4c5c b839
00000010: 9188 8b39 aae3 883a f801 0a3a 1513 d3b9
00000020: 1071 fcb8 f457 c9b9 4880 f3b9 7f5f b43a
00000030: 2e3b 0db8 015b 19ba 35d2 feb9 0008 83ba
0.00022046357 0.00033550194 -0.0006056617 0.0003516398 0.00026613896 0.0010443826 0.00052645756 -0.00040259273
-0.00012037356 -0.00038403238 -0.0004644415 0.001376137 -3.3672135e-05 -0.00058500475 -0.00048603272 -0.0009996891

weight f4 [16]
00000000: 1355 383f d0a4 643f a131 353f 3cc3 4c3f
00000010: dc12 1c3f a727 1c3f b10d 533f 5d41 5b3f
00000020: 9389 413f cde9 423f a650 523f be32 433f
00000030: 60d6 203f c13a 223f 3850 473f a0dd 253f
0.7200481 0.89313984 0.7077885 0.79985404 0.6096628 0.60998005 0.82442766 0.8564661
0.75600547 0.76138 0.8215431 0.762493 0.6282711 0.633709 0.7785678 0.647913

bias f4 [16]
00000000: 5a02 0d3d 4ce4 8c3e 3232 873e 4818 783c
00000010: f0f2 833e 3cdf 163e 878f 343d 7bc5 57be
00000020: f3d8 123e 75a7 7dbd 3670 733e 6dbd 7b3e
00000030: cea7 8abd 5ad0 b13b 1520 78bd 8940 593e
0.03442607 0.27517927 0.26405483 0.015142508 0.25771284 0.14733595 0.04408219 -0.21071427
0.14340572 -0.061927278 0.23773274 0.24583979 -0.067702875 0.005426449 -0.06057747 0.21216024

running_mean f4 [16]
00000000: 6068 503e 1d32 f43c 9212 8bbe c721 35be
00000010: 3ed1 83bd 225a 893d f1d2 b63c 2a63 a23e
00000020: ac20 bd3d fec3 0a3f e5ef 023c 43c9 21bd
00000030: b946 1dbd 369d dabd 82cb 533e cf65 c2be
0.20352316 0.029809052 -0.27162606 -0.17688666 -0.06436394 0.067066446 0.022317382 0.3171628
0.09234747 0.5420531 0.007991766 -0.03949858 -0.038397525 -0.10674517 0.20683101 -0.379683

running_var f4 [16]
00000000: 9f98 e23e ee9b ba3e 1219 4a3f fd49 9d3e
00000010: 0c91 d73e b060 8a3e 2112 213f ea45 0c3f
00000020: 0885 e13e 77d9 d83f aa8d ce3e 53d8 743e
00000030: b60d 743e c9bd 263e 2f65 073f aa80 5b3f
0.44257066 0.3644709 0.78944504 0.3072051 0.4210285 0.27026892 0.6291829 0.5479418
0.44046807 1.6941365 0.40342456 0.23910646 0.23833355 0.16283335 0.5288877 0.857432

weight f4 [32, 16, 3, 3]
00000000: dd45 ffbc e8aa 70bc 8380 50bc 823e 54bd
00000010: bbf4 71bd a53e 89bd 6d7a 92bd 699d a2bd
00000020: 8cd2 a8bd ea75 b23c 0f65 0c3d 9a7c bf3c
00000030: 63ab 103c c6b5 353d c3ca 913d b119 6abd
00000040: a38d 41bc e4cb 703d c32f 443c 15c6 443c
00000050: 227f 6c3c 8d92 0abd 335c f4bc 8ed4 27bd
00000060: ab6c 20bd cb63 5dbd 63c6 0dbd 3efb c7bc
00000070: 8e28 1bbd b48a 2d3b a117 f33c dfc1 d23b
00000080: fa38 d2b8 30d0 213d f5bf 713c 947f 4b3c
00000090: f904 403c c390 c4bc 3d5b c4ba 131f d93c
000000a0: 72fc 813c bb32 123c 79b5 6bbb 5e5a c03b
000000b0: b69c 1a3d aa51 0bbc 97b8 22bd 74ce 26bd
000000c0: 1253 873c 7a85 e33c d5cf d9bc 4190 d13c
000000d0: 0880 463d 05b1 e83c 3730 483c 259d 96bc
000000e0: 6ec9 5ebd dac5 75bc f362 e73a 8fd5 82bb
000000f0: 079c 73bc 58a8 1cbd 9e91 203c e6cd d7bc
00000100: 822c 8dbc 6e28 df3b c1d1 9bbd b586 8ebd
00000110: 58d8 10bd fa06 9bbd 5f35 72bd 6f6f 5ebd
00000120: bd36 3e3b 1a50 8f3b eba2 d8bc 4774 493c
00000130: 93e0 efba 3f15 e73c ff62 0c3d 6f83 323d
00000140: 00ae 10b9 b1b7 a0bb 2f0e 8bbc c9a9 48bc
00000150: 834f 46bb e3d1 4ebc eef7 8cbc 52dc 9cbc
00000160: f476 f5bb 282a 83bc 67ba 97bd a2c5 6fbd
00000170: 8790 933c a246 23bd 857e 24bd e315 27bd
00000180: 34dd 10bd 9ee3 2fbd 476a ddbc 9b33 f5bb
00000190: d7b6 59bc 13e4 27bd b179 cfbb 2473 1ebc
000001a0: b80d 783c 4d4b 60bd c3ef 55bd 39bb 4dbb
000001b0: b143 653c ab8d 883c a2d5 8ebc ceb8 0b3d
000001c0: c36d 293d c29b 84bb c942 b33b a451 db3c
000001d0: 8d07 edb9 bb2a 66bc 2847 103d 501c d5ba
000001e0: 8af0 083d c132 203d dead 113d c3e4 633c
000001f0: 3303 dd3c 3a46 d03c 457a a4bc dbd5 2fbd
00000200: ca3a 04bd dec0 883c e092 5339 7ae0 96bc
00000210: e4fe 06bd 8cf7 6fbb 8cde 6d3c 2c7a 973c
00000220: 4117 71bc 08ea 9d3c 1797 8d3c 0cd0 27bc
00000230: d1d5 afbc c397 44bb d1c9 61bd 9f00 19bd
00000240: 5f71 0fbd ce3e c03c 4b94 6f3d d82b cabd
00000250: 16d7 37bd 9078 1e3d 7793 18bd 3667 5dbc
00000260: 4944 aebb ff86 d9bc 20f7 7e3c a0ec 6d3d
00000270: 0f0e 2fbd 113b 6dbd 59a9 683d 0cd1 d33c
00000280: efe0 2abb 4909 ad3c fa98 3b3d 7947 443d
00000290: 0b1f dcbc 737e 153d b341 33bc bc30 09be
000002a0: 0ee3 ac3c 4a8d acbd dad9 debd deac 10bc
000002b0: 1fec dfbd c270 97bd 2a3b 10bd 5262 97bd
000002c0: 750d 4ebd f289 583c 0855 8fbd 204c 9abd
000002d0: 6783 92bd 40b1 84bc 4d68 743d 5764 053d
000002e0: 9384 dabb c7f8 253d 0c62 463d 719f 223d
000002f0: 7595 de3b 98a7 8dbc 6905 0b3b 763e 3abd
00000300: 090d 0b3d f23d 58bc e431 12bd ca71 2e3c
00000310: 814f 3bbd 38df 5ebd 190f 10bd b811 13bd
00000320: aed9 9a3d 9f91 e4bb ea04 b23b 973a 873c
00000330: cb35 973c bdc5 f53c d978 113d 4600 61bd
00000340: 54dc 26bd b8ed 533d 9045 a9bd 92fb ed3c
00000350: 3fe3 6e3d 4530 f9bc b0ff e43c d230 403d
00000360: 0d0d 223d a6cd d2bc 845f 2cbd 8d4d 333d
00000370: bd30 3ebd 6fb2 7abd 50ca d93c 68f2 64bc
00000380: 3004 42bb d1d5 2bbd 3334 46bd 7cfe 88bd
00000390: d549 de3c 65d3 813c b500 c9bc 7c1e 45bc
000003a0: 08af 283b 6df2 093c 6315 2bbd c1c1 97bd
000003b0: ce3d 83bd fc80 29bd 3a75 e1bd 45c5 8dbd
000003c0: 35d0 22bd 5cd4 93bd 5d9e 3bbd a2e2 83bc
000003d0: 8c05 33bd e265 53bc 4fcc 4bbc f52e 45bd
000003e0: 1004 083d 9586 9fbb 9cba eabc b67a 21bd
000003f0: e0f9 4c3d 50d2 393d 86c6 553c 416c a23c
-0.031161243 -0.014689185 -0.012725952 -0.051817425 -0.059071284 -0.067014016 -0.07152257 -0.0794018
-0.08243284 0.021784741 0.034276064 0.023374844 0.008829924 0.044362806 0.07118752 -0.057153407
-0.011813554 0.058788195 0.011974278 0.012010117 0.014434608 -0.033831168 -0.02982912 -0.040974192
-0.039166134 -0.054050248 -0.034613024 -0.024411794 -0.037880473 0.0026480379 0.029674353 0.0064318026
-0.00010024193 0.039505184 0.014755239 0.012420554 0.011719936 -0.023994809 -0.0014980804 0.026504075
0.015867446 0.008923228 -0.003596632 0.0058701476 0.037747107 -0.008503357 -0.03972682 -0.040724233
0.016519103 0.027773608 -0.02658836 0.025581481 0.048461944 0.028404722 0.012218527 -0.01838548
-0.054391317 -0.015000785 0.001765339 -0.0039927433 -0.014868743 -0.038246483 0.009800343 -0.026343297
-0.017233137 0.0068102395 -0.07608367 -0.06959287 -0.03536257 -0.0756969 -0.05913293 -0.05430549
0.0029024326 0.0043735625 -0.026444873 0.012295789 -0.0018301181 0.028208373 0.034274098 0.043582376
-0.0001379773 -0.00490471 -0.016974537 -0.012247511 -0.0030259795 -0.012623283 -0.017208066 -0.019148026
-0.007490987 -0.016011313 -0.074086 -0.058538087 0.018013252 -0.039862283 -0.04015972 -0.040792357
-0.035367206 -0.042941682 -0.027028216 -0.0074829585 -0.013288221 -0.040988993 -0.0063316454 -0.009671006
0.01513999 -0.054759312 -0.052230608 -0.003139211 0.01399319 0.016669115 -0.017435852 0.03411179
0.041364443 -0.004046888 0.005470608 0.026772328 -0.00045209788 -0.014048274 0.03522411 -0.0016259048
0.03343252 0.039110903 0.035566203 0.0139095215 0.026979065 0.025424112 -0.020077834 -0.042928558
-0.032282628 0.016693529 0.00020177243 -0.018417586 -0.032957926 -0.0036616055 0.014518391 0.018490873
-0.014715017 0.019276634 0.01728396 -0.010242473 -0.02146426 -0.0029997684 -0.055124108 -0.037354108
-0.03502023 0.023467448 0.058491033 -0.09871644 -0.044882856 0.038689196 -0.03725001 -0.013513377
-0.005318199 -0.026553629 0.015561849 0.05808699 -0.042738017 -0.05791766 0.056802128 0.025856517
-0.0026074012 0.021122592 0.045800187 0.047919724 -0.026870271 0.036497544 -0.010940957 -0.13397497
0.021104362 -0.08425386 -0.10881396 -0.008830277 -0.109337084 -0.07394554 -0.035212673 -0.073918
-0.050305802 0.0132164825 -0.0699864 -0.07534051 -0.07153969 -0.0161978 0.05966978 0.032566395
-0.006668636 0.040520456 0.04843335 0.039702836 0.006792719 -0.017291829 0.0021212942 -0.045469724
0.03394798 -0.013198363 -0.03569211 0.010647247 -0.045730118 -0.054412097 -0.03517065 -0.03590557
0.0756105 -0.006975367 0.0054327147 0.01650743 0.018458268 0.030001516 0.03551564 -0.0549319
-0.040737465 0.05174038 -0.08265221 0.029050622 0.058322188 -0.030418525 0.027953953 0.04692156
0.039563227 -0.025732826 -0.04208328 0.04377513 -0.0464332 -0.061205324 0.026585728 -0.01397381
-0.0029604547 -0.041951958 -0.048389625 -0.06689164 0.027134815 0.015847871 -0.02453647 -0.012031194
0.0025739092 0.008419615 -0.041768443 -0.074100025 -0.06408273 -0.041382775 -0.11008687 -0.06922392
-0.039749343 -0.07218239 -0.045805324 -0.016099278 -0.04370646 -0.012902709 -0.012438848 -0.048140485
0.033207 -0.0048683384 -0.028653435 -0.039423667 0.050042987 0.045366585 0.01304782 0.01982701

bias f4 [32]
00000000: 5db6 80b7 db5a 5739 06a4 1eb7 03b4 b436
00000010: 7ea9 a338 f82e ffb8 52e6 be38 cc16 f538
00000020: d2a2 9139 af76 4eb9 9dbb 1036 159e b6b8
00000030: f918 cdb8 e6dc a938 1b09 5138 217d 20b8
00000040: ebdc 23b9 5438 0a39 9f86 08b9 29f4 1e38
00000050: b49d e1b8 97b0 5537 09dc 75b8 6c7d 1bb9
00000060: e5b4 03b9 3200 ba38 5388 4439 34af bcb8
00000070: 76c9 d338 27b9 4f39 c7b6 0938 3b6d 6bb6
-1.5343709e-05 0.00020537844 -9.455724e-06 5.385374e-06 7.804016e-05 -0.00012168096 9.1028065e-05 0.000116867566
0.00027777866 -0.00019689904 2.1566877e-06 -8.707881e-05 -9.779813e-05 8.0996935e-05 4.9837963e-05 -3.8263508e-05
-0.0001562719 0.0001318169 -0.00013020121 3.7897527e-05 -0.000107582106 1.2736905e-05 -5.8617476e-05 -0.00014828675
-0.00012560522 8.8692075e-05 0.00018742801 -8.997173e-05 0.00010098789 0.00019810033 3.283357e-05 -3.508131e-06

weight f4 [32]
00000000: 3320 fc3e 7ccf 1e3f dbd3 243f 208a 893e
00000010: 9552 3b3f 9286 f83e ace8 423f 801f f63e
00000020: 3bd5 153f c543 1e3f cf35 1a3f f464 193f
00000030: 5226 043f dd05 da3e da32 113f 7c80 313f
00000040: 2021 343f cfc2 133f 1ca9 3e3f 36be d03e
00000050: 5395 3a3f 2a47 1d3f e805 0f3f b826 373f
00000060: 4180 1c3f db0e 233f 434a 3d3f a9f4 1f3f
00000070: 0d3b 303f 3fde 3e3f 5b1c f73e f78d 053f
0.49243316 0.62035346 0.64385766 0.26863194 0.73172885 0.4854017 0.7613628 0.48070908
0.5852849 0.6182216 0.60238355 0.5991967 0.5162097 0.42582598 0.5671822 0.69336677
0.70363045 0.5771913 0.7447679 0.4077012 0.728841 0.6143671 0.5586839 0.71543455
0.611332 0.6369454 0.7394144 0.62482697 0.68840104 0.7455787 0.4826382 0.52169746

bias f4 [32]
00000000: ee8d 06bd ecaa 33bd 6574 1dbe bbac c2bd
00000010: 7496 323d 2855 bebd 66bb f3bd 678c d83b
00000020: 351d e0bd f091 d8bb 559d 61bd c35c 24bb
00000030: c041 ebbd bbf4 1bbe 564a 053c f321 cfbd
00000040: 9272 95bc bf05 15be e5af c33d 2f0c 92bd
00000050: a500 91bd 6e2f 26bd d6b1 7dbe 254d d4bd
00000060: 2e53 8bbb 2f66 9dbd 466b 6a3d 016a 44be
00000070: 082e b2bb be9d f1bd f2d4 b9bd 7c64 27be
-0.0328502 -0.043864176 -0.15376432 -0.09505602 0.043600515 -0.09293586 -0.11900978 0.006608534
-0.10943071 -0.006609194 -0.055081684 -0.0025079704 -0.1148715 -0.15230076 0.008135399 -0.10113897
-0.018243108 -0.14552973 0.095550336 -0.0713123 -0.07080201 -0.040572576 -0.2477487 -0.10366277
-0.004251859 -0.076855056 0.05723121 -0.19181062 -0.0054376163 -0.11797665 -0.09073819 -0.16346925

running_mean f4 [32]
00000000: c31a 02bf a342 30bf 9f03 91bf b1c5 79be
00000010: 5913 ef3c 550b 2dbf 5318 60bf 9bdd eebe
00000020: 7031 4ebf 80d9 22bf db63 61be c37e 3cbf
00000030: d4d6 95be fb17 513e 31d9 d3be f72b a03f
00000040: 1ea8 35bf 1d0f 96be f0db a1bf 9f07 0abf
00000050: 06e1 8bbf 91c6 bbbe c184 b3bf 5270 25bf
00000060: 42a2 b6be ffa0 d8be 16da a8bd c2f9 7abf
00000070: 83ff e1be ae12 98bf 4ff0 143d 878d 8dbe
-0.50822085 -0.6885168 -1.132923 -0.2439182 0.02918403 -0.67595416 -0.87537116 -0.46653447
-0.80544186 -0.6361313 -0.22010748 -0.73630923 -0.29265463 0.20419304 -0.4137664 1.2513417
-0.7095965 -0.29308406 -1.2645245 -0.5391788 -1.0928047 -0.36674932 -1.4024888 -0.6462451
-0.35670668 -0.4231033 -0.082447216 -0.9803735 -0.44140252 -1.18807 0.03636199 -0.2764704

running_var f4 [32]
00000000: d0c0 b03e 2ccc a73e e48a 033f c9ff e53d
00000010: 574f 943e e8a2 b33e ce2f 1f3f 6459 103e
00000020: 25f5 483e 1415 9d3e 13d1 d33e f0d0 103f
00000030: b925 8e3e 9d08 703e 7195 bc3e 6244 633f
00000040: ca13 043f 12f5 793e 1241 2e3f 30c8 7f3e
00000050: 8514 f93e be91 043f 8c0c 123f ce4b cc3e
00000060: 76a2 2a3e ae5f a63e 42dd f23e 6505 9f3e
00000070: 65dd 153f cf94 203f f906 c53e b096 c63e
0.34522104 0.32772958 0.51383805 0.11230428 0.28966781 0.35085225 0.6218232 0.140966
0.19624765 0.30680144 0.41370448 0.56568813 0.27763155 0.23440786 0.36832765 0.8877622
0.51592696 0.24409893 0.6806804 0.24978709 0.48648468 0.51784885 0.57050395 0.39901584
0.16663536 0.32494873 0.4743443 0.31058803 0.58540946 0.62727064 0.38481882 0.3878684

weight f4 [48, 32, 3, 3]
00000000: fa45 06bd 9359 b1bc 552e 44bc 47e7 69bb
00000010: 6d69 3abc 4692 2dbd a38b 85bc 6d37 9dbc
00000020: 274d c6bc bb52 8c3c eb51 90bc ca83 d3bc
00000030: dd13 8cbb 40ae 5c3b 2ea4 11bc 27be cbbc
00000040: 1d69 2d3c d304 9a3c 507f fdbb 6b61 913c
00000050: b189 0c3d e507 9abc 4b73 643c 7aa2 a13c
00000060: f504 1a3a c1a9 053c 54f5 1e3d 30d7 8ebc
00000070: 2156 55bb 59be 103d bc47 8fbc e7d3 85bc
00000080: 710d 903c bb1f d1bc 47e9 b3bc 5a60 133c
00000090: 3f28 7c3d 4981 083d 365a fcbc 7b26 a03d
000000a0: dd4f 1d3d 3d24 fcbb c00f 563c 07e4 813d
000000b0: f227 a9bc feff 5d3d dec9 e83c ef71 b63b
000000c0: 7fb0 bd3d 3e91 2a3d ae84 0d3c 9e1c 843d
000000d0: a879 083d 2ac7 913c 73c9 e5bb db23 0c3d
000000e0: 1a8d e63b 3b59 293c db67 303d a05b 273d
000000f0: 6c1c 65bc 7df4 633c f720 503d aa7c 27bd
00000100: a37c 73bd 44aa 7ebd d34f 00bc c491 8ebc
00000110: 9e8e 25bd 0b7b 373d 453b b13c 41fe 92bc
00000120: ca9f 08bd 839d d03c 5fc7 f8bb 9116 03bd
00000130: 9e01 123d a636 be3c cead 0bbd 1b26 483a
00000140: 9b2a 91bc 5f49 46bd ca45 2abd 1008 b7bc
00000150: 6b95 04bd b5b2 85bc 6e03 b7bc 82be 373c
00000160: 9014 14bd a240 17bd 7d28 04bd 29b3 46bd
00000170: 7dcc 49bd 0f16 2cbd 5762 edbc 5ccc 45bd
00000180: 7fc4 e6bc 96ef e3bc 9e35 e5bc 74bc 4dbc
00000190: e1b7 aa3c cc81 4b3d 576a 83bc 5c73 05bc
000001a0: 6af6 723a 13ae df3c 33bc cbbb 0f77 37bc
000001b0: bad4 1e3c 8e35 293c 66fe ddbc 0b79 863c
000001c0: 7e66 923c a48b 14bd 4a5e 2c3c 1be5 513b
000001d0: 1035 33bc b338 d4bc b610 4abd 131f 23bd
000001e0: 33e5 bbbc 9f7a aabc 9184 51bd b307 08bd
000001f0: a971 3abd 0240 80bd 2c35 893c 2fd1 b13c
00000200: 7cbe 2abd f40a 853c ea9f 103d e7d1 92bb
00000210: 2559 4d3d 2b0e 753d 8294 223d 969b 893c
00000220: 0c87 12bd ca9d 82bd b0de 9d3c 20a8 d1bb
00000230: c8fb 81bd 465f 25bd 48fa 22bc e52f 40bd
00000240: 7988 dfbc b7c1 3f3b b223 1d3d 9d49 a93c
00000250: 35af 753d bb9d a23d 267c cc3c 11a8 923d
00000260: c0e2 693d bace cb3d 7f60 7b3d 53d9 87bc
00000270: 3b02 983d 5a6b 4e3d fb32 a5ba 0fdf 293c
00000280: a0f7 f93c 1a2c 833c cf76 acbc a15b 83bc
00000290: e93c b4bb 9b2c 42bb 9f7e aaba f76a 99bc
000002a0: 0bfe 7bbc 5f13 803c 7e7a e4ba f691 593b
000002b0: c725 d43c 6c47 803c 1061 9ab9 a1fa 2f3a
000002c0: 3559 2bbc 858d aebc 1e5e 65bc 51c4 92bb
000002d0: ada3 be3c 81d8 56bc a690 43bd b57a 3f3d
000002e0: e91f 09bc 7c9d 4ebd 17ad 0a3d f601 8fbc
000002f0: 5501 36bd 3047 493d 4464 52bb 7471 2abc
00000300: 96fa ab3c 5882 0a3d 7fb0 1eb9 5fab 4c3d
00000310: 62a1 1b3d 4db4 483c bcfe edbc 78a4 efbc
00000320: df4d 79bc f44e 03bd 32d3 30bd 848e 02bd
00000330: f715 07bd e309 32bd 60b9 8fbc ab61 97bb
00000340: d138 363c aaf0 98bc 0fdd a13c f61c 873c
00000350: 3741 cbbc 0e1c f13b 2866 03bc a805 95bc
00000360: a31a c8bc b890 b2bb cee6 363c e81a abbc
00000370: 5e48 bbbc 0954 7b3c dd19 e03c 4f02 83bc
00000380: bec0 06bc de54 1a3d c0d5 f63c 4d31 18bd
00000390: e0e1 833c af6c e23c 453f 45bc 741c 3b3d
000003a0: fd26 d53c d8c8 873c 6910 3cbc 3b5e a3bc
000003b0: 737f b0bc e715 bdbb cc53 d1bc 7a61 403c
000003c0: beb0 8e3c f50a 6c3b 5072 2fbc c356 a93d
000003d0: 72aa 443d 356f 8f3c 566b 5a3d b5f6 a63d
000003e0: 58de fa3b 6d4e db3b 4cd5 293d c13c e9ba
000003f0: 7570 f33c 59a6 023d 2ab0 293d 8090 513d
-0.03278158 -0.021649158 -0.011973937 -0.003569083 -0.0113776745 -0.042375825 -0.016301936 -0.019191468
-0.024206711 0.017129293 -0.017617187 -0.025819678 -0.004274829 0.0033673197 -0.008889241 -0.024870945
0.010584143 0.018801128 -0.007736124 0.017746648 0.034311 -0.018802593 0.013943504 0.019730795
0.00058753724 0.008158148 0.038808182 -0.017436594 -0.0032552558 0.03533778 -0.01749026 -0.016336394
0.017584534 -0.025527826 -0.021961821 0.00899514 0.06156182 0.03332642 -0.030804735 0.078198396
0.03840624 -0.0076947496 0.0130652785 0.06342321 -0.02064893 0.05419921 0.02841657 0.005567781
0.092621796 0.04164242 0.00863759 0.06450771 0.033319145 0.017795164 -0.00701254 0.034213882
0.0070358636 0.010336216 0.043067794 0.040858865 -0.013983827 0.013913271 0.050812688 -0.040890373
-0.059445035 -0.062174097 -0.007831532 -0.01740349 -0.040419213 0.044795077 0.021634707 -0.017943503
-0.03335551 0.025465732 -0.0075921263 -0.032003943 0.035646074 0.023219418 -0.0341013 0.00076350727
-0.017720511 -0.048409816 -0.041570462 -0.022342712 -0.03236906 -0.016320566 -0.022340503 0.011214854
-0.036152422 -0.036926873 -0.032265175 -0.048510704 -0.04926728 -0.042013224 -0.028977556 -0.048290595
-0.028169869 -0.027824204 -0.027979668 -0.012557138 0.020839633 0.04968433 -0.016041918 -0.00814518
0.0009268286 0.027304685 -0.0062175035 -0.011197819 0.009694273 0.01032771 -0.027098846 0.01641514
0.017871138 -0.036265984 0.010520527 0.0032027427 -0.010937944 -0.025905943 -0.049332343 -0.039824557
-0.02293644 -0.020810423 -0.051151816 -0.033210468 -0.04551855 -0.062622085 0.016748987 0.021706192
-0.041685566 0.016240574 0.035308756 -0.0044805887 0.050133843 0.059827965 0.03969241 0.016797822
-0.035773322 -0.06377752 0.019271225 -0.006398216 -0.063468516 -0.040374063 -0.009947367 -0.046920676
-0.027286755 0.002925975 0.03836412 0.020664984 0.059981544 0.07940241 0.024961542 0.071609624
0.05710101 0.09951539 0.061371323 -0.01658312 0.074223004 0.050395347 -0.0012603694 0.010368123
0.030513585 0.01601224 -0.021052746 -0.016034903 -0.005500425 -0.0029628638 -0.0013007707 -0.018727763
-0.015380393 0.015634237 -0.0017431525 0.0033198572 0.02589692 0.015659057 -0.00029445486 0.0006713067
-0.01045828 -0.021307716 -0.01399949 -0.004478969 0.023271406 -0.013113142 -0.04774537 0.046747882
-0.008369424 -0.050443158 0.033856478 -0.01745699 -0.044434864 0.049140155 -0.003210322 -0.010403026
0.020993512 0.03381571 -0.00015133804 0.04996812 0.037995704 0.012250018 -0.02905213 -0.02925323
-0.01521632 -0.032057717 -0.04317016 -0.031874195 -0.03297993 -0.04346646 -0.017544448 -0.004619797
0.0111219445 -0.018669445 0.01975873 0.016493302 -0.02481137 0.0073580807 -0.008019961 -0.018191174
-0.024426764 -0.0054493807 0.011163427 -0.020886853 -0.022861656 0.01533986 0.027356083 -0.015992312
-0.008224664 0.037678592 0.03013122 -0.037156392 0.016098917 0.027639715 -0.01203901 0.045681432
0.026019568 0.016575262 -0.011478522 -0.019942394 -0.021545148 -0.005770433 -0.025552653 0.01174199
0.017418262 0.0036017273 -0.010708407 0.082685016 0.04801411 0.017509082 0.05332502 0.081525244
0.0076559 0.0066926987 0.04146318 -0.0017794595 0.02971671 0.031896923 0.04142777 0.051163197

bias f4 [48]
00000000: b510 63b8 3f5b 13b8 2e6c 5437 29b9 0ab8
00000010: 694b e5b6 4083 fbb6 c187 00b8 380d 29b6
00000020: 682b 2db8 56fd dcb8 9071 b7b7 e335 83b7
00000030: 46db 12b7 f663 0737 4948 4eb7 cf19 7f37
00000040: 2ce0 89b5 7268 b2b7 45a7 c536 bcb3 5038
00000050: f000 e4b7 504b 4c38 3510 18b8 d5dd b337
00000060: a074 f037 60df 6e37 106a 0f37 bc6b d236
00000070: 9da0 fa38 7c8c bf37 9da7 3338 84a4 ba37
00000080: fb00 b937 3b18 a637 5f3e 76b8 48a1 7f37
00000090: 50d1 9cb6 f5f9 1338 e59a 92b7 4293 c9b7
000000a0: 931d d737 34a4 a4b8 c140 56b8 de3e 1537
000000b0: 7e1a f0b6 dc19 9cb7 ada2 7cb7 172a 8638
-5.4136577e-05 -3.513251e-05 1.2661372e-05 -3.3074208e-05 -6.8335107e-06 -7.4956624e-06 -3.064401e-05 -2.5190657e-06
-4.128684e-05 -0.00010537605 -2.1868182e-05 -1.564151e-05 -8.753332e-06 8.069901e-06 -1.2295387e-05 1.5205193e-05
-1.0272538e-06 -2.126789e-05 5.8905302e-06 4.9758455e-05 -2.7180155e-05 4.870753e-05 -3.6254718e-05 2.1441761e-05
2.8664537e-05 1.4237914e-05 8.548159e-06 6.2710296e-06 0.000119508455 2.2834392e-05 4.2833028e-05 2.2249536e-05
2.2054175e-05 1.9800025e-05 -5.8709058e-05 1.5236736e-05 -4.6735295e-06 3.528032e-05 -1.7476685e-05 -2.402964e-05
2.5643769e-05 -7.8507146e-05 -5.1081883e-05 8.8957295e-06 -7.1556415e-06 -1.860869e-05 -1.5058246e-05 6.397458e-05

weight f4 [48]
00000000: d722 f23e 2099 f83e 848f 573e 490b 303f
00000010: 9d42 1b3f 43b9 0b3f 9cf9 133f 1d8a ff3e
00000020: dc3c f53e 6527 0d3f db05 183f d839 083f
00000030: a18b d83e 04df 0a3f c702 033f 9dd7 263e
00000040: 3977 073f ec01 d43e 4d19 bb3e 3fec b43e
00000050: eb9c 093f 0953 f53e 2ba8 0d3f 5a0f d03e
00000060: 88bf 233f 4469 cd3e 3d4c 183f 29cf 253f
00000070: 7db9 1d3f 30a3 ef3e 5336 0a3f cebf b33e
00000080: af4e 203f 1e20 253f 5a16 363f 2ffc 313f
00000090: 4dd0 da3e 3b34 0a3f 37ad ba3e b362 293f
000000a0: 0eff 0f3f 135b 0f3f 0a35 1d3f 790a 1b3f
000000b0: 5dca f63e 28b3 8f3e 36a5 163f f8ec 1c3f
0.47292206 0.48554325 0.2105084 0.6876722 0.6064852 0.5457956 0.5780275 0.4991006
0.47897995 0.55138236 0.59383935 0.5321326 0.42294028 0.54246545 0.5117611 0.16293187
0.52916294 0.41407716 0.3654274 0.3533649 0.5375506 0.47914913 0.5533473 0.40636712
0.6396413 0.40119374 0.5949133 0.64769226 0.6161116 0.4680419 0.5398914 0.35107273
0.6262006 0.6450213 0.71127856 0.69525427 0.42737046 0.5398595 0.36460277 0.6616623
0.5624856 0.55998343 0.61409056 0.60562855 0.48201266 0.28066373 0.5884584 0.61299086

bias f4 [48]
00000000: abb1 13be 83a0 2cbd 8d8b 15be d7f7 a1bd
00000010: b0d2 13be a6e8 e7bd 5746 18be cb90 a8bd
00000020: 598a 00be f723 30be b4b4 1dbc 54af febc
00000030: 130a 01be dd07 bebd 421d c8bd add0 94bd
00000040: 64c2 27bd 3726 9dbd d4a7 e2bd c5d8 0fbe
00000050: 3d62 4cbe cadb eebc dbc4 f3bd 76e4 25be
00000060: 5f94 64be 00f2 d6bd e66c 2dbe b950 003b
00000070: b60e 09be 24b1 50be dd9c 0fbe a1e2 abbd
00000080: 30b1 0dbe fb22 e5bd 5460 02be 8318 4dbe
00000090: 2d24 0abe 2058 4dbe 00d3 41be ce55 c5bd
000000a0: a134 07be 9df6 48be 917a 9abe 591c b7bd
000000b0: 7610 0ebe 4f51 2cbd 9e5c 3ebd fa2e 2ebe
-0.14423244 -0.042145263 -0.14604016 -0.079086 -0.1443584 -0.11323671 -0.14870583 -0.08230742
-0.12552775 -0.1720122 -0.0096256025 -0.031089462 -0.126015 -0.092788436 -0.097712055 -0.07266364
-0.04095687 -0.076733045 -0.11067167 -0.14047535 -0.1995935 -0.029157538 -0.119027816 -0.16200432
-0.22322224 -0.104953766 -0.16936073 0.0019579364 -0.13384518 -0.20380074 -0.14024682 -0.083928354
-0.13837123 -0.111883126 -0.12732059 -0.20028882 -0.13490362 -0.20053148 -0.18928146 -0.096355066
-0.1320367 -0.19625326 -0.30171636 -0.08940954 -0.13873467 -0.04206973 -0.046475045 -0.17010108

running_mean f4 [48]
00000000: e7c0 693e 1454 48bf 8cae c8bd 7d29 09bf
00000010: 1dbf 3abf 2cd1 58be 742e 1ebc 518c 1e3e
00000020: fdc2 81be eabd c7be 457a 71bf 60d1 1d3f
00000030: 5618 e63d ab70 54bd 6c7c 96bd f58b 7abe
00000040: 84ac d63c bea7 54bd dc01 39bf 7ab2 81be
00000050: bd3a b13e d68e 883d 8753 0e3f 2fd3 3abf
00000060: 86bc 7dbd a000 5f3e 65cb 2ebf 7355 f3be
00000070: d098 083e b6bd 4d3d aafe a1bf 139b 1e3f
00000080: 751b 13bf d574 b2be a2c0 8f3d e89f c9be
00000090: ab80 08bf c850 6c3e ae25 da3e dedf 33bf
000000a0: 880d c6be 7d7c edbe 62c8 bdbd 2bd5 47be
000000b0: 55ce bbbe ab91 713d 16ff fbbc f93e e5be
0.22827493 -0.78253293 -0.09798917 -0.5357893 -0.72947866 -0.21173543 -0.00965463 0.15483214
-0.25344077 -0.3901208 -0.94327193 0.61647606 0.112351105 -0.05186526 -0.0734795 -0.24467452
0.026205309 -0.051917784 -0.7226846 -0.2533148 0.34615126 0.06667869 0.555962 -0.7297849
-0.061947368 0.21777582 -0.68279105 -0.4752613 0.13339543 0.05022975 -1.2655842 0.61955374
-0.5746377 -0.3485476 0.07019164 -0.3937981 -0.5332133 0.2307769 0.42606872 -0.7026347
-0.386822 -0.4638404 -0.092667356 -0.19514911 -0.36680856 0.05897681 -0.030761283 -0.44774607

running_var f4 [48]
00000000: cb53 cd3d 998f 3c3e 913c cf3c 8018 4a3e
00000010: 705b 0c3e f37b 423e 52b4 193e 051e 523e
00000020: 7e0b 0b3e ba02 063e cc0e 793e d30d 743e
00000030: b795 d73d b107 403e 1454 ec3d 82f9 af3c
00000040: a62c 2b3e 1939 d83d 57b0 dd3d 860d e83d
00000050: b35f 5d3e 4e49 193e 8610 893e d2f9 b93d
00000060: 6f38 803e da92 ba3d 90b9 993e a025 503e
00000070: 77de b63d 102e 0b3e bf49 103e 8f57 b63d
00000080: a7c4 133e ebed 4d3e 0045 613e 95ba 303e
00000090: 1d19 ca3d ae83 323e 9c0b 673d 450b ec3e
000000a0: 50bb 133e 01e3 933e 26b1 7f3e 6cab 0b3e
000000b0: e86a e33d 3201 5d3d 0d06 1e3e 56c0 133e
0.10025748 0.18414153 0.025297435 0.19735909 0.13706756 0.18992595 0.15010193 0.20519264
0.13578603 0.13086978 0.24322051 0.23833399 0.10526603 0.18752934 0.11539474 0.02148128
0.16716251 0.105577655 0.1082465 0.113307044 0.21618538 0.1496937 0.2677042 0.090808526
0.25043055 0.09110041 0.30024385 0.20326853 0.089291506 0.1359179 0.14090632 0.08903419
0.14430486 0.2011029 0.21998978 0.17258675 0.09868071 0.17433044 0.056407556 0.46102348
0.14426923 0.28884128 0.2496992 0.13639611 0.11104375 0.053956218 0.15431996 0.14428839

weight f4 [64, 48, 3, 3]
00000000: 1dc1 6fbb 63ee f6bc b696 22bd 25d6 093d
00000010: f3d1 cebd 584c c0bd 84a8 7b3d 8bcd 89ba
00000020: dd01 99bc e972 09bd 8bd6 af3c 4fa2 48bc
00000030: 0058 a0bc eff2 1f3d 1a1e 273c fe95 a7bc
00000040: d613 42bc 0e7f 20bc 55bc 883b bdb2 403c
00000050: e5bd 283c c74d d83b 0bbe 8c3c ce85 b63c
00000060: 8deb 563b f985 a53b e84f 243c b781 1b3b
00000070: adb7 c33b 558f 95bc bc36 63bc bbc9 b63c
00000080: d3f4 b13b 774a e4bd f34b 87bd 91dd 15bd
00000090: 9cbb adba af18 04bd 85ad e9bc 68c3 843d
000000a0: e4c7 3b3c f1a4 36bc f9d9 403d de72 93bc
000000b0: 7c8e 643c 3268 edbc d141 e9ba 8560 663c
000000c0: 46aa 8b3c bab3 313d d546 d83c c8c9 12bd
000000d0: 04dd 6fbc b100 9c3c 2dfb 8cbd 7375 b1bc
000000e0: 79be d5bc 2026 6abd f2cd 3c3d 84ca 1e3d
000000f0: 5f71 8abd b373 37bb 7c69 283c c11e 69bc
00000100: b762 f73c 5b8b 36bb 68cb 183d 6de7 67bb
00000110: d788 a9bb 99de 2c3d 5bf9 6b3c b2ac 013d
00000120: 5152 11bd e059 18bd bca9 143a 08c3 fcbc
00000130: f53d 8dbc 7363 0bbd 3c7c 16bd 50f9 ee3b
00000140: 7f90 e23b 7283 363b 0839 eabc c81a a3bd
00000150: 6d8b 8d3d 7080 b63c e25e 49bd cb7d 583d
00000160: b935 3f3d 3ce9 b33b ada8 ecbc 2bfd 6e3b
00000170: ec4f c43c 1b6e 91bc b29f d43b eb3e 3e3d
00000180: 8153 a7bc 62fc 1bbd 2b85 bebc a44e aebd
00000190: 0453 a939 f1fe 403c 6b43 abbd 357b 1e3d
000001a0: b892 773c 33e4 ecbd 3953 33bd b109 fc3c
000001b0: 6b69 87bd 7a5b 09bd a477 533a 58d7 07bd
000001c0: 00c5 b2bb 035c 80bc ebc3 27bc 76ae cc3c
000001d0: 39e3 363c 4be5 7dbc 9e76 8c3d 3e1f f53c
000001e0: 433a 50bc 86ad c43c 5ae8 b73d 7fb8 79bd
000001f0: 72f7 3f3c 502f cabc 2cdf 43bd ce88 c4bc
00000200: fd66 81bc aeb5 843c efda 113d 611b 823d
00000210: b7d6 76bc 2679 4c3d f3d6 963d db26 5e3c
00000220: 5f0a 99bb 2a99 1dbc dcf8 603c 0cce 20bc
00000230: 5d77 5abc 1c7c 443b 948b 5dbc f7f9 57bc
00000240: 6500 0bbd 936e e73c 6d51 9b3c be8b 083c
00000250: 4204 f33c 10d8 773c 01c7 62bd ffb5 25bd
00000260: ea91 c6bc e0b4 c7bc cd4f 263c d688 d53c
00000270: 440e 02bd cc76 8f3a 0034 333d 3929 70bd
00000280: b67e 96bd 50ed 34bc 97e8 303c 6691 f03c
00000290: ae31 e33c c031 383c 6cd9 ea3c d343 093d
000002a0: 275b eb3b 52ed 843c 6c12 a03c 1ca2 fa3c
000002b0: ea35 4ebc 6b60 1abd 9e53 b03c 7150 50bc
000002c0: eb63 c2bc 9893 323d ee1c 10bd 6f65 b0bb
000002d0: a682 e9bc 0421 e8bb c3e5 41bc 1149 16bc
000002e0: ab89 893c 6ff2 363c 5506 b53c 9196 183d
000002f0: f4be 853c 9a49 afbc bfa0 8b3c 1bb5 e93c
00000300: 71a7 4ebb 9275 4c3d 094e af3c 3d6e 6cbd
00000310: 2566 6ebc 5389 07bb 0c79 873d 9b64 9cbc
00000320: 55ff b6bc b949 653d 94ca 63bd 3539 3abd
00000330: 2297 383d b81c 543d 2c11 553d c4f8 bb3c
00000340: 4a5c 193d 9b09 043d 5305 b73c dc40 343d
00000350: b239 343d 9d86 6d3c 1ef5 e63c bedb f53c
00000360: 692c 69bd f878 9abc b242 963d 59db 4fbd
00000370: 06b4 9b3d edc6 e93d 929e 90bd ee1c debc
00000380: 7f1f bf3c 1eb4 9aba 7d68 b93c 0f7f 5c3a
00000390: 4314 143d 6070 5139 feaf 6bbb 2fbe 923c
000003a0: f0de a4bc 1f93 193d b961 2e3d 2139 70bc
000003b0: 9844 98bb 8cec 3c3d 24f4 00bb 3ef6 7d3c
000003c0: 936b 8d3d e147 963c 9fcc 1abc 27ed 323c
000003d0: cbf1 c43d 7c29 f13c d194 aa3c 0d27 ff3d
000003e0: d411 3e3c b724 e7bd 894b e5bd b22d adbd
000003f0: 0974 473c 1547 813d ed17 213c 6a85 533c
-0.003658361 -0.030142969 -0.03969451 0.03365149 -0.100986384 -0.093895614 0.061440006 -0.0010513527
-0.018677646 -0.033556852 0.021464607 -0.012245729 -0.019573212 0.03905004 0.010200048 -0.020457264
-0.01184555 -0.009795917 0.0041728416 0.0117613645 0.010299181 0.0066010687 0.017180463 0.0222806
0.0032794208 0.005051371 0.010028817 0.002372844 0.0059728236 -0.018256823 -0.01386803 0.02231299
0.0054307966 -0.111470155 -0.06606283 -0.036588255 -0.0013254764 -0.032250103 -0.028525123 0.06482583
0.011461232 -0.0111477235 0.047082875 -0.017999109 0.013949987 -0.028980348 -0.0017796104 0.014061098
0.017048966 0.04338429 0.026400963 -0.035836965 -0.014640097 0.019043298 -0.068838455 -0.02166245
-0.026091801 -0.057165265 0.046094842 0.038767353 -0.06759905 -0.0027992546 0.010279056 -0.014228524
0.030198438 -0.0027854058 0.03730336 -0.0035385743 -0.0051737833 0.042204473 0.014402713 0.031658836
-0.035478894 -0.037195086 0.00056710443 -0.030854717 -0.017241457 -0.03403039 -0.036739573 0.007292904
0.006914198 0.0027849344 -0.028591648 -0.079640925 0.06911359 0.02227804 -0.049162753 0.05285434
0.046682093 0.00549045 -0.028889025 0.0036466818 0.023963891 -0.017752698 0.0064887637 0.046446722
-0.02042556 -0.038082488 -0.023256859 -0.08511093 0.00032296043 0.011779533 -0.08362468 0.038691718
0.015110664 -0.11566963 -0.04378054 0.03076634 -0.06611904 -0.033534504 0.0008066839 -0.033164352
-0.005455613 -0.015668875 -0.010239582 0.024985533 0.011162573 -0.015496562 0.06858562 0.029922124
-0.012709203 0.024008524 0.089798644 -0.060966965 0.01171671 -0.024680763 -0.047820255 -0.023991015
-0.015796179 0.016199913 0.035609182 0.06352878 -0.01506584 0.049920224 0.07365217 0.013559069
-0.004670426 -0.009619037 0.013731208 -0.00981475 -0.0133341225 0.0029981202 -0.013522048 -0.013182155
-0.033935923 0.028250968 0.018959725 0.008334098 0.029665116 0.015127197 -0.055365566 -0.040456768
-0.0242395 -0.02437824 0.010150862 0.026066225 -0.031751886 0.0010945438 0.043750763 -0.058633063
-0.07348387 -0.011042908 0.010797641 0.029366206 0.02773365 0.01124233 0.028668128 0.033511948
0.007182497 0.016226444 0.019540034 0.030594878 -0.012586096 -0.037689608 0.021524247 -0.012714491
-0.023729285 0.043597788 -0.03518384 -0.0053831856 -0.02850468 -0.007084014 -0.011834565 -0.009172694
0.016789278 0.011166199 0.022097746 0.037252966 0.016326405 -0.0213974 0.017044423 0.02852874
-0.0031532908 0.04991681 0.021399515 -0.05772232 -0.01455072 -0.0020681217 0.06614885 -0.019090941
-0.022338549 0.05597851 -0.055613115 -0.045464713 0.045066006 0.0517852 0.05201833 0.02294577
0.03744153 0.032235723 0.022341406 0.044007167 0.044000335 0.014497426 0.028193053 0.030012008
-0.05692712 -0.01885651 0.0733694 -0.050746296 0.07602696 0.11414895 -0.07061495 -0.027113404
0.023330448 -0.0011802947 0.022632832 0.0008411267 0.036152136 0.00019973656 -0.0035963054 0.017912952
-0.020125836 0.03749382 0.042573664 -0.014662058 -0.004646849 0.046124026 -0.001967677 0.015500603
0.06905284 0.018344821 -0.0094481995 0.010920799 0.09616431 0.029438727 0.020822914 0.1245862
0.01160093 -0.112863 -0.11196048 -0.08455981 0.012173661 0.06312386 0.0098323645 0.012910226

bias f4 [64]
00000000: 1b01 4fb4 edf1 06b8 c0dd de37 a62d 9ab4
00000010: eb2d e137 ddab d7b6 7cba 5136 1d55 af37
00000020: 20c2 2837 09a0 7837 be5e 4636 b854 89b7
00000030: e3fd f5b6 e406 b136 b769 bcb7 c484 ef36
00000040: 32fc d6b7 aa84 9bb6 152c dcb7 a226 d036
00000050: 2eed adb6 495e 0138 5b28 b836 7cd0 d0b7
00000060: 93c2 3a36 53a3 84b7 a6d0 3c35 9246 c837
00000070: ff1a 80b7 cf51 7137 002e 0b37 00ea 67b6
00000080: 9407 ad37 96b0 08b7 2f18 8cb6 6113 2637
00000090: 8001 0000 2ab4 94b7 ef4a f6b7 654e 5f37
000000a0: 25f9 83b7 a702 0000 4288 66b7 19f1 6c37
000000b0: 0802 efb6 b80d a4b6 93c6 0937 ef5d a7b6
000000c0: 2b61 2c36 dd7b b6b6 3817 55b6 694f a3b6
000000d0: 5f41 7036 6c98 75b6 e9d2 2936 2540 0937
000000e0: e41e d9b6 7cc0 e436 56a2 7c37 7589 eeb6
000000f0: 28c9 7136 9df3 cc36 a4d6 6637 7f7c 5281
-1.927878e-07 -3.21734e-05 2.6567723e-05 -2.871795e-07 2.6843472e-05 -6.427507e-06 3.1251975e-06 2.090126e-05
1.0058779e-05 1.4819213e-05 2.9559446e-06 -1.6371123e-05 -7.3311253e-06 5.2758132e-06 -2.2460574e-05 7.138211e-06
-2.5628226e-05 -4.634804e-06 -2.6246571e-05 6.2033805e-06 -5.183413e-06 3.0843807e-05 5.4883253e-06 -2.4892615e-05
2.7829417e-06 -1.581168e-05 7.033908e-07 2.387472e-05 -1.527136e-05 1.4383767e-05 8.295756e-06 -3.4557888e-06
2.0626736e-05 -8.147346e-06 -4.1751405e-06 9.898883e-06 5.38e-43 -1.772687e-05 -2.9360379e-05 1.3310088e-05
-1.5732434e-05 9.51e-43 -1.3740793e-05 1.4122831e-05 -7.1229915e-06 -4.889178e-06 8.2120705e-06 -4.987923e-06
2.5686556e-06 -5.4384423e-06 -3.1752988e-06 -4.867023e-06 3.5800838e-06 -3.6596566e-06 2.5305728e-06 8.180771e-06
-6.4707e-06 6.8173376e-06 1.5058167e-05 -7.108955e-06 3.6028887e-06 6.108034e-06 1.3759043e-05 -3.866023e-38

weight f4 [64]
00000000: 8917 193f 8bd7 273f 74a4 a03e c628 cb3e
00000010: 2dc4 0d3f 7ce6 db3e 3ccd f43e 6043 1b3f
00000020: 6c9f be3e 1100 283f 52c8 d73e 8919 373f
00000030: 7314 283f 9a12 f03e cf7d 123f 6b28 ff3e
00000040: 7bbe ed3e 449c 293f 4173 163f f599 f83e
00000050: 706b 203f d568 1b3f b650 333e 6f3b 9f3e
00000060: da9b f13e 9614 143f 8d95 033f 2466 003f
00000070: a6ff 0e3e 8d04 153f cac3 113f 74cf eb3e
00000080: a01e a53e 0d0a 153f b36d 0e3f 3696 e33e
00000090: 85e7 c438 edc1 243f 21d5 223f f221 c83e
000000a0: 941f 003f 7b9b 1c37 50c4 d53e 4b31 eb3e
000000b0: 51a9 b23e fbac dc3e a075 f83e 13f4 943e
000000c0: a0f0 033f 8185 183f de84 013f 0584 643d
000000d0: fc20 6e3d 77b9 fd3e 05fb c83e 99fd a43e
000000e0: e49d 8b3e 8c5b c33e 46c0 0a3f 8ce9 223f
000000f0: fadc ae3e fbfb c63e 20a8 ec3e a313 653c
0.59801537 0.6556327 0.31375468 0.39679545 0.55377465 0.42949283 0.4781283 0.6064968
0.37231004 0.656251 0.4214502 0.7152334 0.65656203 0.46889192 0.5722322 0.49835524
0.46434388 0.6625407 0.58769614 0.4855496 0.62663937 0.60706836 0.17511258 0.31100032
0.47189218 0.5784391 0.5140007 0.50155854 0.1396471 0.5821007 0.56939375 0.46056712
0.32249928 0.5821846 0.5563614 0.4445054 9.389132e-05 0.6435841 0.6360646 0.39088398
0.50048184 9.334525e-06 0.41751337 0.45936045 0.34894803 0.43100724 0.4852724 0.29092464
0.5153904 0.5957871 0.50593364 0.055789966 0.058136925 0.4955556 0.39254013 0.3222473
0.27268898 0.38155782 0.54199636 0.63637614 0.34152967 0.3886412 0.4622202 0.013981733

bias f4 [64]
00000000: b41e 84be 7283 70be 8bf0 b1bd f1a5 e8bd
00000010: 03a7 69be 7a5c 9fbd d38f ffbd ca6b 43be
00000020: e754 38be 1ae5 4bbe 5727 f5bd 48c0 b6bd
00000030: f072 82be cbb0 f2bd ed36 2dbe 1f20 90be
00000040: 58ed 87be 875e 8ebe f4c8 63be 6f50 40be
00000050: 782e 5abe 192e 5bbe ea5d babd 9703 8ebd
00000060: e8d8 04be 4fe6 adbe b9d7 9abe 3e75 2bbe
00000070: 7ac5 d1bd 841c 1ebe dc99 20be f67d 2bbe
00000080: c976 0fbe 5730 9bbe fb65 8dbe 0ac3 8abe
00000090: a8d8 c0b7 0394 6ebe c60a 88be 1a74 30be
000000a0: 9d0e 90be 8628 75b4 ee42 8bbe 9ba6 8cbe
000000b0: a840 5bbe fee6 05be 0814 00be 715e 0ebe
000000c0: 77f1 85be 10c4 79be ee7b 98be 0504 8ebd
000000d0: 0f3b a6bd d2cb 8dbe c447 52be aa35 18be
000000e0: 3be8 acbd c0a1 a4be b18c 78be 4602 90be
000000f0: 805d 90be bc12 52be ba9a 74be 1910 63bc
-0.25804675 -0.23487642 -0.08688458 -0.11359776 -0.22817616 -0.077813104 -0.12478604 -0.19084087
-0.18001138 -0.19911614 -0.11970394 -0.089233935 -0.25478315 -0.11850127 -0.16915484 -0.28149506
-0.26548266 -0.27806494 -0.22244626 -0.18780683 -0.21306789 -0.21404304 -0.09099944 -0.069342785
-0.12973368 -0.33964774 -0.30242708 -0.16743943 -0.10242744 -0.15440565 -0.15683693 -0.16747269
-0.14010157 -0.30310318 -0.27616867 -0.27101928 -2.2989072e-05 -0.2329865 -0.2657072 -0.17231789
-0.2813615 -2.2832145e-07 -0.271995 -0.2747086 -0.21411383 -0.13076398 -0.12507641 -0.13903214
-0.26160786 -0.24391198 -0.2978205 -0.069343604 -0.08116733 -0.27694565 -0.20535189 -0.14864221
-0.08442732 -0.32154655 -0.2427242 -0.28126734 -0.28196335 -0.20514959 -0.23887148 -0.013858818

running_mean f4 [64]
00000000: 4abd 8b3e 06b0 e93d e35e 56bf 1a3d 353c
00000010: 5030 46be cbc5 46bf 30e8 29bf 4b92 0ebf
00000020: 4bb6 573d 2e96 81bf 2e75 e2bd 7820 cdbf
00000030: 5909 253e bef8 4ebf 049c f1be fa8e 4e3f
00000040: ba6b dfbe 3715 d93d 528f 12bf 22b1 ffbe
00000050: cdee 07bf 7bf1 82bf 16fd e0be 11f7 28bf
00000060: b4da 06be 131e f0be c19d bb3d c692 2abc
00000070: 6e76 afbe 1318 2b3e 1dba 18be 057d 6ebd
00000080: 2294 cfbe 2b7a 873f 1ac1 a63e bda6 dabc
00000090: a27e 5eb0 846f 0fbe 6448 bbbe 5f9d 1abf
000000a0: 0f49 7fbe c933 fea8 ef09 8e3e 1f9d 5a3f
000000b0: 5291 d43b a332 19be 0e11 00bd 57fd 193e
000000c0: f224 373f 7abd 1abd f017 c33e 822c 66bd
000000d0: d9f8 163e 4a9a 093e 5507 31bd bbfc 86bd
000000e0: 7ac9 23bf 9541 fd3e 82be b93e d4c3 52bf
000000f0: 45bc 3e3d 371d 893b 8c89 90be cdc9 54b8
0.27292854 0.11410527 -0.83738536 0.011061931 -0.19354367 -0.7764556 -0.66369915 -0.55691975
0.052664082 -1.0123956 -0.110575065 -1.6025534 0.16116847 -0.808483 -0.47189343 0.80686915
-0.43636876 0.105997495 -0.5724994 -0.4993983 -0.53098756 -1.0229944 -0.4394309 -0.66001993
-0.13169366 -0.46897945 0.091609485 -0.01041097 -0.34270042 0.16708402 -0.14914747 -0.058224697
-0.40542704 1.0584158 0.325692 -0.026690835 -8.0943086e-10 -0.14007384 -0.36578667 -0.6039638
-0.24930213 -2.8222123e-14 0.27741954 0.85396 0.00648705 -0.14960723 -0.031266265 0.15038048
0.7154075 -0.037778355 0.381042 -0.05619479 0.14743365 0.13437763 -0.043219883 -0.06591173
-0.63979304 0.49464098 0.36278158 -0.8233006 0.046566267 0.004184391 -0.2822994 -5.073268e-05

running_var f4 [64]
00000000: 9f67 463e 8fa5 9a3e 24e5 b73d 26c2 b53d
00000010: 962d 893e d2d3 493e aae2 d43d c016 213e
00000020: 64c6 c73d 4c4a 893e 1442 133e 17ca b83e
00000030: e9c0 433e c5ee 603e c7b7 8d3e 23cc 653e
00000040: e4d3 df3d bb94 aa3e f4a5 6f3e 10b7 103e
00000050: d6db 993e 8a39 373e 9c6a 183d c67c b13d
00000060: 2265 193e fb24 283e 9dd2 5c3e 9b16 dd3d
00000070: f9d2 d53c 972d 323e 3054 353e 4893 d43d
00000080: 1fbd 4a3d 95b0 813e 2050 4d3e f756 fb3d
00000090: 5cc5 e221 f3b0 783e f279 293e 65ea a03d
000000a0: 9b4e 0f3e 58f1 7b12 1541 053e 7c6c b53e
000000b0: 45bf e13d 300f 323e fe66 163e 3c0e 323d
000000c0: d17a 8e3e 554f 8b3e 5fb4 1f3e b8ce 973b
000000d0: 9986 633c ca6d 0b3e f46c d83d bc43 ae3d
000000e0: da19 883d c55c d33d a091 313e 4039 e53e
000000f0: e14b b23d 9348 b73d bfcd 6b3e f46f a431
0.19375466 0.30204436 0.08979252 0.088749215 0.26792592 0.1970971 0.10394795 0.15731335
0.09754637 0.26814497 0.14380676 0.36091682 0.19116558 0.21966083 0.27679273 0.22441153
0.10929087 0.33316597 0.2340315 0.14132333 0.30050534 0.17893043 0.037211046 0.08666377
0.14979985 0.16420357 0.21564718 0.10795327 0.026101576 0.17400204 0.17707896 0.10379654
0.049496766 0.25330034 0.20050097 0.122724466 1.5366596e-18 0.24286251 0.16550425 0.07857207
0.1399483 7.9499114e-28 0.13013108 0.3543433 0.1102281 0.17388606 0.14687726 0.043470606
0.27828076 0.27208963 0.1559615 0.004632797 0.013887071 0.136161 0.10567656 0.08509013
0.06645556 0.10320429 0.17340708 0.4477024 0.08705879 0.08949389 0.23027705 4.785756e-09
