models/model_NP2_fold_2_l2.pkl (torch_old, 708259 bytes, 38 tensors)

weight f4 [16, 3, 3, 3]
-0.014269357 0.052055065 0.099425666 -0.027977254 -0.016152002 -0.07821117 0.08697779 0.038028564
0.08852999 -0.09211218 0.014484374 -0.1715744 -0.11798304 -0.09433068 -0.050876584 -0.10037511
-0.028557613 -0.21923707 0.10188495 -0.051117335 -0.056085613 0.14137396 0.034897506 0.086117394
0.024962416 -0.04688787 -0.20440121 0.08786494 0.15695088 0.15159303 -0.18145534 0.0875132
-0.12416206 -0.07366893 -0.04499561 -0.1372594 -0.004844572 0.13785967 0.22902907 -0.0044887373
0.072667874 0.06539792 -0.13974667 -0.16314325 0.057614256 -0.01571298 -0.10419013 0.040656853
0.1596045 -0.0534317 0.12046537 0.050462514 -0.22809999 -0.079755306 -0.040878646 0.15720458
0.081677064 -0.22277026 -0.15539436 0.05300276 -0.15145692 0.11230134 0.13786931 0.002035087
0.0076801307 0.12797011 -0.08835321 -0.03445568 0.19216725 -0.048440248 0.12898324 0.1420993
-0.2273689 0.086575754 0.066617824 -0.06413338 -0.04155576 0.08606758 -0.17839266 0.078704804
-0.031201601 -0.023300178 -0.0050600595 -0.16589509 -0.008953097 0.1303976 -0.040539607 -0.014677125
-0.07551052 -0.1387323 -0.19190884 0.06746225 -0.18230341 0.15251409 0.09994496 -0.0062870923
0.002508491 -0.08339211 -0.061430667 0.06257182 0.06878704 0.019412344 -0.022805234 0.20723686
-0.116446726 0.08175018 0.18170607 0.16741009 0.09692112 0.05452137 -0.10783444 0.089101054
0.046159174 -0.11052786 -0.1018783 0.053911567 -0.15814674 0.07530899 0.07672247 -0.13802493
0.11171924 0.025428878 -0.03134314 0.12888801 -0.0723769 -0.07338164 0.12182715 -0.136959
0.027986083 -0.040746216 0.0049626403 0.07616832 0.14727898 0.023920665 -0.107567325 -8.608685e-05
0.00014721227 -6.4502085e-05 -0.00014666286 -0.00016244467 -1.361263e-05 0.00027457898 0.0003939789 0.0002641841
4.4250187e-06 -8.490075e-06 6.2447984e-06 -3.090293e-05 -1.5540545e-05 9.967802e-06 1.1645179e-05 2.1046504e-05
6.553229e-06 1.2173898e-07 1.7113204e-06 -1.2854781e-05 -1.7912005e-05 1.2690448e-05 -2.9715263e-06 1.0863423e-05
1.8908228e-05 4.085202e-06 0.1204352 0.11849191 0.12090571 -0.011829782 -0.1242404 -0.17470239
0.043415025 0.010778163 -0.18410733 0.20161885 -0.12692374 -0.18684393 0.13128154 -0.103215024
-0.055011958 0.14752086 0.0057790056 -0.08516775 0.16867274 0.17196842 -0.14271964 0.23047058
-0.020758832 -0.076819405 0.15119606 -0.12762 -0.14356816 -0.10970874 0.07503398 0.046562936
0.09830478 -0.08494828 0.14944628 -0.04633033 -0.13127546 0.12313402 0.22624962 -0.028623778
0.00939362 0.14440438 0.14472984 -0.04627951 0.18063991 -0.024350286 0.026765974 -0.09957143
-0.15864514 -0.19843106 -0.1215831 -0.16018194 -0.20990801 -0.038030166 0.114435606 -0.21533643
-0.14146638 -0.023345405 -0.059945565 0.0047988594 -0.17691275 -0.1856857 -0.21360138 -0.15961365
-0.22441891 0.15289737 -0.05126985 -0.11380395 0.05643447 0.032943264 0.1138139 0.054900803
0.01917584 0.01350456 0.01820301 -0.07944066 0.1360301 0.1153499 0.16095309 -0.06223804
-0.005857246 0.16545288 0.18271354 -0.019221606 -0.010661382 -0.07372094 -0.06077476 -0.10083065
0.060921393 0.0148752015 -0.075573765 0.16849811 -0.014349055 -0.05460165 -0.11303942 -0.19818959
00000000: 05ca 69bc b137 553d af9f cb3d 8e30 e5bc
00000010: 3451 84bc 2e2d a0bd 6921 b23d d7c3 1b3d
00000020: 364f b53d 50a5 bcbd de4f 6d3c 33b1 2fbe
00000030: 18a1 f1bd 7230 c1bd f763 50bd 7791 cdbd
00000040: a8f1 e9bc af7f 60be 0fa9 d03d 6960 51bd
00000050: 07ba 65bd 56c4 103e b0f0 0e3d 515e b03d
00000060: fb7d cc3c 7f0d 40bd 8d4e 51be 89f2 b33d
00000070: bbb7 203e 343b 1b3e 6ecf 39be 1f3a b33d
00000080: ae48 febd bcdf 96bd 514d 38bd ba8d 0cbe
00000090: 37bf 9ebb 162b 0d3e 9986 6a3e 4216 93bb
000000a0: e5d2 943d 58ef 853d c019 0fbe 060f 27be
000000b0: edfc 6b3d 82b8 80bc a361 d5bd cd87 263d
000000c0: 5d6f 233e 33db 5abd 8cb6 f63d c8b1 4e3d
000000d0: 0b93 69be c056 a3bd 5e70 27bd 3dfa 203e
000000e0: 4e46 a73d e31d 64be b31f 1fbe 6c19 593d
000000f0: 8617 1bbe 3ffe e53d 9d2d 0d3e 185f 053b
00000100: 9ba9 fb3b 990a 033e 87f2 b4bd 6621 0dbd
00000110: 7ec7 443e 4869 46bd 2f14 043e 7b82 113e
00000120: 65d3 68be a14e b13d ed6e 883d 5d58 83bd
00000130: 5f36 2abd 3344 b03d 91ac 36be fc2f a13d
00000140: 809a ffbc 04e0 bebc dbce a5bb 67e0 29be
00000150: 03b0 12bc f386 053e dc0c 26bd 5378 70bc
00000160: 42a5 9abd d70f 0ebe c083 44be a629 8a3d
00000170: bfad 3abe a72c 1c3e f1af cc3d f403 cebb
00000180: 7f65 243b 7cc9 aabd b99e 7bbd a825 803d
00000190: 38e0 8c3d a306 9f3c 0bd2 babc e635 543e
000001a0: 9f7b eebd a36c a73d 2811 3a3e 8d6d 2b3e
000001b0: 957e c63d cd51 5f3d 4ed8 dcbd 9d7a b63d
000001c0: 6711 3d3d 6e5c e2bd 92a5 d0bd 60d2 5c3d
000001d0: 38f1 21be 9a3b 9a3d ac20 9d3d 6856 0dbe
000001e0: 0fcd e43d 3950 d03c aa61 00bd 38fb 033e
000001f0: 573a 94bd 1d49 96bd 8380 f93d fb3e 0cbe
00000200: 1243 e53c 81e5 26bd a59d a23b 23fe 9b3d
00000210: 4dd0 163e 45f5 c33c 424c dcbd 8789 b4b8
00000220: fe5c 1a39 4b45 87b8 83c9 19b9 e955 2ab9
00000230: cd61 64b7 5ef5 8f39 f48e ce39 3182 8a39
00000240: 9f7a 9436 9870 0eb7 698a d136 c59d 01b8
00000250: 115d 82b7 623b 2737 aa5f 4337 068d b037
00000260: cfe3 db36 5bb7 0234 85b0 e535 ddaa 57b7
00000270: bd41 96b7 0fe9 5437 6f6a 47b6 0c42 3637
00000280: 1c9d 9e37 9e13 8936 bba6 f63d e3ab f23d
00000290: 6a9d f73d b4d1 41bc c071 febd 2fe5 32be
000002a0: f4d3 313d e496 303c a286 3cbe 2c75 4e3e
000002b0: 4cf8 01be 0454 3fbe ab6e 063e 6662 d3bd
000002c0: 3854 61bd b50f 173e d05d bd3b 6e6c aebd
000002d0: 8cb8 2c3e 7d18 303e 1925 12be 7b00 6c3e
000002e0: 6d0e aabc 7e53 9dbd 24d3 1a3e d1ae 02be
000002f0: 8803 13be faae e0bd 6aab 993d c7b8 3e3d
00000300: 0454 c93d 5df9 adbd 7208 193e dfc4 3dbd
00000310: 136d 06be b02d fc3d fbad 673e 6a7c eabc
00000320: b3e7 193c bede 133e 0f34 143e 958f 3dbd
00000330: abf9 383e 407a c7bc 5144 db3c 1bec cbbd
00000340: df73 22be 8331 4bbe 8f00 f9bd bc06 24be
00000350: 20f2 56be 85c5 1bbd 375d ea3d 2781 5cbe
00000360: 90dc 10be dd3e bfbc 7b89 75bd c03f 9d3b
00000370: 9e28 35be 6424 3ebe 52ba 5abe c371 23be
00000380: 12ce 65be 2191 1c3e 5600 52bd 0c12 e9bd
00000390: d527 673d 84ef 063d 4317 e93d aadf 603d
000003a0: a716 9d3c 3b42 5d3c 7b1e 953c c9b1 a2bd
000003b0: 794b 0b3e 923c ec3d e3d0 243e 51ed 7ebd
000003c0: 24ee bfbb 7b6c 293e 4219 3b3e a176 9dbc
000003d0: 14ad 2ebc 01fb 96bd f4ee 78bd 4d80 cebd
000003e0: b688 793d 1eb7 733c 6bc6 9abd c58a 2c3e
000003f0: 4c18 6bbc fba5 5fbd 3681 e7bd 36f2 4abe

bias f4 [16]
0.0003450175 0.00041036736 -2.0136488e-06 0.0019390838 0.00022981162 4.79e-43 -0.0026781494 0.000674111
0.00036864122 -9.977996e-05 -0.00052264216 -0.002360207 0.00045869904 0.0017152231 0.0008073734 -0.00066375773
00000000: 77e3 b439 9326 d739 3922 07b6 db28 fe3a
00000010: 96f9 7039 5601 0000 e483 2fbb d3b6 303a
00000020: 3046 c139 f540 d1b8 ec01 09ba b4ad 1abb
00000030: 8b7d f039 56d1 e03a e9a5 533a 0700 2eba

weight f4 [16]
0.23015875 0.716293 0.5022286 0.43315282 0.09921847 0.00065929344 0.385533 0.41288885
0.40562373 0.31363246 0.512201 0.2669868 0.583467 0.52889836 0.5988716 0.34331635
00000000: bcae 6b3e fa5e 373f 0e92 003f 35c6 dd3e
00000010: 0e33 cb3d 6fd4 2c3a 9564 c53e 2b66 d33e
00000020: eaad cf3e 6f94 a03e 9b1f 033f 7eb2 883e
00000030: 185e 153f e265 073f a64f 193f 29c7 af3e

bias f4 [16]
0.0118723735 0.28307876 0.15825719 0.06659967 -0.050404064 -0.0026197648 0.19536197 0.004877376
-0.046929207 -0.09412414 0.23949838 0.08620605 -0.021497482 -0.024937766 -0.01743725 0.061098207
00000000: 5884 423c b3ef 903e 2c0e 223e 6865 883d
00000010: 7e74 4ebd 5cb0 2bbb f80c 483e 65d2 9f3b
00000020: d738 40bd 28c4 c0bd 103f 753e cc8c b03d
00000030: 7d1b b0bc 494a ccbc 90d8 8ebc 1d42 7a3d

running_mean f4 [16]
0.44828418 -0.023071958 -0.13641468 -0.022475997 -0.03854144 -0.0007235236 -0.027313398 0.28392556
0.55572194 0.35084465 0.047145445 -0.19936159 -0.16039926 -0.1651959 -0.03386724 -1.1410191
00000000: 8185 e53e 6701 bdbc 4ab0 0bbe 951f b8bc
00000010: a1dd 1dbd d9aa 3dba 59c0 dfbc b15e 913e
00000020: cb43 0e3f e9a1 b33e 951b 413d 7225 4cbe
00000030: b43f 24be 1d29 29be 60b8 0abd ea0c 92bf

running_var f4 [16]
1.2864455 0.4210436 0.7278713 0.20514922 0.28427923 2.9438854e-06 0.7532913 0.48543403
1.7386106 0.93199456 0.33272296 0.52950686 0.49273786 0.32012045 0.37099862 6.528206
00000000: 3faa a43f 0793 d73e c655 3a3f a312 523e
00000010: 0c8d 913e 918f 4536 b3d7 403f cf8a f83e
00000020: cb8a de3f 3297 6e3f aa5a aa3e c38d 073f
00000030: 2348 fc3e d4e6 a33e 88f3 bd3e 10e7 d040

weight f4 [32, 16, 3, 3]
0.05064188 0.07201526 0.088536404 0.09301634 0.09494472 0.042584013 0.07720254 0.04214386
0.07435694 0.03583489 0.112409875 -0.077048235 0.031255145 0.14248495 0.13903081 0.0062548374
0.06881405 0.13618104 -0.02050625 0.036416102 -0.041392755 -0.09218549 -0.07748607 0.06996021
-0.06070686 -0.048632436 -0.029973159 0.010463419 0.04036157 0.11903917 -0.101849884 -0.04112767
-0.040455814 -0.016022062 -0.11594506 -0.039291333 -0.014412982 -0.006128285 -0.004312324 -0.013069755
-0.028118337 -0.047686286 -0.028195297 -0.023680748 -0.033733927 1.9411966e-12 1.6294073e-12 1.9573683e-10
4.9255114e-15 1.3023534e-15 5.4103027e-14 3.3221567e-14 1.9057547e-14 1.9957633e-13 -0.023464873 -0.015127516
0.027127549 -0.032977257 -0.054670773 -0.124484226 -0.07222428 0.019026717 -0.04676061 0.019726409
-0.085247226 -0.0310967 -0.045109317 -0.04830373 0.014114857 0.09470508 0.028825708 -0.010687326
0.055131 -0.049437035 -0.028608177 -0.051357985 0.010726013 -0.1025101 -0.03526425 -0.049869128
-0.053155337 -0.035253245 0.027404305 0.04496246 -0.019887045 -0.035433237 0.017398756 0.0056022834
0.061421745 -0.019134577 -0.063453965 0.045555566 -0.008176715 -0.024174137 -0.123723045 -0.04302852
0.06492875 0.015017387 -0.076336674 0.07415558 -0.008127218 -0.05873381 0.06421374 -0.007149314
0.09719948 0.018374119 0.03770827 0.07596152 0.06498634 0.08213749 0.001691761 -0.04516674
0.019188158 0.026561541 -0.01781509 -0.09449356 -0.06231158 0.053248234 0.055247452 0.061450284
-0.09554183 0.025724515 0.072370045 -0.10007818 -0.10575808 -0.011784293 -0.02861052 -0.015383117
0.063549235 0.08219494 0.040730488 -0.057991307 -0.04317516 -0.0062406966 -0.03817752 -0.009181005
-0.009493301 0.055383246 0.0058739535 0.015653532 0.013790112 -0.12190871 -0.03364712 -0.010715226
0.012966322 0.039580014 0.05089451 0.06435391 0.048482604 0.071859926 0.04916413 0.005285598
0.06903082 -0.029431928 -0.024732368 0.0734992 -0.102877595 -0.074224696 0.00944217 -0.06844139
-0.09883668 -0.025415098 -0.114114985 -0.12681103 -0.09593355 -0.09144121 -0.08296072 -0.07716968
-0.077608876 -0.12589024 -0.047748435 0.05644265 -0.013675794 -0.012621703 0.037947055 -0.024064776
0.027076704 0.025854753 -0.0038159457 -0.0019811364 0.023532325 -0.003140333 -0.0050408263 0.018517993
0.0031606145 -0.0076313433 0.0026619532 0.0042834403 -0.012051133 2.8245023e-18 2.6907712e-20 4.0226837e-22
2.870274e-17 1.4248714e-17 8.905786e-19 5.30251e-19 5.152766e-19 7.824031e-19 0.015798433 0.0005681651
-0.0067920745 -0.012732308 -0.0013080965 0.017209105 -0.06782331 0.011973039 0.0347631 -0.010261476
-0.039029896 -0.096421316 -0.09741487 -0.100077644 -0.0030772174 -0.019167185 -0.01320484 -0.011905579
0.016167957 0.055435058 -0.01930234 -0.0033910046 -0.0054705576 0.03170431 -0.05255895 -0.0014789697
0.060297333 -0.024328442 -0.004494434 0.0035418272 -0.025027394 -0.022744387 -0.008478547 -0.021924458
0.049703956 0.02871117 0.049064368 -0.010248725 -0.040047936 0.06698806 0.06189582 -0.007925645
0.003044641 0.041113544 0.060470596 -0.07869172 -0.06830722 -0.017383724 -0.0332937 -0.04292546
-0.033952266 -0.002578568 -0.040735394 -0.0534593 -0.029356493 0.0030156549 -0.050721444 0.009177154
00000000: dc6d 4f3d bd7c 933d 9352 b53d 5a7f be3d
00000010: 6172 c23d 936c 2e3d 5e1c 9e3d 0a9f 2c3d
00000020: 7448 983d 9bc7 123d 2637 e63d 77cb 9dbd
00000030: 6505 003d 93e7 113e 185e 0e3e 61f5 cc3b
00000040: 61ee 8c3d 0b73 0b3e b9fc a7bc 0d29 153d
00000050: 738b 29bd bfcb bcbd 04b1 9ebd 4c47 8f3d
00000060: c2a7 78bd ce32 47bd 458a f5bc c36e 2b3c
00000070: 2c52 253d cfca f33d ac96 d0bd 7d75 28bd
00000080: ffb4 25bd b340 83bc 9b74 edbd f3ef 20bd
00000090: 6e24 6cbc c8cf c8bb 654e 8dbb 8722 56bc
000000a0: 6d58 e6bc b252 43bd d3f9 e6bc 21fe c1bc
000000b0: 962c 0abd 7d99 082c 9651 e52b 0537 572f
000000c0: d375 b127 5cb0 bb26 8ba8 7329 dc9d 1529
000000d0: b6a7 ab28 f6b3 602a 6839 c0bc 67d9 77bc
000000e0: 983a de3c 2913 07bd 76ee 5fbd 96f1 febd
000000f0: 53ea 93bd ebdd 9b3c 0e88 3fbd 4799 a13c
00000100: 1996 aebd 82be febc 8cc4 38bd 22da 45bd
00000110: 0042 673c bdf4 c13d e423 ec3c e519 2fbc
00000120: 0bd1 613d 7d7e 4abd b25b eabc c05c 52bd
00000130: 29bc 2f3c d1f0 d1bd 3f71 10bd 9243 4cbd
00000140: 69b9 59bd b565 10bd fe7e e03c 8e2a 383d
00000150: 28ea a2bc 7122 11bd d687 8e3c 5c93 b73b
00000160: 5e95 7b3d 1ec0 9cbc 27f4 81bd 7998 3a3d
00000170: a1f7 05bc d708 c6bc 8262 fdbd ac3e 30bd
00000180: 5df9 843d 7d0b 763c 6756 9cbd e1de 973d
00000190: 0628 05bc dd92 70bd 7e82 833d cb44 eabb
000001a0: 8510 c73d 5285 963c fd73 1a3d b791 9b3d
000001b0: 8f17 853d b337 a83d 14be dd3a c200 39bd
000001c0: 7c30 9d3c 9797 d93c f4f0 91bc d785 c1bd
000001d0: 6d3a 7fbd d21a 5a3d 274b 623d 4bb3 7b3d
000001e0: 6fab c3bd 38bc d23c bf36 943d caf5 ccbd
000001f0: b197 d8bd e812 41bc 9c60 eabc 7809 7cbc
00000200: 1a26 823d d255 a83d 03d5 263d 4b88 6dbd
00000210: 70d8 30bd c27e ccbb 0860 1cbd ed6b 16bc
00000220: ca89 1bbc 8bd9 623d 4b7a c03b d63b 803c
00000230: ecef 613c 46ab f9bd 90d1 09bd ea8e 2fbc
00000240: b270 543c a71e 223d c376 503d fccb 833d
00000250: b295 463d 4c2b 933d 5460 493d cf32 ad3b
00000260: 0860 8d3d 3a1b f1bc 899b cabc c086 963d
00000270: 7db1 d2bd 1e03 98bd 55b3 1a3c 002b 8cbd
00000280: e36a cabd 5333 d0bc 1eb5 e9bd c0da 01be
00000290: cf78 c4bd 8745 bbbd 4fe7 a9bd 230b 9ebd
000002a0: 67f1 9ebd 5fe9 00be dd93 43bd 6830 673d
000002b0: 7010 60bc 42cb 4ebc 5f6e 1b3d 7e23 c5bc
000002c0: f7cf dd3c 59cd d33c f214 7abb f4d5 01bb
000002d0: ddc6 c03c 0cce 4dbb 842d a5bb 0cb3 973c
000002e0: 5022 4f3b 5910 fabb 2a74 2e3b 1a5c 8c3b
000002f0: 1e72 45bc 5769 5022 db22 fe1e 0428 f31b
00000300: 375e 0424 d36b 8323 1c6d 8321 a280 1c21
00000310: 3315 1821 b5ec 6621 b76b 813c eaf0 143a
00000320: 0d90 debb 2c9b 50bc 6f74 abba 1cfa 8c3c
00000330: f3e6 8abd 912a 443c c163 0e3d c01f 28bc
00000340: d0dd 1fbd 8a78 c5bd 7381 c7bd 82f5 ccbd
00000350: 24ab 49bb 8004 9dbc 1d59 58bc 9e0f 43bc
00000360: aa72 843c df0f 633d f11f 9ebc 9e3b 5ebb
00000370: 5d42 b3bb 61dc 013d 0e48 57bd fdd9 c1ba
00000380: 56fa 763d 714c c7bc 0c46 93bb 001e 683b
00000390: 4006 cdbc 7052 babc 9be9 0abc ec9a b3bc
000003a0: 6096 4b3d b033 eb3c b8f7 483d 45ea 27bc
000003b0: 4e09 24bd 0931 893d 7986 7d3d 91da 01bc
000003c0: 9a88 473b ad66 283d 04b0 773d 2029 a1bd
000003d0: a8e4 8bbd 5068 8ebc fa5e 08bd 9bd2 2fbd
000003e0: 8811 0bbd 31fd 28bb 28da 26bd 24f8 5abd
000003f0: 077d f0bc 4ba2 453b 4ac1 4fbd c65b 163c

bias f4 [32]
0.00029613634 2.2395436e-05 -9.486134e-05 0.00012481802 -6.037861e-07 -3.7090653e-05 -0.00029241721 -5.2534717e-05
0.0002128862 0.00010708117 -0.00074920553 9.2747214e-05 0.00016145626 0.0003468565 0.00017655277 -0.0005135417
0.00016714715 -4.9923798e-05 7.160775e-08 -0.00019693113 0.00015294056 -8.658482e-06 6.726991e-06 0.00036606428
0.0001328926 0.00017549106 -8.6479784e-05 0.00027248426 5.3716987e-05 0.00027651578 0.00018373296 0.0003698643
00000000: bf42 9b39 d5dd bb37 4bf0 c6b8 95e1 0239
00000010: dd13 22b5 c991 1bb8 934f 99b9 b958 5cb8
00000020: 343a 5f39 c490 e038 5566 44ba 4881 c238
00000030: 964c 2939 4bda b539 0621 3939 339f 06ba
00000040: 3944 2f39 4565 51b8 c7c6 9933 4c7f 4eb9
00000050: ab5e 2039 e643 11b7 6ab8 e136 51ec bf39
00000060: 1659 0b39 0604 3839 7b5c b5b8 38dc 8e39
00000070: 2d4e 6138 52f9 9039 71a8 4039 59ea c139

weight f4 [32]
0.40531272 0.30053672 0.21317087 0.70835626 0.108782075 0.22306497 0.9099655 0.32412687
0.48364568 0.33199045 0.63432425 0.85902613 0.602707 0.40585074 0.32865012 0.4333818
0.69413394 0.045740806 0.011060474 0.58293545 0.55256546 0.5730636 0.03960244 0.68814945
0.59957457 0.37215388 0.48488316 0.7478522 0.15866247 0.48432398 0.3312022 0.56533957
00000000: 2685 cf3e f3df 993e 7749 5a3e d656 353f
00000010: 23c9 de3d 256b 643e 80f3 683f f5f3 a53e
00000020: 68a0 f73e a7fa a93e 1363 223f 23e9 5b3f
00000030: 024b 1a3f abcb cf3e d444 a83e 38e4 dd3e
00000040: c3b2 313f b65a 3b3d fe36 353c 423b 153f
00000050: ee74 0d3f 4cb4 123f 2b36 223d 902a 303f
00000060: b87d 193f f48a be3e 9b42 f83e 3e73 3f3f
00000070: 6a78 223e 50f9 f73e 5693 a93e 18ba 103f

bias f4 [32]
-0.13688125 -0.14569646 -0.08213997 -0.18307929 -0.044444017 -0.14031653 -0.1925154 0.08256737
-0.036209494 -0.035667025 -0.0036763605 -0.09025961 -0.1591093 -0.06801093 0.016974349 -0.035099808
0.0842555 -0.03191678 -0.04367666 0.010084306 -0.09515898 -0.19632624 -0.0503749 0.09598727
-0.018944666 0.01451197 -0.08914041 0.023446461 -0.09210667 0.007007765 0.008137376 -0.036180105
00000000: 992a 0cbe 7431 15be 0039 a8bd 2379 3bbe
00000010: ee0a 36bd 23af 0fbe c222 45be 1519 a93d
00000020: 6850 14bd 9617 12bd 18ef 70bb 08da b8bd
00000030: 8ced 22be 5149 8bbd ca0d 8b3c d1c4 0fbd
00000040: 268e ac3d 2bbb 02bd 4ce6 32bd a538 253c
00000050: b6e2 c2bd bf09 49be e955 4ebd f994 c43d
00000060: d831 9bbc 9dc3 6d3c 3f8f b6bd cb12 c03c
00000070: 6ca2 bcbd 65a1 e53b a152 053c 9731 14bd

running_mean f4 [32]
0.02438615 -0.6353837 0.023942076 0.020674132 -0.083602756 -0.77276015 -0.76658076 -0.07281578
-0.12479488 -0.16478907 -0.6097884 0.2721348 0.60074115 -0.11866608 0.18165427 0.07232149
-0.4343785 -0.11788773 -0.004380047 -0.016676458 -0.07849798 -0.27440435 -0.055283763 -0.5230102
0.121034235 0.05563273 -0.27261317 -0.715463 -0.28185233 -0.3762692 -0.4023547 -0.026623897
00000000: 77c5 c73c 82a8 22bf 2c22 c43c cc5c a93c
00000010: ec37 abbd 9cd3 45bf a33e 44bf 7120 95bd
00000020: 7594 ffbd 77be 28be 181b 1cbf 4155 8b3e
00000030: 2cca 193f 3407 f3bd 9403 3a3e 4a1d 943d
00000040: dc66 debe 1f6f f1bd 7f86 8fbb 119d 88bc
00000050: 8dc3 a0bd ba7e 8cbe 3a71 62bd ffe3 05bf
00000060: cce0 f73d 25df 633d f493 8bbe 9528 37bf
00000070: f34e 90be 5ba6 c0be 6f01 cebe 5c1a dabc

running_var f4 [32]
0.12697493 0.19058289 0.08843737 0.11365098 0.04104094 0.10060397 0.21138617 0.063641205
0.05743351 0.08417142 0.32998908 0.28610247 0.23246454 0.16098678 0.13724889 0.08518168
0.24826834 0.01294101 4.2539315e-05 0.25833368 0.16521747 0.12020439 0.0013359517 0.27428117
0.1994942 0.104922086 0.19105233 0.26255175 0.03759723 0.07433996 0.09663361 0.2055815
00000000: b705 023e 2928 433e a71e b53d d8c1 e83d
00000010: 8b1a 283d 7409 ce3d 9e75 583e 5256 823d
00000020: 663f 6b3d 1162 ac3d 54f4 a83e 067c 923e
00000030: 2f0b 6e3e b8d9 243e f98a 0c3e bc73 ae3d
00000040: 0e3a 7e3e 8806 543c 3e6c 3238 5044 843e
00000050: c52e 293e b82d f63d 1a1b af3a 956e 8c3e
00000060: 3548 4c3e 64e1 d63d 39a3 433e 2f6d 863e
00000070: 8eff 193d 8d3f 983d d8e7 c53d f583 523e

weight f4 [48, 32, 3, 3]
-0.054169662 -0.034245167 -0.016126692 -0.0039286828 -0.029232651 -0.024703618 0.01739838 -0.009086945
-0.006250425 -0.03037715 -0.020148259 0.007831936 -0.0038533378 -0.01003029 -0.007838597 -0.00042642216
0.016997445 -0.01972348 0.008370684 -0.015025132 0.008513738 0.007898177 -0.04322366 0.0010461168
0.024948409 -0.018070038 0.008465271 -0.01805766 -0.034029804 -0.04088715 -0.01877535 -0.069766395
-0.02497329 -0.018433211 -0.006876466 0.037527412 0.00034457358 0.004277511 0.005700943 0.0016133207
-0.0029366564 0.007623055 0.0021305669 -0.0019157211 0.004711989 -0.03153465 -0.020534776 -0.005106909
-0.0025129234 0.0073156967 -0.00018629048 0.006987299 0.049068518 0.03239839 0.036279462 -0.0024005743
-0.0125202 0.062273487 0.03350491 -0.0037082408 0.033082 0.10417094 0.029652724 0.027804792
-0.0004454346 0.0046630325 -0.0024768035 -0.0045562685 -0.019808369 -0.0040500127 -0.02846426 -0.033382155
-0.033810034 0.020539371 -0.0019805038 -0.029170277 -0.012726521 -0.014996704 -0.01106872 -0.055171456
-0.043786835 -0.02507481 0.017923474 0.026557757 -0.037149984 -0.035800256 -0.031280212 0.01528334
-0.023842365 -0.037748657 -0.0485719 -0.04966337 -0.022945361 -0.053002603 -0.03786196 -0.055768106
-0.04664068 -0.07902155 -0.06758493 0.00947804 0.0019178783 0.0063209087 0.0018083254 -0.037792444
-0.017121831 0.025643488 0.04020766 0.04499796 -0.0533776 0.04221623 -0.0045611598 -0.038071796
0.035167634 0.026106576 -0.041887283 -0.014869192 -0.0052543674 -0.017749352 -0.057557374 -0.036946103
0.03391306 -0.010540025 -0.02884642 0.041297507 0.038796384 0.010731101 0.01624046 0.01813924
0.03355761 0.022452503 0.022496298 0.01895234 0.04506279 0.027677573 0.017473578 -0.042826645
-0.011349493 0.004599032 -0.032860935 -0.0016354318 0.013453898 -0.0348069 -0.027055362 -0.0220989
-0.040810976 -0.02987352 -0.043609522 -0.062221613 -0.0299563 -0.048384856 -0.10396813 -0.055699203
-0.056858882 -0.0020606716 -0.0010061798 0.0010615109 0.0027007516 -0.0021739488 0.00029759228 -0.0018990581
-0.0017123271 -0.004360302 -1.1964748e-06 -1.8834213e-07 -4.3213727e-06 1.5925822e-07 4.1249195e-06 -2.300294e-06
8.339602e-06 -6.336432e-06 -1.3519542e-06 0.08862031 -0.03367325 -0.021967929 0.036519278 -0.06992368
-0.049844604 0.05508999 -0.0016830699 -0.0134109445 0.02413816 0.024623258 0.011792812 0.029939666
0.020366246 0.011340465 0.056325745 0.025351863 0.019346206 0.051764254 -0.026196389 0.00044834884
0.044867147 -0.008680954 0.006667199 0.006377885 0.000383657 0.011339565 4.7861664e-05 -0.00015909079
0.00053218374 6.9397456e-06 -0.00015739433 0.0006057022 -9.9885525e-05 6.154254e-05 0.00043594238 0.019631127
0.019817065 -0.03110221 0.0027306373 -0.031813208 -0.004371876 -0.028775198 -0.04008517 0.03202618
0.010839252 -0.12611203 -0.07020972 -0.01714898 -0.10113751 -0.05287644 0.035983317 -0.01569108
0.04988647 0.03916239 0.0114516 0.008144985 0.04871833 0.0026993337 -0.014749319 0.09084961
0.034483116 0.04815709 -0.019726967 -0.030172735 -0.033633724 -0.004658991 -0.027672997 0.025673432
-3.5360263e-05 0.024510497 0.043834556 0.034981444 0.011883619 0.039878342 0.0077069653 -0.027840378
-0.02259277 -0.0112108765 -0.017868737 -0.04298534 0.017484978 0.018041968 0.019635726 0.021657798
00000000: 02e1 5dbd a944 0cbd 201c 84bc 2ebc 80bb
00000010: 5079 efbc 3e5f cabc 0c87 8e3c 69e1 14bc
00000020: 5dd0 ccbb 80d9 f8bc f60d a5bc 8551 003c
00000030: 4888 7cbb 1656 24bc 756d 00bc 6a91 dfb9
00000040: 3a3e 8b3c 2393 a1bc 3225 093c f92b 76bc
00000050: 357d 0b3c 5b67 013c 4b0b 31bd db1d 893a
00000060: 9b60 cc3c 9e07 94bc ecb1 0a3c a8ed 93bc
00000070: d662 0bbd 4979 27bd c3ce 99bc afe1 8ebd
00000080: c994 ccbc 3f01 97bc fa53 e1bb 58b6 193d
00000090: e2a7 b439 5d2a 8c3b face ba3b 0f76 d33a
000000a0: eb74 40bb d2ca f93b fba0 0b3b ef18 fbba
000000b0: 0767 9a3b 7a2a 01bd 8c38 a8bc dc57 a7bb
000000c0: dcaf 24bb 83b8 ef3b f856 43b9 b6f5 e43b
000000d0: 12fc 483d 2db4 043d c699 143d f452 1dbb
000000e0: 8621 4dbc 7c12 7f3d 723c 093d f505 73bb
000000f0: fe80 073d 9357 d53d 45ea f23c e0c6 e33c
00000100: 3889 e9b9 5acc 983b de51 22bb c04c 95bb
00000110: 2945 a2bc f8b5 84bb e12d e9bc babb 08bd
00000120: 647c 0abd 2f42 a83c 57cb 01bb 81f6 eebc
00000130: e682 50bc bcb4 75bc 9459 35bc 77fb 61bd
00000140: d359 33bd b069 cdbc 40d4 923c a78f d93c
00000150: 952a 18bd 4aa3 12bd ae1f 00bd f966 7a3c
00000160: 1051 c3bc 569e 1abd 54f3 46bd d16b 4bbd
00000170: e9f7 bbbc 4219 59bd 2415 1bbd 196d 64bd
00000180: 4c0a 3fbd 0dd6 a1bd f869 8abd c849 1b3c
00000190: 5161 fb3a a01f cf3b 5505 ed3a 40cc 1abd
000001a0: 1543 8cbc 4b12 d23c cab0 243d c84f 383d
000001b0: 78a2 5abd edea 2c3d c875 95bb 2cf1 1bbd
000001c0: f00b 103d 75dd d53c 0092 2bbd e99d 73bc
000001d0: d42c acbb 1767 91bc 48c1 6bbd cc54 17bd
000001e0: 6ce8 0a3d 12b0 2cbc 544f ecbc 9327 293d
000001f0: f5e8 1e3d 80d1 2f3c b70a 853c be98 943c
00000200: b473 093d 50ee b73c 284a b83c f041 9b3c
00000210: c393 383d 14bc e23c c024 8f3c fe6a 2fbd
00000220: 39f3 39bc 7ab3 963b 3099 06bd fc5b d6ba
00000230: bd6d 5c3c ae91 0ebd 35a3 ddbc c108 b5bc
00000240: 6929 27bd 50b9 f4bc e69f 32bd 17dc 7ebd
00000250: ea66 f5bc 332f 46bd 3eed d4bd d924 64bd
00000260: dce4 68bd 550c 07bb cbe1 83ba 6522 8b3a
00000270: 18ff 303b cf78 0ebb 2906 9c39 d1e9 f8ba
00000280: 2a70 e0ba dde0 8ebb 9096 a0b5 173b 4ab4
00000290: 4f00 91b6 9100 2b34 ca68 8a36 c05e 1ab6
000002a0: 51ea 0b37 899d d4b6 cb74 b5b5 917e b53d
000002b0: f6ec 09bd 16f6 b3bc 3d95 153d 2534 8fbd
000002c0: db29 4cbd 0ba6 613d 749a dcba 94b9 5bbc
000002d0: 64bd c53c b7b6 c93c a336 413c 0844 f53c
000002e0: 1dd7 a63c 5ccd 393c d3b5 663d b6ae cf3c
000002f0: ef7b 9e3c c106 543d cf99 d6bc 5d10 eb39
00000300: 9dc6 373d 8f3a 0ebc 8578 da3b 94fd d03b
00000310: 9225 c939 95c9 393c 12bf 4838 9cd1 26b9
00000320: 3f82 0b3a f6db e836 380a 25b9 fdc7 1e3a
00000330: a279 d1b8 6610 8138 328f e439 75d1 a03c
00000340: 6657 a23c 10ca febc 7ef4 323b 914e 02bd
00000350: f441 8fbb f7b9 ebbc 5930 24bd e22d 033d
00000360: 1e97 313c 8323 01be 1dca 8fbd 057c 8cbc
00000370: 2f21 cfbd f794 58bd 3e63 133d 948a 80bc
00000380: c155 4c3d be68 203d 7e9f 3b3c 8b72 053c
00000390: df8c 473d 4ee7 303b 21a7 71bc 5c0f ba3d
000003a0: 2b3e 0d3d 5e40 453d 739a a1bc d02c f7bc
000003b0: 84c3 09bd 73aa 98bb 7bb2 e2bc 1751 d23c
000003c0: cb4f 14b8 3dca c83c dd8b 333d b448 0f3d
000003d0: 83b3 423c 7957 233d b68a fc3b 8111 e4bc
000003e0: 7914 b9bc d3ad 37bc 7561 92bc 6511 30bd
000003f0: a83c 8f3c c0cc 933c 1adb a03c b26b b13c

bias f4 [48]
0.0002324495 0.00014242932 2.4141213e-05 -3.4531982e-05 -4.2184485e-05 -3.2479868e-06 0.00010358181 1.6834812e-05
-5.2951928e-05 5.819278e-05 3.639528e-05 4.5324556e-05 0.00015075415 -6.536436e-05 -8.468793e-05 6.649766e-05
-3.7688318e-05 -0.00013979124 -2.2629438e-05 9.95e-43 3.64e-43 -5.7791844e-06 3.6703488e-05 -0.00013723038
2.9347731e-05 6.275035e-34 0.00012294906 4.731908e-05 1.7937424e-05 1.752e-42 0.00010533601 -1.2626041e-05
1.48382005e-05 -4.5494307e-05 -8.511865e-05 2.5287522e-12 -6.117179e-05 5.0583752e-05 4.2036663e-06 -6.063117e-05
-6.957247e-05 -3.0409726e-06 8.738758e-05 -9.574923e-06 -8.607483e-05 6.2273044e-05 -2.8280561e-05 8.368789e-06
00000000: b0bd 7339 1459 1539 dc82 ca37 6fd6 10b8
00000010: 3fef 30b8 fdf7 59b6 103a d938 7c38 8d37
00000020: b318 5eb8 0614 7438 22a7 1838 df1a 3e38
00000030: c213 1e39 3914 89b8 7c9a b1b8 a974 8b38
00000040: 8613 1eb8 ed94 12b9 59d4 bdb7 c602 0000
00000050: 0401 0000 d1ea c1b6 12f2 1938 80e5 0fb9
00000060: c62f f637 1886 5008 e3eb 0039 7a78 4638
00000070: 5378 9637 e204 0000 d7e7 dc38 6fd4 53b7
00000080: 96f1 7837 24d1 3eb8 ba81 b2b8 f3f1 312c
00000090: 5b49 80b8 e429 5438 380d 8d36 394e 7eb8
000000a0: 6fe7 91b8 8313 4cb6 da43 b738 fba3 20b7
000000b0: 1383 b4b8 9698 8238 0b3c edb7 ad67 0c37

weight f4 [48]
0.18210955 0.4028639 0.1928217 0.31347522 0.74336576 0.22494513 0.4953646 0.43426493
0.5428985 0.34090477 0.41425166 0.5737659 0.27803463 0.36047277 0.75841504 0.6114822
0.48523223 0.1636666 0.50807154 0.016477125 -4.5419974e-09 0.3589282 0.3049299 0.3417984
0.46338943 -3.8521076e-29 0.68687814 0.44160238 0.5210253 0.00031326347 0.74607664 0.700718
0.23392773 0.39152196 0.6099007 0.008953723 0.37253636 0.62102014 0.023467405 0.27755418
0.5789297 0.6937398 0.7177545 0.03885472 0.51650965 0.5398355 0.2872416 0.61398065
00000000: ed7a 3a3e 2d44 ce3e 0d73 453e d37f a03e
00000010: 384d 3e3f 0458 663e 6ea0 fd3e f957 de3e
00000020: 65fb 0a3f 128b ae3e cb18 d43e 52e2 123f
00000030: 8e5a 8e3e e38f b83e 7d27 423f 198a 1c3f
00000040: 5c70 f83e 3898 273e fa10 023f 09fb 863c
00000050: d50f 9cb1 70c5 b73e c61f 9c3e 3300 af3e
00000060: 6141 ed3e 3753 4390 3fd7 2f3f b519 e23e
00000070: ea61 053f 833d a439 e1fe 3e3f 4162 333f
00000080: c08a 6f3e 9175 c83e 7422 1c3f a3b2 123c
00000090: 16bd be3e 2dfb 1e3f b73e c03c 951b 8e3e
000000a0: bd34 143f ee98 313f c2be 373f 2026 1f3d
000000b0: fa39 043f a932 0a3f 5511 933e d62d 1d3f

bias f4 [48]
-0.096489854 -0.13755357 -0.14134099 -0.09188837 -0.19006048 -0.12451453 -0.20709352 -0.10753949
-0.19057938 -0.16683312 -0.11322523 -0.08659136 -0.020556103 -0.015498431 -0.052143145 -0.12670915
-0.055073548 -0.12484428 -0.14409584 -0.0340227 -5.7378013e-08 -0.11996833 -0.1809295 -0.102869526
-0.106352895 -1.0651563e-09 -0.22671898 -0.20053077 -0.1691699 -0.000587693 -0.17202783 -0.15972164
-0.049114674 -0.21723062 -0.30411005 -0.032671615 -0.13156736 -0.08961984 -0.072791696 -0.09497981
-0.17910296 -0.06375021 -0.0386919 -0.06684488 -0.1572076 -0.113582216 -0.17736527 -0.14212519
00000000: 799c c5bd d8da 0cbe b1bb 10be f82f bcbd
00000010: 379f 42be 7901 ffbd 5310 54be aa3d dcbd
00000020: 3e27 43be 4dd6 2abe a1e2 e7bd d056 b1bd
00000030: 4665 a8bc 22ed 7dbc 0d94 55bd 0bc0 01be
00000040: cd94 61bd 5cae ffbd dc8d 13be 635b 0bbd
00000050: cb6f 76b3 f5b1 f5bd 9545 39be 42ad d2bd
00000060: 8ccf d9bd db64 92b0 0529 68be f057 4dbe
00000070: e03a 2dbe 690f 1aba 1028 30be 128e 23be
00000080: 782c 49bd b471 5ebe 50b4 9bbe acd2 05bd
00000090: 98b9 06be 9b8a b7bd d013 95bd c684 c2bd
000000a0: c466 37be 788f 82bd 667b 1ebd f8e5 88bd
000000b0: 07fb 20be cb9d e8bd 3e9f 35be 4489 11be

running_mean f4 [48]
-0.4226273 -0.41687974 -0.19042672 -0.6760786 -0.40662998 -0.60744333 -0.43341377 -0.30019403
0.18093912 -0.43444446 -0.1306495 0.07736697 -0.428223 -0.38552326 -0.75678885 0.3152306
-0.23601334 0.06146896 -0.5237171 -0.0018071292 1.1369291e-09 -0.13129301 -0.26180136 -0.020411732
-0.6788232 5.6525784e-09 -0.12732089 -0.26603332 -0.115182675 6e-45 -1.3699714 -0.6636568
-0.089161694 0.13320817 -0.46510285 0.0018634705 -0.5158795 -0.49101207 -0.016686074 1.3790911
-0.6822908 -0.9868138 -0.56167805 0.18337913 -0.44359642 -0.93660253 -0.7978232 -0.19246684
00000000: 9b62 d8be 4371 d5be 39ff 42be 7d13 2dbf
00000010: ce31 d0be 6881 1bbf 69e8 ddbe 08b3 99be
00000020: 1b48 393e 816f debe fcc8 05be 9372 9e3d
00000030: 0c40 dbbe 4e63 c5be eabc 41bf e865 a13e
00000040: 7bad 71be e0c6 7b3d 5312 06bf 32dd ecba
00000050: 2342 9c30 ad71 06be d40a 86be 8136 a7bc
00000060: 5bc7 2dbf 9b38 c231 6860 02be 8535 88be
00000070: e5e4 ebbd 0400 0000 395b afbf 69e5 29bf
00000080: 689a b6bd b967 083e f621 eebe b23f f43a
00000090: ae10 04bf ef65 fbbe 3cb1 88bc 0f86 b03f
000000a0: 9caa 2ebf d49f 7cbf 22ca 0fbf bdc7 3b3e
000000b0: 121f e3be 2fc5 6fbf 243e 4cbf 0716 45be

running_var f4 [48]
0.120765686 0.19802168 0.101772144 0.20948192 0.24285777 0.17070605 0.23471348 0.23055945
0.2645662 0.20826714 0.2995964 0.47172606 0.17696045 0.35029554 0.84178454 0.3330787
0.3477168 0.05418962 0.3679395 5.986144e-06 7.621298e-17 0.2382422 0.1934286 0.22334458
0.34808907 2.6686537e-15 0.36053956 0.17047286 0.6238543 6e-45 0.54224044 0.28718287
0.15146334 0.19887054 0.2689188 5.2290397e-06 0.28682575 0.21818168 0.0014970854 0.5862641
0.47240508 0.76595795 0.62979656 0.010434716 0.2581381 0.3622431 0.20180832 0.29597494
00000000: 0054 f73d 32c6 4a3e ea6d d03d 6e82 563e
00000010: b5af 783e 91cd 2e3e bb58 703e c717 6c3e
00000020: 3975 873e fb43 553e b364 993e 1486 f13e
00000030: 1f35 353e f059 b33e 317f 573f 4b89 aa3e
00000040: f007 b23e eff5 5d3d 9162 bc3e 96dc c836
00000050: 34bc af24 c3f5 733e 2612 463e 71b4 643e
00000060: bb38 b23e f94b 4027 a498 b83e 7090 2e3e
00000070: eab4 1f3f 0400 0000 45d0 0a3f a209 933e
00000080: 3519 1b3e b8a4 4b3e baaf 893e 1c75 af36
00000090: d3da 923e 056b 5f3e da39 c43a 6715 163f
000000a0: 14df f13e d215 443f 593a 213f 5ff6 2a3c
000000b0: ad2a 843e ed77 b93e d7a6 4e3e 078a 973e

weight f4 [64, 48, 3, 3]
0.016490975 0.0006204153 0.008569364 0.016374735 0.0013275746 0.0021232408 -0.013738623 -0.014659025
-0.00085491344 -0.006103771 0.0047839223 0.0558139 0.020045567 0.049748685 -0.024282718 0.052754544
0.027391324 -0.018411465 -0.029439988 0.014343594 0.026445398 0.0093563 0.0054031815 0.0030440327
-0.018135158 -0.02358221 -0.009326101 -0.032919627 -0.013341598 -0.011101526 -0.040230237 -0.00058100634
-0.0014237737 -0.03619327 -0.016777655 0.014484794 0.090988316 0.054600727 0.023977824 0.08777534
-0.020765362 0.023895819 0.038648207 0.04688003 0.06303833 0.055475857 0.03993432 0.05694479
0.056718126 0.033139773 0.010254479 0.026293078 0.027478317 0.009502926 0.014192458 -0.01815605
-0.011478243 0.048298743 0.01736004 0.0020141 0.079983495 0.086408354 -0.027144551 0.03872165
0.05371064 0.022558728 0.015949344 0.04352254 0.06598639 0.003471607 0.011874122 0.03183727
0.015275112 -0.030138802 0.043480985 -0.020865744 -0.022615338 -0.0085690105 0.036339257 -0.014503237
-0.047735527 -0.023105223 -0.022737768 0.042864095 0.0016781293 -0.011210328 0.0035930711 0.07254858
0.03200289 0.017824879 -0.009011778 -0.013065188 -0.074166276 0.070028685 0.066021286 -0.0020329454
0.045920644 0.030455137 0.0076287035 -0.04585466 0.012346489 -0.0031687657 -0.001835163 0.022139497
0.027917404 0.00059630437 0.00013464011 0.031676542 0.0034799026 -0.007405747 0.0075292443 0.027672248
0.029085414 -0.03557473 0.06830359 0.016452543 0.023388924 -0.0029833843 0.03112176 -0.0121259345
0.0049833157 0.048208676 0.010856788 -0.05577598 -0.0009308961 0.00981249 0.0014611438 0.051881183
0.025945053 -0.064064525 0.02229738 0.110526405 -0.08304605 0.016983058 0.06787635 0.03410624
-0.045441236 -0.0765213 0.085404456 -0.031033065 -0.040655866 0.05135419 0.023677792 -0.028950496
0.055289883 0.00021813627 -0.0057832063 0.1023681 0.06330276 -0.032787055 0.084868394 0.022880021
-0.04510493 0.014403002 -0.018378276 -0.017768228 0.025715418 0.022358911 -0.009054125 0.028388385
0.024412675 0.014931745 -0.03007006 -0.044340305 0.046765186 0.00015974775 0.017278684 -0.018496165
-0.0041940133 0.0009285492 -0.0633236 -1.166822e-07 1.9782121e-07 6.671512e-07 -9.800792e-07 -1.4365666e-09
-1.0973785e-06 -1.9014449e-07 -7.1326326e-08 -3.3592776e-06 -1e-44 2.42e-43 -4.2e-44 -2.69e-43
-1.74e-43 6.6e-44 -2.09e-43 -3.05e-43 -1.37e-43 0.01681942 -0.041119684 -0.031008774
0.07754467 -0.022269852 -0.0320457 0.04913907 0.039522152 0.06322601 0.04688346 0.017319748
-0.014384832 0.023878124 0.00012272464 -0.016298315 0.0036320298 -0.041755777 -0.042511832 -0.017700847
0.025494829 0.054157455 -0.0041326545 0.023480976 -0.011425952 0.10321813 0.07539334 0.03024909
0.059633538 0.0076823356 0.004718561 0.06377963 0.03170717 -0.002657748 -0.008220217 0.031230394
-0.023819052 -2.0252289e-15 -3.7388267e-16 1.8738245e-15 -9.029075e-17 1.7671289e-20 -6.515272e-16 1.1843797e-16
2.6067934e-16 -3.9555587e-15 0.015953014 -0.005759755 0.012948522 -0.042757776 -0.0054422147 0.047747724
-0.09575665 -0.055027075 0.032210927 0.060497276 0.042963732 -0.017933045 0.012037628 0.0046365904
0.033568256 0.0666161 0.0018961703 0.05115633 -0.07369851 -0.06307487 -0.045141343 0.020886509
00000000: 1518 873c 5ea3 223a 8566 0c3c 4f24 863c
00000010: 0302 ae3a 1226 0b3b f617 61bc 682c 70bc
00000020: 451c 60ba 2402 c8bb 73c2 9c3b 1e9d 643d
00000030: 9a36 a43c 47c5 4b3d 8dec c6bc 2615 583d
00000040: c563 e03c a4d3 96bc 212c f1bc 6501 6b3c
00000050: 05a4 d83c 2b4b 193c 2c0d b13b 657e 473b
00000060: 2f90 94bc 7b2f c1bc 81cc 18bc bbd6 06bd
00000070: b896 5abc 2de3 35bc 76c8 24bd ad4e 18ba
00000080: eb9d baba 653f 14bd 4b71 89bc a151 6d3c
00000090: 1558 ba3d 03a5 5f3d 246d c43c 8fc3 b33d
000000a0: 1f1c aabc 2ac1 c33c 954d 1e3d 4605 403d
000000b0: 3d1a 813d a73a 633d 2b92 233d f13e 693d
000000c0: 4451 683d 92bd 073d 6702 283c 9564 d73c
000000d0: 351a e13c 29b2 1b3c 7c87 683c ffbb 94bc
000000e0: 3e0f 3cbc e7d4 453d a536 8e3c fefe 033b
000000f0: 63ce a33d ddf6 b03d 405e debc 989a 1e3d
00000100: b0ff 5b3d 15cd b83c 33a8 823c b144 323d
00000110: df23 873d e783 633b ad8b 423c cc67 023d
00000120: 7744 7a3c a6e5 f6bc 1e19 323d a3ee aabc
00000130: cd43 b9bc 0965 0cbc 79d8 143d fc9e 6dbc
00000140: 5486 43bd 2a47 bdbc 8e44 babc 4392 2f3d
00000150: adf4 db3a 86ab 37bc bb79 6b3b 5a94 943d
00000160: 7615 033d 7b05 923c 23a6 13bc 5f0f 56bc
00000170: 7de4 97bd 336b 8f3d 2b36 873d 2a3b 05bb
00000180: 4917 3c3d 0d7d f93c 34fa f93b 19d2 3bbd
00000190: ee48 4a3c 11ab 4fbb da89 f0ba e45d b53c
000001a0: 0ab3 e43c 4f51 1c3a 2e2e 0d39 43bf 013d
000001b0: 140f 643b e9ab f2bb e1b7 f63b e9b0 e23c
000001c0: 8944 ee3c cfb6 11bd c1e2 8b3d 7cc7 863c
000001d0: 219a bf3c e284 43bb 10f3 fe3c dbab 46bc
000001e0: 154b a33b 7676 453d abe0 313c 5b75 64bd
000001f0: 6107 74ba 91c4 203c da83 bf3a 5d81 543d
00000200: b88a d43c 4334 83bd ffa8 b63c ab5b e23d
00000210: 0c14 aabd 0e20 8b3c c102 8b3d fcb2 0b3d
00000220: 9720 3abd 33b7 9cbd 88e8 ae3d 0e39 febc
00000230: c486 26bd c558 523d eef7 c13c 9729 edbc
00000240: a577 623d 82bb 6439 0d81 bdbb 5ea6 d13d
00000250: e1a4 813d b84b 06bd 7bcf ad3d e26e bb3c
00000260: f2bf 38bd 92fa 6b3c 0a8e 96bc ad8e 91bc
00000270: 24a9 d23c 092a b73c c157 14bc c28e e83c
00000280: 17fd c73c 47a4 743c 7d55 f6bc 2e9e 35bd
00000290: da8c 3f3d f681 2739 078c 8d3c 4585 97bc
000002a0: ef6d 89bb e269 733a ceaf 81bd b892 fab3
000002b0: ae68 5434 4816 3335 448b 83b5 b270 c5b0
000002c0: a349 93b5 852a 4cb4 102c 99b3 f36f 61b6
000002d0: 0700 0080 ad00 0000 1e00 0080 c000 0080
000002e0: 7c00 0080 2f00 0000 9500 0080 da00 0080
000002f0: 6200 0080 e1c8 893c 1d6d 28bd 1d06 febc
00000300: bdcf 9e3d 446f b6bc 5a42 03bd 0d46 493d
00000310: fbe1 213d a37c 813d df08 403d 25e2 8d3c
00000320: 5cae 6bbc 0e9c c33c a5af 0039 0b84 85bc
00000330: 5907 6e3b 1b08 2bbd e320 2ebd 5e01 91bc
00000340: 88da d03c 35d4 5d3d 386b 87bb 2d5b c03c
00000350: eb33 3bbc 0764 d33d d367 9a3d f1cc f73c
00000360: 4c42 743d 1abc fb3b 299e 9a3b e59e 823d
00000370: 61df 013d 9d2d 2ebb 17ae 06bc e2d6 ff3c
00000380: 2c20 c3bc e1ee 11a7 5887 d7a5 f605 0727
00000390: 4032 d0a4 8ee6 a61e 39ca 3ba6 b88c 0825
000003a0: 7b45 9625 9783 8ea7 e5af 823c 54bc bcbb
000003b0: 0a26 543c c722 2fbd 9b54 b2bb 1e93 433d
000003c0: 101c c4bd 1264 61bd 9bef 033d fecb 773d
000003d0: bdfa 2f3d 52e8 92bc 7939 453c 8aee 973b
000003e0: de7e 093d 066e 883d eb88 f83a 4d89 513d
000003f0: 3fef 96bd 662d 81bd 21e6 38bd 2f1a ab3c

bias f4 [64]
3.6435897e-05 3.948284e-05 3.4004788e-05 -8.261316e-09 1.01774285e-05 -3.0022284e-06 -3.765931e-05 1.3774392e-05
-4.9538876e-12 -1.0831834e-05 3.8502154e-07 8.627898e-06 -4.3397817e-05 -1.6439784e-05 -8.3758405e-06 2.6280753e-05
5.0134553e-05 8.563302e-05 1.5575158e-28 8.164754e-06 1.3373648e-05 5.6257823e-06 2.2023261e-05 1.1716461e-05
2.9669713e-05 5.590449e-05 -2.6223637e-05 -3.3918415e-05 1.1272715e-05 2.4918856e-05 -2.323889e-05 3.3443005e-06
9.841591e-06 4.450718e-05 1.6596454e-05 -2.4374618e-05 9.930899e-06 -2.352474e-05 3.98513e-05 -0.00010453584
1.342e-42 -1.212e-42 -1.4423631e-06 3.1686894e-05 1.0293729e-05 5.4615307e-06 -3.49217e-05 4.846977e-06
-1.8918363e-05 -4.504416e-05 1.1731024e-05 -1.0303884e-05 3.408944e-05 2.1861684e-05 -3.4855736e-06 3.730879e-05
-5.2378276e-05 4.8270435e-06 -1.9750157e-06 1.826e-42 1.26737805e-05 -4.1855903e-05 1.2619795e-05 -1.0618719e-08
00000000: bfd2 1838 609a 2538 5da0 0e38 a7ed 0db2
00000010: b9bf 2a37 e479 49b6 60f4 1db8 9018 6737
00000020: a74c aeac 5fba 35b7 f5b4 ce34 8ac0 1037
00000030: 0d06 36b8 2be8 89b7 f685 0cb7 7d75 dc37
00000040: 9147 5238 e195 b338 4770 4511 5afb 0837
00000050: 615f 6037 1ac5 bc36 98be b837 d191 4437
00000060: 39e3 f837 fd7a 6a38 d5fa dbb7 9f43 0eb8
00000070: f11f 3d37 d608 d137 23f1 c2b7 a56e 6036
00000080: 501d 2537 38ad 3a38 9d38 8b37 1878 ccb7
00000090: e39c 2637 ff56 c5b7 0226 2738 403a dbb8
000000a0: be03 0000 6103 0080 3897 c1b5 8be7 0438
000000b0: 3bb3 2c37 3142 b736 e478 12b8 37a3 a236
000000c0: e0b2 9eb7 cced 3cb8 5dd0 4437 d8de 2cb7
000000d0: 42fb 0e38 9c63 b737 b3e9 69b6 027c 1c38
000000e0: bfb0 5bb8 fdf7 a136 838a 04b6 1705 0000
000000f0: 79a1 5437 6f8e 2fb8 9bb9 5337 9f6d 36b2

weight f4 [64]
0.35184488 0.5574382 0.39099926 2.0900783e-08 0.24668407 0.32986248 0.7205925 0.7772514
1.8449305e-07 0.19060719 0.12360331 0.5360906 0.7423917 0.04301683 0.30134448 0.49092826
0.4159786 0.598433 0.0017870113 0.24558523 0.40750954 0.28233784 0.68346596 0.5731936
0.68446827 0.36256048 0.6923347 0.15858787 0.5508894 0.6007212 0.55226177 0.20996563
0.20422044 0.48498943 0.33150557 0.32023084 0.5997866 0.60660535 0.3012238 0.781311
0.01737216 2.5279178e-07 0.30528307 0.6260105 0.23675509 0.1813139 0.53966826 0.5565026
0.37464708 0.36383495 0.46049023 0.47397432 0.4991729 0.35598585 0.43135765 0.5423512
0.5540489 0.076531485 0.6189602 0.0045962776 0.70534056 0.61082876 0.16931283 0.21197611
00000000: 0325 b43e 45b4 0e3f 0e31 c83e 4f89 b332
00000010: c09a 7c3e bce3 a83e c078 383f f3f9 463f
00000020: 1019 4634 882e 433e bb23 fd3d 3c3d 093f
00000030: 620d 3e3f 6a32 303d d349 9a3e f35a fb3e
00000040: 26fb d43e e832 193f 263a ea3a b27a 7b3e
00000050: 17a5 d03e 968e 903e a0f7 2e3f d1bc 123f
00000060: 5039 2f3f 87a1 b93e d93c 313f dc64 223e
00000070: 1607 0d3f ddc8 193f 0761 0d3f 3b01 573e
00000080: 2a1f 513e 8950 f83e 19bb a93e 4cf5 a33e
00000090: 9d8b 193f 7d4a 1b3f 023a 9a3e ff03 483f
000000a0: 0f50 8e3c 70b7 8734 104e 9c3e 3942 203f
000000b0: ed6f 723e 5aaa 393e b327 0a3f f476 0e3f
000000c0: bed1 bf3e 9348 ba3e 60c5 eb3e c3ac f23e
000000d0: 9793 ff3e c743 b63e e9da dc3e 87d7 0a3f
000000e0: 26d6 0d3f 8abc 9c3d 2d74 1e3f 5f9c 963b
000000f0: 3391 343f 465f 1c3f 5860 2d3e 4410 593e

bias f4 [64]
-0.17687586 -0.109362945 -0.2055654 -7.128201e-11 -0.20028186 -0.26514673 -0.34572592 -0.2627152
-6.02645e-10 -0.25570714 -0.18765636 -0.16019033 -0.19891895 -0.07832991 -0.1922862 -0.19838227
-0.23777871 -0.16215506 -0.00046889574 -0.16922012 -0.20244673 -0.25609392 -0.24445121 -0.38697237
-0.3512682 -0.1524415 -0.11367826 -0.10978004 -0.20326033 -0.18731563 -0.06460029 -0.17894532
-0.257307 -0.2468357 -0.17970957 -0.29557627 -0.22434969 -0.28431728 -0.2082553 -0.2560709
-0.005031872 -1.2485546e-10 -0.12453064 -0.27160752 -0.23595981 -0.23576738 -0.28516892 -0.1434367
-0.23635192 -0.13511153 -0.21983217 -0.1163055 -0.28105664 -0.31914303 -0.2168235 -0.31528774
-0.1825266 -0.15130378 -0.2983589 -0.0032652235 -0.27124125 -0.29083183 -0.123280056 -0.15375265
00000000: f21e 35be aef9 dfbd bc7f 52be 34c0 9cae
00000010: b016 4dbe 50c1 87be fd02 b1be 9b82 86be
00000020: 5fa7 25b0 0cec 82be fd28 40be ef08 24be
00000030: 69b1 4bbe 6f6b a0bd ace6 44be b924 4bbe
00000040: 437c 73be fa0b 26be 1fd6 f5b9 0a48 2dbe
00000050: 324e 4fbe be1e 83be 6b51 7abe 3e21 c6be
00000060: 6dd9 b3be a019 1cbe 26d0 e8bd 5cd4 e0bd
00000070: 7a23 50be abcf 3fbe 284d 84bd 713d 37be
00000080: bebd 83be 7fc2 7cbe c905 38be c655 97be
00000090: edbb 65be 0992 91be e140 55be ba1b 83be
000000a0: 67e2 a4bb b047 09af ec09 ffbd 2410 8bbe
000000b0: 739f 71be 016d 71be a901 92be 12e1 12be
000000c0: 3d06 72be ad5a 0abe af1b 61be 9431 eebd
000000d0: a8e6 8fbe b766 a3be fb06 5ebe 656d a1be
000000e0: 41e8 3abe 61ef 1abe 7fc2 98be 5cfd 55bb
000000f0: 22e0 8abe e9e7 94be 417a fcbd 5671 1dbe

running_mean f4 [64]
0.40698087 -1.0448774 0.34445125 5.149233e-09 -0.2991765 -0.6948776 -0.6071556 1.3624958
3.727171e-11 -0.19017345 0.052979574 -1.357277 -0.43939832 -0.03597246 0.642273 -0.24053566
-0.0905506 -0.35823056 -6e-45 -0.16545245 -0.5277438 0.45253506 -0.0055102175 -0.60546166
0.1004559 0.4270008 -1.1257781 -0.10564879 -0.59379965 -0.5248232 -2.2485402 0.024191486
0.15827289 -0.8660184 0.35975343 -0.24431276 -0.266927 0.38744476 -0.054073147 -0.3163721
-1.2567054e-26 5.2740397e-13 -0.11280901 0.74255264 0.31293643 -0.029695315 -0.7040388 0.22209783
-0.26635984 0.24872063 -0.89652526 -0.5037705 -0.61943597 -0.27382657 -0.22594659 0.08411088
-1.3832659 0.035985965 -1.2196593 1.8600714e-10 0.41373178 -0.35796976 0.02239092 -0.5203121
00000000: cc5f d03e 8bbe 85bf ea5b b03e 22ed b031
00000010: aa2d 99be 80e3 31bf 8d6e 1bbf 4366 ae3f
00000020: 37ec 232e d4bc 42be 1c01 593d 41bb adbf
00000030: d1f8 e0be dc57 13bd 016c 243f fb4e 76be
00000040: 9872 b9bd ff69 b7be 0400 0080 5e6c 29be
00000050: 381a 07bf adb2 e73e 0e8f b4bb 89ff 1abf
00000060: d3bb cd3d d99f da3e 7f19 90bf 655e d8bd
00000070: 4103 18bf d05a 06bf 15e8 0fc0 392d c63c
00000080: 4a12 223e 62b3 5dbf 9a31 b83e 202d 7abe
00000090: a8aa 88be 295f c63e ce7b 5dbd 86fb a1be
000000a0: 89ea 7894 7673 142b 6908 e7bd ee17 3e3f
000000b0: 3439 a03e 9743 f3bc e33b 34bf 9d6d 633e
000000c0: 5160 88be 9fb0 7e3e ae82 65bf 1af7 00bf
000000d0: 5b93 1ebf ff32 8cbe 8b5e 67be 5342 ac3d
000000e0: db0e b1bf 0566 133d cc1d 9cbf 5b84 4c2f
000000f0: a7d4 d33e d047 b7be 2a6d b73c 2c33 05bf

running_var f4 [64]
0.076335855 0.34811082 0.14517552 1.0408726e-16 0.07605434 0.07857017 0.1328174 0.33598185
7.963575e-21 0.038804974 0.014135987 0.19408543 0.18944547 0.004029825 0.112444855 0.08561598
0.119338624 0.15282157 6e-45 0.06574951 0.13097706 0.09324843 0.373177 0.15620084
0.19699542 0.14342995 0.33210802 0.028084802 0.4610431 0.13876186 0.43269154 0.042053275
0.054984815 0.21802539 0.12293074 0.07658334 0.13319482 0.22334166 0.113658465 0.24098906
5.2321103e-16 1.5725776e-20 0.081198774 0.20614299 0.04913474 0.041432846 0.19635299 0.28782484
0.13624474 0.1680111 0.115560435 0.1245137 0.13152836 0.07537031 0.18900067 0.15810809
0.32024533 0.008889076 0.3187113 9.3570916e-20 0.19642162 0.23114459 0.036299825 0.10305214
00000000: f955 9c3d 953b b23e e4a8 143e 4602 f024
00000010: 61c2 9b3d 66e9 a03d 4901 083e d005 ac3e
00000020: 7c6d 161e f7f1 1e3d a09a 673c 55be 463e
00000030: fefd 413e 9f0c 843b 7d49 e63d 6e57 af3d
00000040: cf67 f43d 427d 1c3e 0400 0000 aea7 863d
00000050: da1e 063e 08f9 be3d 0e11 bf3e 1df3 1f3e
00000060: 2bb9 493e 4ddf 123e 100a aa3e 1912 e63c
00000070: d70d ec3e 9717 0e3e bf89 dd3e 0e40 2c3d
00000080: c237 613d 0c42 5f3e 1dc3 fb3d bad7 9c3d
00000090: 3964 083e adb3 643e c5c5 e83d d6c5 763e
000000a0: 29ce 1626 9886 941e 8b4b a63d 2617 533e
000000b0: 8241 493d 7db5 293d c210 493e c75d 933e
000000c0: be83 0b3e 1a0b 2c3e f3aa ec3d 0a01 ff3d
000000d0: 5faf 063e c05b 9a3d 6489 413e 16e7 213e
000000e0: 32f7 a33e 7da3 113c 212e a33e 26f0 dc1f
000000f0: c022 493e 2bb1 6c3e 20af 143d 000d d33d
