models/model_NP5_fold_1_l2.pkl (torch_old, 705099 bytes, 38 tensors)

weight f4 [16, 3, 3, 3]
-0.011783964 0.056382187 0.1271827 -0.026957294 -0.0009303871 -0.06350407 0.08375323 0.037435416
0.12959005 -0.10492799 0.010043265 -0.15399468 -0.12160218 -0.05236123 -0.017857896 -0.12878864
-0.023819556 -0.1288844 0.059604008 -0.11917197 -0.101911135 0.117549546 0.019895904 0.05533641
-0.020416211 -0.09220026 -0.19563994 0.09629294 0.15945525 0.15332535 -0.1709746 0.092054814
-0.11156653 -0.044804413 -0.03199813 -0.12627023 0.00953759 0.15167238 0.23508446 0.006282794
0.07515024 0.064765036 -0.1280106 -0.15756473 0.042107824 -0.037004348 -0.12616087 0.016692266
0.13688503 -0.08324151 0.09603037 0.03331122 -0.24888134 -0.11459456 -0.029275537 0.15481119
0.052756846 -0.20654786 -0.1530167 0.038011935 -0.12798256 0.13513105 0.150194 -0.028761057
-0.00039710372 0.13006675 -0.109747484 -0.03391629 0.21050233 -0.05974488 0.1428846 0.17212361
-0.25827494 0.05929285 0.036432937 -0.08024337 -0.053152654 0.06930207 -0.18909264 0.07083827
-0.036369007 -0.05953451 -0.019163204 -0.15998845 -0.027194683 0.13312729 -0.029795919 -0.016605373
-0.066451386 -0.11618339 -0.20165321 0.081321344 -0.14479655 0.15006703 0.11753706 0.023378462
0.006936438 -0.0674986 -0.02752922 0.044839192 0.06340784 0.028029384 -0.036110584 0.20641147
-0.11692345 0.075426884 0.17728715 0.17194343 0.09375071 0.07626217 -0.14142206 0.08736552
0.060935352 -0.13110104 -0.13788237 0.084000684 -0.18980299 0.072351106 0.11494105 -0.17090786
0.12595515 0.048253667 -0.019532682 0.16722362 -0.06973882 -0.06795423 0.13067198 -0.17046003
0.01599633 -0.07307721 0.013912079 0.0990508 0.19436444 0.05768804 -0.12356397 -0.0020487877
0.0017899433 -0.0013959728 -0.003087189 -0.0035295505 -0.0009048736 0.002611814 0.0039061892 0.0023239586
-9.3073075e-05 -0.0009884909 0.00016732958 -0.0024909899 -0.0018721009 0.00016939991 0.0001432116 0.0007886269
-0.00021286607 -0.0005655565 -0.00041464184 -0.0015946222 -0.0021245985 0.00011519455 -0.0010972797 -6.0696537e-05
0.000657191 -0.0006652792 0.11278453 0.11550079 0.13502656 -0.016285103 -0.1266354 -0.15241659
0.06323226 0.052314673 -0.14521278 0.20339037 -0.1336139 -0.19796418 0.12197981 -0.123956226
-0.07494865 0.14796117 0.015819335 -0.102692716 0.15266956 0.14634389 -0.1700432 0.20717432
-0.05093542 -0.107318185 0.1394114 -0.12566325 -0.1655214 -0.12619421 0.063888356 0.03754269
0.07933545 -0.084689565 0.14637822 -0.056308515 -0.13059413 0.1219231 0.25263163 0.032832623
0.073399924 0.121927924 0.20021322 0.00091389613 0.14805286 0.0025154972 0.048054542 -0.16862503
-0.14999309 -0.16614848 -0.2419165 -0.16940631 -0.21385604 -0.13659751 0.08129041 -0.2256772
-0.14603798 -0.032733247 -0.060561646 0.024074426 -0.17680193 -0.1790707 -0.21440475 -0.1397655
-0.20048791 0.16845292 -0.0565095 -0.11545806 0.08027518 0.03322728 0.12121963 0.05813986
0.025621746 0.01906051 0.029075095 -0.078282215 0.15369555 0.14262602 0.17808403 -0.04554729
0.00061378133 0.18740015 0.20928754 -0.00936698 -0.016681643 -0.08999885 -0.06545241 -0.11315101
0.078347504 -0.014516099 -0.09237172 0.15975939 0.03350419 -0.023953851 -0.11866749 -0.1780824
00000000: 8711 41bc 02f1 663d 2f3c 023e 8bd5 dcbc
00000010: 39e5 73ba 6c0e 82bd d086 ab3d e155 193d
00000020: 41b3 043e 7ce4 d6bd 828c 243c c8b0 1dbe
00000030: 900a f9bd bb78 56bd b94a 92bc 2be1 03be
00000040: 3b21 c3bc 46fa 03be 5523 743d 6f10 f4bd
00000050: c9b6 d0bd d1bd f03d bcfc a23c 6ea8 623d
00000060: e63f a7bc 7dd3 bcbd d655 48be 3c35 c53d
00000070: 3d48 233e 5201 1d3e f713 2fbe 3c87 bc3d
00000080: fe7c e4bd d584 37bd 7910 03bd fc4c 01be
00000090: 8d43 1c3c 0150 1b3e fbb9 703e e5df cd3b
000000a0: 5ee8 993d 88a3 843d 3615 03be a658 21be
000000b0: 4179 2c3d df91 17bd 5130 01be 38be 883c
000000c0: 972b 0c3e 867a aabd 92ab c43d 5971 083d
000000d0: c0da 7ebe 8db0 eabd 40d3 efbc d386 1e3e
000000e0: 9017 583d 4881 53be 69b0 1cbe 67b2 1b3d
000000f0: dc0d 03be cb5f 0a3e 75cc 193e 4f9c ebbc
00000100: 5c32 d0b9 3830 053e 4ac3 e0bd cfeb 0abd
00000110: ec8d 573e 0cb7 74bd 5750 123e 2c41 303e
00000120: 9d3c 84be 0fdd 723d b43a 153d a356 a4bd
00000130: 99b6 59bd 3eee 8d3d 80a1 41be a813 913d
00000140: abf7 14bd 75da 73bd 27fc 9cbc 03d4 23be
00000150: 62c7 debc 8552 083e 9216 f4bc fe07 88bc
00000160: aa17 88bd 8ff1 edbd 2e7e 4ebe ce8b a63d
00000170: 8c45 14be 2cab 193e 45b7 f03d 3084 bf3c
00000180: 0f4b e33b b53c 8abd f584 e1bc 4da9 373d
00000190: f8db 813d e19d e53c b1e8 13bd 875d 533e
000001a0: 9075 efbd 6979 9a3d c38a 353e f011 303e
000001b0: 5f00 c03d 572f 9c3d f2d0 10be b2ec b23d
000001c0: 5997 793d 5a3f 06be 0931 0dbe 8d08 ac3d
000001d0: b75b 42be d12c 943d 3766 eb3d 7802 2fbe
000001e0: 63fa 003e a3a5 453d 0103 a0bc ab3c 2b3e
000001f0: 3ad3 8ebd 962b 8bbd e0ce 053e 138d 2ebe
00000200: bc0a 833c 81a9 95bd 7def 633c 25db ca3d
00000210: 7907 473e 4b4a 6c3d 1b0f fdbd f444 06bb
00000220: 889c ea3a 13f9 b6ba 7052 4abb 0850 67bb
00000230: 0a35 6dba f82a 2b3b fbfe 7f3b 8e4d 183b
00000240: 3a30 c3b8 4090 81ba 3175 2f39 e03f 23bb
00000250: 4861 f5ba f1a0 3139 122b 1639 dbbb 4e3a
00000260: cd34 5fb9 db41 14ba 4964 d9b9 a402 d1ba
00000270: d93c 0bbb 9a94 f138 99d2 8fba 6994 7eb8
00000280: 5747 2c3a 2266 2eba 93fb e63d ae8b ec3d
00000290: 6744 0a3e 5668 85bc b6ac 01be 1813 1cbe
000002a0: ea7f 813d e947 563d a9b2 14be 9145 503e
000002b0: 15d2 08be 1fb7 4abe 8dd0 f93d c3dc fdbd
000002c0: ae7e 99bd 2283 173e 8d97 813c 8f50 d2bd
000002d0: 6955 1c3e 2cdb 153e ce1f 2ebe 8125 543e
000002e0: a9a1 50bd a3c9 dbbd ddc1 0e3e dead 00be
000002f0: 717e 29be 0e39 01be e6d7 823d 5dc6 193d
00000300: a07a a23d b971 adbd 2ce4 153e c2a3 66bd
00000310: 78ba 05be d1b2 f93d ef58 813e 807b 063d
00000320: b352 963d 59b5 f93d b204 4d3e 8892 6f3a
00000330: 2b9b 173e 0adb 243b d7d4 443d 0aac 2cbe
00000340: ca97 19be d422 2abe f5b8 77be d978 2dbe
00000350: 14fd 5abe 38e0 0bbe 967b a63d ed17 67be
00000360: fb8a 15be 4c13 06bd 7d0f 78bd bb37 c53c
00000370: 910b 35be 4f5e 37be eb8c 5bbe b01e 0fbe
00000380: b44c 4dbe ec7e 2c3e 8176 67bd 4675 ecbd
00000390: 5067 a43d 5419 083d ff41 f83d 1024 6e3d
000003a0: b2e4 d13c c924 9c3c e52e ee3c 6d52 a0bd
000003b0: 5e62 1d3e 8e0c 123e a95b 363e cc8f 3abd
000003c0: 2be6 203a d3e5 3f3e 794f 563e f677 19bc
000003d0: f1a7 88bc 5151 b8bd ea0b 86bd b7bb e7bd
000003e0: a874 a03d efd4 6dbc 622d bdbd f797 233e
000003f0: b13b 093d de3a c4bc f107 f3bd 3c5b 36be

bias f4 [16]
-0.001050377 -0.0006687377 -0.00041286513 -0.0010697116 -0.00016187344 7.922636e-09 0.004119753 0.00021519275
0.0012612286 0.00043194884 0.0025546695 -0.0040706308 0.0010582709 -0.0024978756 0.0006480174 0.00073128263
00000000: ceac 89ba 3a4e 2fba d275 d8b9 9135 8cba
00000010: 92bc 29b9 1f1c 0832 fefe 863b 5da5 6139
00000020: cf4f a53a 3177 e239 3e6c 273b ed62 85bb
00000030: aeb5 8a3a 66b3 23bb b6df 293a 8cb3 3f3a

weight f4 [16]
0.22454618 0.8293236 0.5368413 0.44355905 0.11515344 -0.0011588355 0.28877765 0.3481776
0.41815007 0.32167763 0.5008422 0.30276996 0.5551614 0.57806575 0.6138881 0.31120795
00000000: 6fef 653e 8d4e 543f 6e6e 093f 2c1a e33e
00000010: 91d5 eb3d 11e4 97ba aada 933e 5644 b23e
00000020: c417 d63e eeb2 a43e 3237 003f aa04 9b3e
00000030: 0f1f 0e3f 1efc 133f c527 1d3f a656 9f3e

bias f4 [16]
-0.08243158 0.23629002 0.14022864 0.10801743 0.0768703 -0.003736726 -0.10031646 -0.05543013
-0.013711938 -0.0018173675 0.10182917 0.08349487 0.027837502 0.102086395 -0.039992087 0.020273287
00000000: e3d1 a8bd 03f6 713e 1998 0f3e 3e38 dd3d
00000010: 2d6e 9d3d dce3 74bb b772 cdbd b40a 63bd
00000020: 09a8 60bc bc34 eeba d08b d03d 5cff aa3d
00000030: 790b e43c ac12 d13d bece 23bd 2a14 a63c

running_mean f4 [16]
0.52286315 0.025162138 -0.034843683 -0.09476738 -0.088182874 0.009808031 0.0735447 0.43264043
0.28581604 0.28409183 0.042366583 -0.19190933 -0.27874577 -0.21930069 -0.038026784 -0.49567017
00000000: 5cda 053f d420 ce3c 40b8 0ebd 6615 c2bd
00000010: 3999 b4bd ddb1 203c 9b9e 963d 0c83 dd3e
00000020: 7b56 923e 7c74 913e 9588 2d3d e183 44be
00000030: c4b7 8ebe 5c90 60be f9c1 1bbd 7bc8 fdbe

running_var f4 [16]
1.6015527 0.41824418 0.658121 0.24299069 0.3996763 0.00057664304 0.7644656 0.9257552
0.8414271 0.6440592 0.3355634 0.45062703 0.7304303 0.3869174 0.4298917 1.3509628
00000000: aeff cc3f 1a24 d63e 9e7a 283f 8dd2 783e
00000010: 5fa2 cc3e dc29 173a 04b4 433f 4bfe 6c3f
00000020: c467 573f 10e1 243f f7ce ab3e 96b8 e63e
00000030: 7bfd 3a3f 0a1a c63e c41a dc3e 59ec ac3f

weight f4 [32, 16, 3, 3]
0.0072637256 0.027437795 0.029965634 0.006124241 0.0258823 -0.014689302 -0.021232203 -0.04572637
0.024674969 0.012887195 0.09256391 -0.13075392 8.220688e-05 0.06834171 0.029640166 0.08712181
0.101123534 0.11721414 0.01891177 0.099006124 -0.07554026 -0.047347076 -0.03141253 0.06914071
-0.019307282 0.022399493 -0.01186665 -0.013916173 -0.044901542 -0.04969849 -0.1093371 -0.053394802
-0.1218415 -0.027175305 -0.11768034 -0.048459757 0.010497539 0.012284388 -0.0036914751 0.0076278346
-0.03681888 -0.05775916 0.014608973 0.0007985704 -0.019301713 -5.7195443e-06 1.8434072e-06 1.6547842e-06
2.1297077e-05 2.7152135e-05 2.2012402e-05 5.0513127e-06 2.2052925e-05 2.100758e-05 0.0345641 -0.04328128
-0.009444908 -0.008163203 -0.03785587 -0.11410837 -0.10044572 0.020806093 -0.00519479 0.040961735
-0.08782128 -0.066646256 -0.040247858 -0.04766214 0.011652554 0.087983996 0.0008768536 -0.020161947
-0.08607303 -0.10873374 -0.08648286 -0.1772041 -0.059526227 -0.153861 -0.15789047 -0.17579941
-0.13835528 -0.051028043 0.015415008 0.046038844 0.018978471 -0.006748654 0.049053796 0.019607294
0.0799445 -0.018590242 -0.055793233 -0.026692878 -0.100359365 0.011425304 -0.0748316 -0.020071855
0.034078673 -0.055595864 -0.10366044 0.103833824 0.031942468 -0.042206198 0.07910149 -0.016214
0.090989225 0.051958166 0.09403761 0.112015344 0.04236058 0.05871323 -0.04185842 -0.06161089
0.014299137 0.01581488 -0.023765454 -0.07483122 -0.06773061 0.09646065 0.08926052 0.09292169
-0.04034538 0.08404222 0.11470423 -0.0045234133 -0.02216178 0.04811184 -0.09412939 -0.05555116
0.03943076 0.031814203 -0.019951625 -0.07398213 -0.09264566 -0.060523815 -0.09948052 0.001549371
0.004005628 0.09084973 0.052421875 0.049041368 0.05866334 -0.057849813 0.056208342 0.06318707
-0.055498466 -0.0229549 -0.024236906 0.07137834 0.017743958 0.015311246 0.04684951 -0.056186687
0.010467416 -0.08327924 -0.1461381 0.027211653 -0.09683714 -0.06366085 -0.049715657 -0.080463715
-0.056824274 -0.03954207 -0.06409541 -0.15899368 -0.17784305 -0.036606908 -0.03278035 -0.08827576
-0.042822517 -0.012506707 0.042601205 0.057508335 0.0012328178 -0.032740947 0.086237155 0.004790454
0.07233077 0.042518944 0.0130287595 0.06925336 -0.014033212 -0.085884094 -0.10412745 0.0031641873
-0.020767916 -0.096337095 0.017624535 -0.048574205 -0.06033775 3.1004924e-06 3.554568e-06 3.818527e-06
8.504158e-07 3.04954e-06 3.0557655e-06 1.5011359e-06 2.2277254e-06 1.6497604e-06 -0.11365117 -0.18186711
-0.20905726 -0.089658305 -0.1258602 -0.18558478 -0.058867104 -0.07042503 -0.10064019 0.070209995
0.051966853 -0.06265829 -0.044785757 -0.020454211 0.05996326 0.0022913807 0.02516986 0.009876699
-0.0019721037 0.03322545 -0.075243175 -0.06192614 -0.0783517 -0.039959192 -0.12439893 -0.06408987
0.0055525284 -0.040563464 -0.046216983 -0.046961028 -0.04217416 -0.056861993 -0.054248907 -0.015443366
0.050614234 -0.022936556 0.045023896 -0.043569144 -0.032210268 0.07495983 0.060318477 -0.0082591865
-0.021374544 0.014705021 0.026297577 -0.075469725 -0.051074445 0.024102688 -0.031782817 -0.0008334852
-0.036256745 -0.06685823 -0.049573313 -0.07318937 -0.06306971 -0.02836065 -0.066374764 0.013539148
00000000: 8c04 ee3b 3ac5 e03c 7d7a f53c dbad c83b
00000010: 1e07 d43c 66ab 70bc 28ef adbc 934b 3bbd
00000020: 2923 ca3c d024 533c 2692 bd3d 5be4 05be
00000030: 7c66 ac38 bdf6 8b3d efcf f23c eb6c b23d
00000040: db19 cf3d f80d f03d dbec 9a3c b9c3 ca3d
00000050: dab4 9abd 02ef 41bd 6daa 00bd a599 8d3d
00000060: 4e2a 9ebc 247f b73c 566c 42bc a900 64bc
00000070: aeea 37bd a590 4bbd 21ec dfbd 82b4 5abd
00000080: 0988 f9bd bf9e debc 6402 f1bd bd7d 46bd
00000090: dffd 2b3c 7544 493c adec 71bb eaf2 f93b
000000a0: 65cf 16bd de94 6cbd 795a 6f3c 2757 513a
000000b0: a01e 9ebc 83ea bfb6 fd6a f735 f419 de35
000000c0: 20a7 b237 c4c4 e337 46a7 b837 727e a936
000000d0: 4cfe b837 6f39 b037 1693 0d3d b647 31bd
000000e0: d1be 1abc f4be 05bc c20e 1bbd a6b1 e9bd
000000f0: 7cb6 cdbd 8a71 aa3c 0f39 aabb 7ec7 273d
00000100: a5db b3bd d57d 88bd f0da 24bd 6039 43bd
00000110: 5bea 3e3c f430 b43d a6dc 653a ab2a a5bc
00000120: 0f47 b0bd ccaf debd ed1d b1bd fe74 35be
00000130: c6d1 73bd bd8d 1dbe 0aae 21be c304 34be
00000140: 02ad 0dbe c802 51bd 3b8f 7c3c 3a93 3c3d
00000150: bd78 9b3c d023 ddbb a2ec 483d 7a9f a03c
00000160: f1b9 a33d 904a 98bc 7287 64bd 06ab dabc
00000170: 3689 cdbd 3331 3b3c 4f41 99bd bb6d a4bc
00000180: 1496 0b3d 7db8 63bd ed4b d4bd d4a6 d43d
00000190: 1bd6 023d 68e0 2cbd f6ff a13d 39d3 84bc
000001a0: 8f58 ba3d 16d2 543d ca96 c03d 4d68 e53d
000001b0: 4a82 2d3d 497d 703d bc73 2bbd b35b 7cbd
000001c0: ed46 6a3c 358e 813c c5af c2bc 1c41 99bd
000001d0: 59b6 8abd 298d c53d 38ce b63d ba4d be3d
000001e0: 3241 25bd 541e ac3d 0dea ea3d 2439 94bb
000001f0: 9f8c b5bc ec10 453d e9c6 c0bd 9d89 63bd
00000200: 2682 213d 9c4f 023d 9771 a3bc f183 97bd
00000210: 02bd bdbd d2e7 77bd 71bc cbbd 4414 cb3a
00000220: a541 833b 6c0f ba3d 52b8 563d 9adf 483d
00000230: f848 703d edf3 6cbd b83a 663d 3968 813d
00000240: 5c52 63bd ea0b bcbc 7a8c c6bc cf2e 923d
00000250: c75b 913c 05dc 7a3c 46e5 3f3d 0324 66bd
00000260: 867f 2b3c 4e8e aabd 3aa5 15be f9ea de3c
00000270: 8d52 c6bd 9f60 82bd a5a2 4bbd 29ca a4bd
00000280: 92c0 68bd def6 21bd 7444 83bd 3dcf 22be
00000290: 7d1c 36be 20f1 15bd b044 06bd ecc9 b4bd
000002a0: aa66 2fbd eee8 4cbc 9a7e 2e3d dc8d 6b3d
000002b0: 8096 a13a 5f1b 06bd 1b9d b03d 3ef9 9c3b
000002c0: 2822 943d 5828 2e3d 9476 553c b5d4 8d3d
000002d0: 8feb 65bc 00e4 afbd c640 d5bd 415e 4f3b
000002e0: 7a21 aabc 624c c5bd 5461 903c bff5 46bd
000002f0: b724 77bd 0e12 5036 038b 6e36 e620 8036
00000300: 2148 6435 b3a6 4c36 a711 4d36 a37a c935
00000310: 0880 1536 566d dd35 f2c1 e8bd 5f3b 3abe
00000320: 1b13 56be c69e b7bd 7fe1 00be f009 3ebe
00000330: a21e 71bd 003b 90bd 721c cebd 42ca 8f3d
00000340: 32db 543d fd52 80bd 4571 37bd 978f a7bc
00000350: 099c 753d fd2a 163b 0631 ce3c e1d1 213c
00000360: 693e 01bb 6917 083d 1819 9abd 44a6 7dbd
00000370: db76 a0bd 40ac 23bd dec4 febd 8d41 83bd
00000380: fcf1 b53b e025 26bd 054e 3dbd 355a 40bd
00000390: d0be 2cbd 1fe8 68bd 1a34 5ebd 2c06 7dbc
000003a0: df50 4f3d 72e5 bbbc fa6a 383d 8f75 32bd
000003b0: eaee 03bd 8a84 993d 8210 773d 8a51 07bc
000003c0: ab19 afbc 54ed 703c 046e d73c df8f 9abd
000003d0: 7033 51bd 0073 c53c b32e 02bd 3f7e 5aba
000003e0: f481 14bd f8ec 88bd 630d 4bbd 4fe4 95bd
000003f0: b12a 81bd 9854 e8bc 7eef 87bd 4dd3 5d3c

bias f4 [32]
-0.00085552136 0.00042642714 -0.00023446322 -0.0012445912 -0.00037505868 -3.0304565e-05 0.00010444485 1.8963452e-05
0.00019443271 0.00013115461 0.00026743102 0.00022422842 0.00022029363 0.00051920343 0.0002523704 -0.00014296701
-0.0008302847 -5.9559592e-05 5.6173256e-05 0.00020419246 -0.00024494214 9.706876e-05 0.00017641176 -0.0003744816
-0.0003944788 -0.00040182748 -4.0418236e-05 -0.00060369575 -0.00037690566 0.00012816991 -0.0005063615 -0.0005879703
00000000: 1145 60ba 1592 df39 3eda 75b9 8d21 a3ba
00000010: 86a3 c4b9 8f36 feb7 6709 db38 b413 9f37
00000020: a2e0 4b39 8c86 0939 fc35 8c39 dc1e 6b39
00000030: 9ffe 6639 271b 083a 9550 8439 6ae9 15b9
00000040: 77a7 59ba a0cf 79b8 939b 6b38 7f1c 5639
00000050: 946b 80b9 6591 cb38 2cfb 3839 1256 c4b9
00000060: 0cd2 ceb9 5fac d2b9 c086 29b8 5641 1eba
00000070: 6c9b c5b9 5965 0639 58bd 04ba 0522 1aba

weight f4 [32]
0.455863 0.42352962 0.26687473 0.737242 0.26802075 0.15682648 0.81497324 0.34832665
0.5438371 0.31392092 0.5555081 0.82829565 0.60984915 0.4689656 0.34663633 0.46563885
0.6834633 0.22373143 0.11985633 0.5973818 0.7002309 0.65646416 0.2063886 0.5856251
0.56586856 0.40881327 0.44327945 0.90242124 0.22535245 0.4932666 0.37570107 0.576782
00000000: e066 e93e e0d8 d83e cea3 883e e4bb 3c3f
00000010: 043a 893e 1f97 203e 16a2 503f df57 b23e
00000020: e838 0b3f 3eba a03e c735 0e3f 2f0b 543f
00000030: 131f 1c3f 421c f03e 517a b13e 3768 ee3e
00000040: 73f7 2e3f da19 653e 3c77 f53d 03ee 183f
00000050: 5542 333f 090e 283f 8857 533e 87eb 153f
00000060: c3dc 103f f94f d13e 86f5 e23e 1405 673f
00000070: cbc2 663e 718d fc3e e45b c03e fca7 133f

bias f4 [32]
-0.02647561 -0.06971468 -0.07749009 -0.31530482 -0.037765585 -0.045584038 -0.18568256 0.004464408
0.0065538823 -0.045414492 -0.08884095 -0.1268005 -0.060304075 0.01279964 0.018952476 0.035105012
0.04552225 -0.046997007 -0.036662355 -0.023532014 -0.0826625 -0.0055240025 -0.03947778 -0.14058442
-0.06970205 0.009718101 -0.13951422 -0.017759802 -0.16202487 -0.09885629 -0.03378122 -0.037294805
00000000: 61e3 d8bc 92c6 8ebd 20b3 9ebd a26f a1be
00000010: 16b0 1abd 54b6 3abd 9223 3ebe 2b4a 923b
00000020: f3c1 d63b 8c04 3abd 3ef2 b5bd fed7 01be
00000030: 6801 77bd 95b5 513c 3942 9b3c 46ca 0f3d
00000040: 8a75 3a3d ef7f 40bd 442b 16bd 36c6 c0bc
00000050: f54a a9bd b102 b5bb 74b3 21bd 5df5 0fbe
00000060: f3bf 8ebd ab38 1f3c d1dc 0ebe 017d 91bc
00000070: d9e9 25be 2b75 cabd 2d5e 0abd 70c2 18bd

running_mean f4 [32]
-0.09091459 -1.1462119 -0.06408975 -0.26366737 -0.18917425 -0.35107577 -0.5033313 -0.15689123
0.12437744 -0.26976302 -0.17975026 -0.33717763 0.37261793 -0.6805139 0.09340484 -0.38488594
-0.63437825 -0.19608274 -0.20672591 -0.49215117 -0.2633958 -0.702861 -0.45977867 -0.13616441
-0.18231297 -0.42278814 -0.12451767 -0.8676944 -0.4243583 -0.4172094 -0.98725694 -0.008354897
00000000: 6e31 babd 12b7 92bf 7d41 83bd 69ff 86be
00000010: e5b6 41be 34c0 b3be 52da 00bf 18a8 20be
00000020: 99b9 fe3d 611e 8abe 7410 38be 8ca2 acbe
00000030: c7c7 be3e 2936 2ebf 094b bf3d c50f c5be
00000040: 9d66 22bf eac9 48be f5af 53be 3dfb fbbe
00000050: d0db 86be b3ee 33bf 1c68 ebbe af6e 0bbe
00000060: 40b0 3abe b077 d8be 1f03 ffbd 3821 5ebf
00000070: 7e45 d9be 789c d5be dfbc 7cbf fae2 08bc

running_var f4 [32]
0.2528657 0.30240738 0.13403939 0.14020965 0.10538726 0.088821605 0.19331507 0.10755201
0.099767774 0.11686256 0.17562722 0.367457 0.16440935 0.23398833 0.120682664 0.25082546
0.21858913 0.15710816 0.04675942 0.23502196 0.210046 0.25627124 0.081608325 0.24005699
0.09015636 0.16447857 0.1487414 0.2689371 0.04584036 0.1821733 0.29831347 0.14050317
00000000: 9d77 813e 24d5 9a3e 9f41 093e 1e93 0f3e
00000010: 47d5 d73d 1ae8 b53d 63f4 453e 3a44 dc3d
00000020: 0c53 cc3d a355 ef3d 9fd7 333e 5323 bc3e
00000030: ed5a 283e a39a 6f3e 7928 f73d 326c 803e
00000040: d4d5 5f3e f6e0 203e ce86 3f3d 99a9 703e
00000050: 4c16 573e fc35 833e 4422 a73d 80d1 753e
00000060: e6a3 b83d 126d 283e aa4f 183e 20b2 893e
00000070: 1ac3 3b3d a38b 3a3e 8bbc 983e 10e0 0f3e

weight f4 [48, 32, 3, 3]
-0.027657196 -0.049840286 -0.016343221 0.0017732114 -0.0044742897 0.0042890757 -0.0130282175 0.006075299
-0.009263986 -0.003231593 0.029213222 0.079337485 0.0117722 0.0030784002 0.017035298 0.021047054
0.06242002 -0.03661293 0.012793494 -0.014182614 -0.034054473 0.0134581085 -0.0118522225 -0.03710845
-0.03983261 -0.039393865 -0.04740466 -0.08076556 -0.122319765 -0.10821203 -0.037204478 -0.08306421
-0.05526347 -0.03645881 -0.019414062 -0.005279433 0.010452329 -0.00022008095 -0.0006679844 0.0020279372
-0.006940018 -0.011921723 0.0077003315 -0.008527653 -0.01523795 0.008977332 -0.03633125 -0.045530733
-0.003964515 -0.011666585 -0.003821367 0.027514482 0.024363669 0.031714417 0.051389612 -0.04667069
-0.01065121 0.06512668 -0.009336067 -0.015448747 0.013782618 0.08691666 0.013599979 -0.03286145
-0.0083793625 0.0039809244 0.029015267 -0.024864301 -0.034013502 0.030578384 0.0028357985 -0.04910853
0.019784939 0.024095044 -0.012247402 0.09114699 0.023062143 0.0013934409 0.11480882 0.026834298
-0.014733 -0.014745738 0.07725954 0.087294355 0.021635106 -0.0037977856 -0.01885748 0.047505118
-0.016800852 -0.0485223 0.014820723 -0.0186 -0.004927201 0.019909425 0.017752495 -0.012759487
0.008903257 4.364273e-05 0.004107373 0.03309675 0.05030976 0.033629365 0.006606528 0.013404982
-0.0051246476 -0.041627947 0.04757604 0.03727413 -0.04681579 -0.030843468 -0.075981565 -0.0371008
-0.008712849 -0.019241953 -0.07872633 -0.067764 -0.029303553 -0.003053097 0.046441283 0.025049742
-0.00563765 0.017359925 0.004727922 -0.005652022 0.057363886 0.04407865 -0.0036824096 -0.0072680553
-0.019292708 0.0076042893 -0.01702377 -0.014437486 -0.0108934175 -0.016110541 -0.035237893 -0.05897101
-0.010750543 -0.01940199 -0.042105425 -0.05701373 -0.062142935 0.0014421862 -0.019262947 -0.068355024
-0.034841344 -0.07376742 -0.08018243 -0.03019811 -0.052342817 -0.03286326 -0.009309846 -0.037033375
-0.01012309 -0.008200634 0.019656016 0.02765932 -0.022587778 -0.027133245 0.008609878 -0.030598573
-0.044593964 -0.0010723498 0.023443596 0.006242636 -0.015251728 0.013628948 0.005577575 0.004714403
0.030022103 0.03238372 0.02888376 0.023966037 -0.06251522 -0.09342531 0.04381668 -0.10257062
-0.07986729 -0.0010737763 -0.035232697 -0.01578407 -0.008753776 -0.020569589 -0.0457195 0.004973662
-0.046141647 -0.053175166 0.002793192 -0.029150952 -0.025716042 0.002839784 0.026823658 0.11408578
0.009905692 0.029351968 0.124580845 0.0042086197 -0.024462083 0.012167108 0.008346123 -0.030369602
-0.014400463 -0.005972276 -0.019645682 -0.021555152 -0.024773419 -0.0357816 -0.034171376 0.0492325
0.069699556 -0.029387567 0.061336026 0.01622626 0.011011548 0.004294423 -0.014284402 0.04577691
0.046717443 -0.038367182 -0.010758242 -0.015873207 -0.05509357 -0.027566029 -0.013484135 -0.050656814
0.03298519 0.05989098 0.053067174 0.02819536 0.021710847 0.021551885 -0.014249253 0.07771648
0.043111466 0.015431206 0.017818492 -0.025046892 -0.035744473 0.001741473 -0.06333789 -0.021779152
-0.026970504 -0.026313104 0.0069486406 -0.040627588 0.04087717 0.10499741 -0.020987825 0.008324007
0.029472915 -0.04688463 0.002922879 -0.054272834 -0.02342238 -0.032932296 -0.023322435 0.016501391
00000000: 5891 e2bc 5425 4cbd 38e2 85bc 1a6b e83a
00000010: 109d 92bb 608b 8c3b 4e74 55bc 4d13 c73b
00000020: f9c7 17bc 22c9 53bb 9150 ef3c b17b a23d
00000030: 30e0 403c fcbe 493b 9c8d 8b3c df6a ac3c
00000040: 23ac 7f3d 71f7 15bd ce9b 513c 325e 68bc
00000050: b47c 0bbd 667f 5c3c d32f 42bc 08ff 17bd
00000060: 8527 23bd 765b 21bd 642b 42bd 6a68 a5bd
00000070: c982 fabd 459e ddbd b963 18bd 921d aabd
00000080: f35b 62bd d555 15bd 3d0a 9fbc 18ff acbb
00000090: 3f40 2b3c 88c5 66b9 ad1b 2fba 24e7 043b
000000a0: 1769 e3bb 5553 43bc 1053 fc3b 92b7 0bbc
000000b0: 98a8 79bc a915 133c 14d0 14bd 6f7e 3abd
000000c0: c3e8 81bb 3425 3fbc e66f 7abb 0d66 e13c
000000d0: 5196 c73c fae6 013d ea7d 523d c429 3fbd
000000e0: 6a82 2ebc 2361 853d 4ef6 18bc be1c 7dbc
000000f0: 7dd0 613c 5d01 b23d 72d2 5e3c ba99 06bd
00000100: 9849 09bc 6a72 823b 6db1 ed3c 38b0 cbbc
00000110: be51 0bbd 857f fa3c ced8 393b 0726 49bd
00000120: 0614 a23c f862 c53c 54a9 48bc 46ab ba3d
00000130: d2ec bc3c 1ea4 b63a e320 eb3d 9ad3 db3c
00000140: ae62 71bc 1c98 71bc 403a 9e3d 62c7 b23d
00000150: 1b3c b13c 45e4 78bb 007b 9abc ba94 423d
00000160: f1a1 89bc 52bf 46bd 9ed2 723c 075f 98bc
00000170: 5c74 a1bb 1719 a33c ae6d 913c 2b0d 51bc
00000180: f7de 113c 060d 3738 2497 863b 7590 073d
00000190: 9b11 4e3d f2be 093d 937b d83b 92a0 5b3c
000001a0: a9ec a7bb 1182 2abd 18df 423d c2ac 183d
000001b0: eac1 3fbd 71ab fcbc 399c 9bbd 02f7 17bd
000001c0: 56c0 0ebc 4da1 9dbc 453b a1bd dac7 8abd
000001d0: 010e f0bc 7816 48bb 3739 3e3d 1e35 cd3c
000001e0: 09bc b8bb 6736 8e3c afec 9a3b 9934 b9bb
000001f0: 65f6 6a3d d18b 343d 9554 71bb de28 eebb
00000200: be0b 9ebc 672d f93b 6f75 8bbc 358b 6cbc
00000210: 4e7a 32bc 41fa 83bc 9c55 10bd 968b 71bd
00000220: 0c23 30bc ecf0 9ebc bd76 2cbd 3b87 69bd
00000230: 9789 7ebd bd07 bd3a 54cd 9dbc b8fd 8bbd
00000240: ccb5 0ebd 6013 97bd b036 a4bd 0762 f7bc
00000250: 6c65 56bd a09b 06bd 5388 18bc 4fb0 17bd
00000260: 51db 25bc f45b 06bc a705 a13c cc95 e23c
00000270: 010a b9bc 8a46 debc 7210 0d3c dca9 fabc
00000280: 29a8 36bd 178e 8cba c90c c03c 078f cc3b
00000290: 62e2 79bc f34b 5f3c 17c4 b63b 477b 9a3b
000002a0: eaf0 f53c cba4 043d a39d ec3c 6c54 c43c
000002b0: fb07 80bd c555 bfbd 1e79 333d 8c10 d2bd
000002c0: 7691 a3bd f4bd 8cba 2950 10bd 984d 81bc
000002d0: ff6b 0fbc 8e81 a8bc 5f44 3bbd 1afa a23b
000002e0: 06ff 3cbd 34ce 59bd fc0d 373b facd eebc
000002f0: 73aa d2bc ab1b 3a3b 4abd db3c cea5 e93d
00000300: 7c4b 223c 8a73 f03c 3e24 ff3d 76e8 893b
00000310: b564 c8bc 8d58 473c 2dbe 083c acc9 f8bc
00000320: ebef 6bbc 15b3 c3bb fbef a0bc 6e94 b0bc
00000330: a0f1 cabc ba8f 12bd 49f7 0bbd 05a8 493d
00000340: a4be 8e3d 32be f0bc 7c3b 7b3d efec 843c
00000350: c869 343c 3bb8 8c3b 2009 6abc 9280 3b3d
00000360: ca5a 3f3d e826 1dbd 5643 30bc 8708 82bc
00000370: cca9 61bd 27d2 e1bc 90ec 5cbc 857d 4fbd
00000380: 7b1b 073d 3f50 753d f75c 593d f5f9 e63c
00000390: f2da b13c 948d b03c b375 69bc d129 9f3d
000003a0: a695 303d 2bd3 7c3c 16f8 913c 242f cdbc
000003b0: cc68 12bd 2342 e43a 4cb7 81bd 316a b2bc
000003c0: 3ff1 dcbc 948e d7bc 6cb1 e33b 1d69 26bd
000003d0: d26e 273d e208 d73d a9ee abbc 6a61 083c
000003e0: 2f71 f13c 190a 40bd c68d 3f3b 314d 5ebd
000003f0: 4be0 bfbc 04e4 06bd b10e bfbc ed2d 873c

bias f4 [48]
-6.1155704e-05 -0.00016466231 -3.81892e-05 4.081537e-06 -3.0473198e-05 -2.677439e-06 2.444526e-05 -1.2571e-06
-3.150897e-05 -1.722984e-05 7.970343e-05 -3.6089295e-05 1.9089908e-05 3.5592395e-05 6.5996224e-05 -2.2500001e-07
0.00016574268 0.0004201487 -0.000103851555 -2.5433162e-24 7.233054e-05 5.0955437e-05 -1.9813133e-05 4.3674045e-05
-0.00013850241 4.8e-43 -4.1012416e-05 9.009852e-05 1.3361679e-05 2.4e-44 -0.00014385612 0.000208605
-4.7654106e-05 0.000107519 0.00014776683 5.895229e-06 0.00014038802 -2.293096e-05 7.304411e-06 3.9204726e-05
-8.565012e-05 3.0757088e-05 0.00020149825 0.00026511226 -3.8328686e-05 7.900534e-05 3.5418427e-05 7.55714e-05
00000000: b840 80b8 34a9 2cb9 572d 20b8 23f4 8836
00000010: b2a0 ffb7 0dae 33b6 cc0f cd37 a1b9 a8b5
00000020: 8028 04b8 cd88 90b7 7426 a738 965e 17b8
00000030: 4423 a037 0b49 1538 7467 8a38 8897 71b4
00000040: 36cb 2d39 6747 dc39 e1ca d9b8 91c7 4498
00000050: 2ab0 9738 fcb8 5538 6134 a6b7 a62e 3738
00000060: f53a 11b9 5701 0000 bf04 2cb8 46f3 bc38
00000070: f92b 6037 1100 0000 15d8 16b9 fabc 5a39
00000080: 35e0 47b8 d37b e138 dbf1 1a39 a2cf c536
00000090: 1f35 1339 dd5b c0b7 6a18 f536 c16f 2438
000000a0: 0f9f b3b8 2c01 0138 4649 5339 c4fe 8a39
000000b0: 1dc3 20b8 abaf a538 3f8e 1438 167c 9e38

weight f4 [48]
0.22564474 0.4340393 0.40044254 0.26110214 0.7772623 0.06423887 0.5982543 0.4293951
0.6350972 0.39176655 0.34819728 0.63763475 0.192845 0.3175555 0.80072796 0.5925634
0.5178747 0.31654063 0.50599706 0.0040130257 0.08747095 0.3533809 0.30770287 0.25396007
0.54872715 -2.7940137e-08 0.7680692 0.44384387 0.5540251 0.0018683616 0.76736003 0.7025542
0.18314235 0.48741913 0.48773164 0.054646414 0.3120513 0.5592171 0.040165562 0.27578425
0.5468565 0.8167885 0.6410612 0.38786566 0.4946201 0.52382433 0.29438534 0.59981817
00000000: 6a0f 673e 663a de3e ce06 cd3e 2eaf 853e
00000010: a9fa 463f ab8f 833d 3227 193f add9 db3e
00000020: bb95 223f a095 c83e ea46 b23e 083c 233f
00000030: 2979 453e a296 a23e 82fc 4c3f 3cb2 173f
00000040: 7093 043f 9d11 a23e 0689 013f b37f 833b
00000050: f823 b33d 57ee b43e 3b8b 9d3e 0e07 823e
00000060: 6279 0c3f 0301 f0b2 2fa0 443f 813f e33e
00000070: 97d4 0d3f d0e3 f43a b571 443f 98da 333f
00000080: ab89 3b3e 008f f93e f6b7 f93e ebd4 5f3d
00000090: 30c5 9f3e da28 0f3f a584 243d 9833 8d3e
000000a0: cafe 0b3f 0d19 513f 961c 243f 5496 c63e
000000b0: d93e fd3e 5a19 063f adb9 963e af8d 193f

bias f4 [48]
-0.13505325 -0.21664983 -0.1586532 -0.18760073 -0.15867414 -0.08810395 -0.16537564 -0.14336056
-0.19626708 -0.17171672 -0.19715677 -0.03564985 -0.15727648 -0.20050046 -0.059178643 -0.17323159
-0.040236335 -0.1575528 -0.25047225 -0.01285596 -0.12037729 -0.15634064 -0.19455479 -0.0596439
-0.28643483 -3.6821375e-09 -0.2061061 -0.23087814 -0.19894348 -0.0027901484 -0.23450077 -0.16336174
-0.0801955 -0.17095017 -0.26876378 -0.058487482 -0.22176817 -0.3079916 -0.10140091 -0.06416342
-0.17465086 -0.21008159 -0.034202565 -0.21129477 -0.2428434 -0.1588699 -0.17306784 -0.22102296
00000000: 664b 0abe 74d9 5dbe fc75 22be 681a 40be
00000010: 797b 22be d86f b4bd 3b58 29be 1ccd 12be
00000020: 3dfa 48be 82d6 2fbe 77e3 49be 9405 12bd
00000030: 160d 21be fe4f 4dbe 4e65 72bd 9f63 31be
00000040: dbce 24bd 8555 21be e63d 80be cea1 52bc
00000050: 5e88 f6bd c317 20be 5f39 47be 294d 74bd
00000060: 96a7 92be d908 7db1 7a0d 53be 526b 6cbe
00000070: d7b7 4bbe ecda 36bb f820 70be 4d48 27be
00000080: 8a3d a4bd 900d 2fbe 689b 89be 9290 6fbd
00000090: 3217 63be 13b1 9dbe 48ab cfbd 1c68 83bd
000000a0: add7 32be a11f 57be fd17 0cbd a85d 58be
000000b0: f1ab 78be cbae 22be b238 31be d853 62be

running_mean f4 [48]
-0.58482957 -0.67131346 -0.32316783 -0.61939424 -0.4689738 -0.028493108 -0.63193035 -0.14773057
-0.15533032 -0.9810893 -0.19685926 0.10547086 -0.1871697 -0.35992134 -0.6758574 -0.36492795
-0.5196901 -0.3471592 -0.5101866 -0.00053538854 -0.19738968 -0.34448174 0.054925032 0.33307076
-0.6370082 4.6683786e-09 -1.0867621 -0.19351651 -1.0399551 -6e-45 -0.23168203 -0.41322988
-0.27708128 -0.44675142 -0.8393029 -0.051290285 -0.597413 -0.9693744 0.33897907 1.3156484
-0.55466235 -0.54762 -0.37350214 -0.40257084 -0.07203048 -0.22677848 -0.74923193 -0.85743576
00000000: 64b7 15bf 33db 2bbf 4176 a5be 9f90 1ebf
00000010: 551d f0be 616a e9bc 30c6 21bf af46 17be
00000020: e90e 1fbe ab28 7bbf 7995 49be 1b01 d83d
00000030: 6aa9 3fbe 9c47 b8be fe04 2dbf d6d7 babe
00000040: 690a 05bf dabe b1be 979b 02bf 5159 0cba
00000050: 8520 4abe e95f b0be 12f9 603d 4088 aa3e
00000060: f812 23bf 7e67 a031 051b 8bbf 3129 46be
00000070: 401d 85bf 0400 0080 0e3e 6dbe de92 d3be
00000080: 99dd 8dbe 9abc e4be 8edc 56bf c315 52bd
00000090: 0ff0 18bf ec28 78bf aa8e ad3e 2b67 a83f
000000a0: 5afe 0dbf d330 0cbf ac3b bfbe c41d cebe
000000b0: b784 93bd 9e38 68be aacd 3fbf e980 5bbf

running_var f4 [48]
0.17729172 0.26615295 0.22927547 0.15805475 0.52425426 0.042578515 0.28025648 0.40551293
0.51631683 0.20515151 0.27509794 0.44226173 0.20485786 0.20402564 0.5504898 0.35281345
0.19363908 0.19599551 0.23285876 1.568068e-06 0.08811263 0.27959195 0.17141254 0.32171395
0.17936696 1.916384e-15 0.43608272 0.29632935 0.5201672 1.0585369e-36 0.4336646 0.34058458
0.15552567 0.3345591 0.20973428 0.0045609656 0.15285203 0.5023102 0.018723052 0.5529266
0.38035652 0.27311587 0.7448256 0.18197377 0.358305 0.45783982 0.19561145 0.22809984
00000000: f68b 353e 3345 883e 30c7 6a3e 1bd9 213e
00000010: 8735 063f cf66 2e3d c77d 8f3e 649f cf3e
00000020: 572d 043f 3d13 523e a3d9 8c3e 2170 e23e
00000030: 42c6 513e 19ec 503e e6ec 0c3f f7a3 b43e
00000040: 5349 463e 0cb3 483e 8772 6e3e 6876 d235
00000050: 6574 b43d ad26 8f3e c586 2f3e b1b7 a43e
00000060: f9ab 373e 0c17 0a27 3c46 df3e 7bb8 973e
00000070: ad29 053f c919 b403 4909 de3e 1a61 ae3e
00000080: 1f42 1f3e 554b ab3e 95c4 563e 2774 953b
00000090: 3e85 1c3e 6797 003f 1661 993c 998c 0d3f
000000a0: 17be c23e d8d5 8b3e e4ac 3e3f 5557 3a3e
000000b0: c173 b73e fb69 ea3e 5e4e 483e 0193 693e

weight f4 [64, 48, 3, 3]
0.011616962 0.005721531 0.0073753227 0.01126104 0.019727962 0.048418924 0.019020969 0.021270916
0.040682208 -0.03400786 -0.107246585 -0.088064134 -0.044744253 -0.06443626 -0.080525585 -0.035796605
-0.020781174 -0.10950775 -0.038436584 -0.018166944 -0.018994495 0.0076446766 0.011431406 -0.03659784
0.062503785 -0.020202486 -0.046196338 0.072647996 -0.06592955 -0.07860107 0.07982669 0.013193141
-0.04252374 0.058857936 0.032365832 -0.013218019 -0.021797221 0.11894293 0.061168324 0.04263846
0.06764053 0.031131836 -0.008647924 -0.03717444 -0.018883971 -0.04252222 -0.04881259 -0.018698407
-0.004254961 -0.0054436205 0.017264832 0.0012036527 0.007861858 0.018246438 0.004717888 -0.007593923
-0.069799066 0.011493979 -0.023912376 -0.002728997 0.08548373 0.08518969 0.14041564 0.084007144
0.0070045544 0.0059711067 0.05280275 0.039986584 0.084269665 0.009502097 0.057478253 0.09662846
-0.0014576783 -0.04171638 0.02246432 -0.057736233 -0.085252345 -0.053317294 -0.09746034 -0.14164811
-0.07498165 0.09749124 0.033970933 -0.09284164 0.02135892 -0.01543288 -0.006710813 0.01835219
-0.026387356 0.0103985155 0.06709224 0.10845515 0.06251265 0.057724345 0.11932487 0.09553469
0.009888552 0.025946638 0.025569217 0.044252854 0.04523586 0.011536798 0.05113672 -0.0032043036
0.035907075 -0.05389577 -0.08560432 -0.03623988 0.05104896 -2.4625657e-05 -0.008731388 0.031443346
-0.011753671 0.01756323 0.02482365 -0.01793598 -0.007366959 0.024869801 0.07156088 0.1079542
0.056108415 0.07936281 0.08269613 0.059943955 0.04776041 0.004247535 0.014687332 0.13457543
0.050149255 0.020091461 0.06251752 -0.05305354 0.05183897 0.055936616 -0.07880232 0.00889538
-0.0068795453 0.059748136 0.039423812 0.03216718 0.09294288 -0.018352682 0.08410658 0.13807058
-0.1713435 0.011012894 0.12694994 -0.040933527 0.09709228 0.16777584 9.586479e-05 0.15831186
0.04111231 -0.046959314 -0.024597155 0.06311419 0.050493833 0.032920808 0.005798847 0.0060808766
0.0036500331 -0.030949425 -0.0419418 -0.089970596 -0.055786323 0.007824436 -0.03093115 0.029024692
0.009711231 0.0385752 0.11881034 -2.312902e-11 -5.4153943e-12 2.445328e-11 -3.981395e-12 -9.020288e-12
4.4908178e-11 -3.209629e-12 1.458744e-10 1.7746951e-10 0.008133561 -0.0053239665 0.006280162 0.031014849
-0.0039021743 -0.003337193 0.016123928 -0.0049294867 -0.0336433 0.029130569 0.0059958203 0.0007224031
0.023987697 0.026245913 0.017047672 0.07971425 0.044388913 0.035840392 -0.01262766 0.0064081717
0.04150691 -0.010221465 0.07594698 0.09939632 0.0035328679 0.03495999 0.05787958 0.02161808
-0.0073577124 -0.016617654 0.0037303246 0.027678464 0.04705675 0.0011050598 -0.0020028804 -0.01457109
0.03075963 -0.0042526834 0.01391989 0.031543612 0.05328023 -0.0029628177 0.018983988 0.031884763
-0.041087445 6e-43 1.46e-43 1.8e-43 3.12e-43 1.16e-43 4.19e-43 -4e-45
-3.2e-44 -2.27e-43 0.0048823636 -0.05440793 -0.03548278 0.0832205 0.017812781 -0.031154452
0.05931531 0.05227751 0.08557414 0.07418675 -0.06479454 -0.081196696 0.059264947 -0.029450603
-0.0073851757 -0.001964332 -0.059613384 0.047720816 0.016511418 0.0046222834 0.014139042 0.037966073
00000000: 1255 3e3c ae7b bb3b b1ac f13b 3a80 383c
00000010: 899c a13c ec52 463d ddd1 9b3c 5840 ae3c
00000020: 63a2 263d d34b 0bbd 19a4 dbbd f85a b4bd
00000030: c045 37bd 28f7 83bd 99ea a4bd 769f 12bd
00000040: 483d aabc 9945 e0bd ae6f 1dbd d8d2 94bc
00000050: 589a 9bbc 3280 fa3b cb4a 3b3c 9ee7 15bd
00000060: fc01 803d af7f a5bc 5f38 3dbd 79c8 943d
00000070: 1206 87bd 99f9 a0bd 2d7c a33d 0b28 583c
00000080: 602d 2ebd 0515 713d 0992 043d 6490 58bc
00000090: 1690 b2bc 5a98 f33d a38b 7a3d aaa5 2e3d
000000a0: 1e87 8a3d 3108 ff3c 06b0 0dbc 3a44 18bd
000000b0: 8fb2 9abc c82b 2ebd b6ef 47bd 672d 99bc
000000c0: 336d 8bbb 6660 b2bb fa6e 8d3c e2c3 9d3a
000000d0: 06cf 003c 8e79 953c 8398 9a3b 71d6 f8bb
000000e0: d0f2 8ebd 3e51 3c3c e3e3 c3bc f9d8 32bb
000000f0: 1812 af3d ef77 ae3d 1ec9 0f3e f00b ac3d
00000100: 7686 e53b 46a9 c33b b247 583d f9c8 233d
00000110: 9395 ac3d afae 1b3c 516e 6b3d 24e5 c53d
00000120: 910f bfba cbde 2abd 1807 b83c d47c 6cbd
00000130: c898 aebd 3c63 5abd 4999 c7bd 340c 11be
00000140: fb8f 99bd 7da9 c73d 1b25 0b3d c223 bebd
00000150: e7f8 ae3c 31da 7cbc 61e6 dbbb 5557 963c
00000160: 4c2a d8bc 895e 2a3c a867 893d bc1d de3d
00000170: a206 803d 5d70 6c3d 9960 f43d b1a7 c33d
00000180: 9803 223c 0b8e d43c 8976 d13c 7b42 353d
00000190: 3d49 393d d704 3d3c bd74 513d 4bff 51bb
000001a0: 4c13 133d d0c1 5cbd 5151 afbd 4570 14bd
000001b0: b718 513d 3293 ceb7 180e 0fbc bdca 003d
000001c0: 7892 40bc c3e0 8f3c f85a cb3c 7aee 92bc
000001d0: 8866 f1bb c1bb cb3c 838e 923d 1717 dd3d
000001e0: f0d1 653d f888 a23d 975c a93d cb87 753d
000001f0: 6ba0 433d e82e 8b3b 23a3 703c 24ce 093e
00000200: 4e69 4d3d d996 a43c 2f09 803d ab4e 59bd
00000210: 1a55 543d cb1d 653d 1c63 a1bd eebd 113c
00000220: cf6d e1bb 76ba 743d dd7a 213d bcc1 033d
00000230: d658 be3d 5d58 96bc 1240 ac3d 6062 0d3e
00000240: ac74 2fbe 6d6f 343c 2aff 013e eaa9 27bd
00000250: 51d8 c63d 6ecd 2b3e 040b c938 811c 223e
00000260: 6265 283d 6958 40bd f97f c9bc 0342 813d
00000270: 9fd2 4e3d f8d7 063d 4104 be3b 1742 c73b
00000280: 6535 6f3b a689 fdbc 2acb 2bbd 8142 b8bd
00000290: 3380 64bd 1032 003c 5363 fdbc 31c5 ed3c
000002a0: db1b 1f3c 0701 1e3d d652 f33d ec71 cbad
000002b0: 8989 beac e417 d72d 3815 8cac c4af 1ead
000002c0: 1d82 452e 89db 61ac fe63 202f 3a21 432f
000002d0: a142 053c ab74 aebb d1c9 cd3b da12 fe3c
000002e0: 9fbb 7fbb cfb4 5abb 5416 843c 8887 a1bb
000002f0: 8fcd 09bd 3ba3 ee3c 9678 c43b a75f 3d3a
00000300: d981 c43c ab01 d73c 8fa7 8b3c 3a41 a33d
00000310: 26d1 353d 60cd 123d 3fe4 4ebc a4fb d13b
00000320: 2603 2a3d ee77 27bc 178a 9b3d 4c90 cb3d
00000330: b087 673b 3532 0f3d 2313 6d3d 6618 b13c
00000340: f718 f1bb bf21 88bc 7678 743b f2bd e23c
00000350: 94be 403d a7d7 903a c242 03bb 95bb 6ebc
00000360: 9ffb fb3c 185a 8bbb 4010 643c e033 013d
00000370: 5f3c 5a3d d52b 42bb 4f84 9b3c 9999 023d
00000380: 4f4b 28bd ac01 0000 6800 0000 8000 0000
00000390: df00 0000 5300 0000 2b01 0000 0300 0080
000003a0: 1700 0080 a200 0080 3cfc 9f3b d9da 5ebd
000003b0: 6456 11bd 826f aa3d 1cec 913c 9f37 ffbc
000003c0: 9cf4 723d f120 563d 7f41 af3d 39ef 973d
000003d0: 00b3 84bd 744a a6bd cdbf 723d 6442 f1bc
000003e0: 58ff f1bb 06bc 00bb 2a2d 74bd e776 433d
000003f0: f442 873c 8676 973b 71a7 673c 5082 1b3d

bias f4 [64]
1.0422773e-05 -1.43428315e-05 -1.7479158e-06 -5.27e-43 1.36025255e-05 1.3490985e-05 -0.00013286858 -3.918831e-05
8.7020335e-06 -1.8057563e-05 8.53675e-05 3.989319e-06 -5.2639996e-05 1.169481e-07 4.528279e-05 1.9931893e-05
-3.931887e-05 -3.9066494e-05 6.4097796e-05 3.31e-43 -2.6288173e-05 -3.1785191e-06 3.482161e-05 -8.711679e-05
4.8826445e-07 7.294303e-06 -2.0746176e-05 -1.5093042e-05 -4.4953555e-05 5.037018e-06 3.614816e-05 1.6029671e-05
-6.2007624e-05 -1.5362753e-05 7.354255e-05 1.28849415e-05 1.896827e-05 2.8544098e-05 -1.226062e-05 -3.143131e-05
1.037e-42 -3.56e-43 -1.7099663e-06 -4.4747296e-05 -1.2965324e-05 3.4779958e-05 1.3472351e-05 1.8673977e-07
-1.6501153e-05 -4.1449293e-05 -2.7261489e-05 7.6089505e-05 1.7126135e-07 -2.0055013e-05 -4.593942e-06 3.5641224e-05
-1.4912723e-05 8.146821e-05 5.151732e-06 -1.8e-42 -1.0238517e-05 5.812796e-05 5.227819e-05 -2.5805286e-05
00000000: 78dd 2e37 fea1 70b7 ee99 eab5 7801 0080
00000010: 6736 6437 5757 6237 a352 0bb9 215e 24b8
00000020: f3fe 1137 527a 97b7 5407 b338 fddb 8536
00000030: c4c9 5cb8 e624 fb33 07ee 3d38 6a33 a737
00000040: 51ea 24b8 54db 23b8 3e6c 8638 ec00 0000
00000050: 6c85 dcb7 8b4e 55b6 6b0d 1238 78b2 b6b8
00000060: 4711 0335 96c1 f436 1308 aeb7 1f38 7db7
00000070: 838c 3cb8 a803 a936 cb9d 1738 7577 8637
00000080: 170a 82b8 43df 80b7 db3a 9a38 672c 5837
00000090: 0d1e 9f37 fc71 ef37 f6b2 4db7 1dd5 03b8
000000a0: e402 0000 fe00 0080 ff81 e5b5 0baf 3bb8
000000b0: a485 59b7 b2e0 1138 4f07 6237 a382 4834
000000c0: f56b 8ab7 d7d9 2db8 9aaf e4b7 3e92 9f38
000000d0: f6e3 3734 d03b a8b7 a925 9ab6 797d 1538
000000e0: a831 7ab7 ead9 aa38 0add ac36 0505 0080
000000f0: 18c6 2bb7 6cce 7338 4745 5b38 6e78 d8b7

weight f4 [64]
0.4249412 0.4559895 0.16123359 0.00467254 0.379863 0.49304357 0.82967585 0.7254033
0.18276401 0.32928947 0.17620595 0.6397738 0.6798975 0.0145922005 0.3796423 0.4497622
0.6185666 0.56347424 0.10877537 0.000103259445 0.366463 0.104257636 0.6777367 0.6594031
0.7017561 0.24188957 0.7133476 0.29450607 0.58293897 0.5410146 0.5523418 0.2297406
0.19814214 0.5332809 0.28194624 0.24097796 0.63725954 0.71466535 0.27664256 0.76249623
0.0036155374 0.00013110666 0.26442587 0.6683963 0.30198506 0.12546374 0.45065212 0.67007947
0.32889786 0.34942833 0.44344208 0.59731823 0.3800771 0.25083354 0.1850837 0.6092422
0.6604411 0.13713585 0.6542499 6.1626866e-05 0.6226602 0.64731026 0.3273767 0.33480582
00000000: e591 d93e 7577 e93e 6b1a 253e 1b1c 993b
00000010: 677d c23e 3570 fc3e a365 543f 08b4 393f
00000020: 7d26 3b3e a198 a83e 556f 343e 37c8 233f
00000030: c30d 2e3f 2014 6f3c 7a60 c23e 3b47 e63e
00000040: 615a 1e3f d93f 103f 9fc5 de3d fe8c d838
00000050: 0aa1 bb3e 0785 d53d 2780 2d3f a4ce 283f
00000060: 4aa6 333f e6b1 773e f39d 363f 80c9 963e
00000070: 7d3b 153f ef7f 0a3f 4666 0d3f 1f41 6b3e
00000080: c6e5 4a3e 1985 083f 425b 903e edc2 763e
00000090: 7123 233f 4ff4 363f 18a4 8d3e f432 433f
000000a0: a7f2 6c3b ad79 0939 d462 873e 051c 2b3f
000000b0: c99d 9a3e 9179 003e e0bb e63e 548a 2b3f
000000c0: 4d65 a83e 45e8 b23e d70a e33e d9e9 183f
000000d0: 7799 c23e 416d 803e 9586 3d3e 4cf7 1b3f
000000e0: ab12 293f 576d 0c3e ec7c 273f ac3d 8138
000000f0: a966 1f3f 20b6 253f eb9d a73e ab6b ab3e

bias f4 [64]
-0.18674046 -0.069365226 -0.1291986 -0.001739392 -0.31934643 -0.27477792 -0.24409726 -0.20967735
-0.17880271 -0.18746439 -0.23008409 -0.2000265 -0.1974628 -0.027347127 -0.17018552 -0.16256607
-0.093038194 -0.051967736 -0.20265667 -0.009572972 -0.22725396 -0.10388744 -0.24051256 -0.19418569
-0.24086885 -0.14482233 -0.057965565 -0.15984058 -0.25633216 -0.2660859 -0.3041997 -0.16352352
-0.266509 -0.18323201 -0.2915028 -0.30588916 -0.2643127 -0.3383688 -0.28384405 -0.21807615
-0.0066720196 -3.9027273e-05 -0.19879116 -0.24598527 -0.216925 -0.162853 -0.13182577 -0.32773605
-0.19062033 -0.26547945 -0.1850501 -0.21648388 -0.25164995 -0.32120517 -0.13281856 -0.20992167
-0.2852523 -0.16511151 -0.29023424 -0.00014316017 -0.10026183 -0.21162966 -0.08344621 -0.25238234
00000000: e438 3fbe 5b0f 8ebd a34c 04be 50fc e3ba
00000010: 6081 a3be b1af 8cbe a2f4 79be a9b5 56be
00000020: 0f18 37be aaf6 3fbe 2a9b 6bbe bfd3 4cbe
00000030: b033 4abe 1507 e0bc 1d45 2ebe b877 26be
00000040: cf8a bebd 1fdc 54bd 3b85 4fbe f4d7 1cbc
00000050: 43b5 68be f0c2 d4bd ed48 76be 9dd8 46be
00000060: 53a6 76be 4e4c 14be 4d6d 6dbd 40ad 23be
00000070: f83d 83be 693c 88be 10c0 9bbe b672 27be
00000080: de73 88be 2ca1 3bbe db3f 95be 819d 9cbe
00000090: ff53 87be ad3e adbe 0254 91be 5b4f 5fbe
000000a0: f5a0 dabb 37b1 23b8 e98f 4bbe 90e3 7bbe
000000b0: 9621 5ebe f0c2 26be 56fd 06be 05cd a7be
000000c0: fa31 43be ecec 87be c67d 3dbe f3ad 5dbe
000000d0: 43d8 80be 0175 a4be 9701 08be b5f5 56be
000000e0: 970c 92be fe12 29be 9599 94be 441d 16b9
000000f0: 1356 cdbd 72b5 58be d9e5 aabd 4238 81be

running_mean f4 [64]
0.75196666 0.26501206 0.45608592 -5.0384993e-15 -0.009769041 0.11943155 0.35565197 -0.63782454
0.71141505 -0.5240332 -0.382192 -1.3785475 -0.6033832 -0.0006562297 0.50976837 0.2324072
-0.37218967 -0.48740092 -0.03309808 5.7875482e-08 0.55354226 0.028601585 0.056255754 -0.24820292
0.07037324 0.22718267 -1.19254 0.1743876 -0.29004467 0.08940175 -1.8543794 -1.1051059
-0.21144994 0.25620505 -0.117421865 -0.07076808 -0.22464423 0.16031978 0.12557991 0.30728662
4.0442893e-07 4.0054733e-09 0.5904187 -0.350928 0.65593135 -0.33497614 -0.07900009 -0.018118795
-0.13076214 -0.07179976 -0.10570294 -0.9043468 0.029717347 0.083006874 -0.04966842 0.3221357
-0.5422822 -0.263997 -0.32686147 2.1568685e-29 -0.11327057 -0.3929205 -0.4369059 0.1792421
00000000: e380 403f a9af 873e 1884 e93e f487 b5a7
00000010: 540e 20bc 8798 f43d 0418 b63e 7848 23bf
00000020: 4c1f 363f 0a27 06bf abae c3be 3f74 b0bf
00000030: 5277 1abf d406 2cba 2e80 023f 27fc 6d3e
00000040: a58f bebe 9d8c f9be da91 07bd c492 7833
00000050: f2b4 0d3f df4d ea3c 6f6c 663d e828 7ebe
00000060: d81f 903d 93a2 683e 27a5 98bf aa92 323e
00000070: bc80 94be 4418 b73d 4e5c edbf 1c74 8dbf
00000080: 5586 58be 4f2d 833e e07a f0bd dbee 90bd
00000090: 2309 66be de2a 243e 0598 003e ac54 9d3e
000000a0: 4a20 d934 84a0 8931 ae25 173f d6ac b3be
000000b0: 1eeb 273f fe81 abbe cdca a1bd de6d 94bc
000000c0: 83e6 05be c10b 93bd c87a d8bd 4683 67bf
000000d0: cb71 f33c 82ff a93d 1d71 4bbd f8ee a43e
000000e0: 02d3 0abf 9d2a 87be 635a a7be 82bb da0f
000000f0: 67fa e7bd e02c c9be 21b2 dfbe 3e8b 373e

running_var f4 [64]
0.16606861 0.15174483 0.09709763 5.6532207e-27 0.1599369 0.14807753 0.23866107 0.25816044
0.07276636 0.11998576 0.09154524 0.2876298 0.20737018 4.476982e-06 0.2242942 0.2082782
0.39185902 0.14077312 0.030686187 8.428658e-15 0.07841504 0.023544405 0.3394298 0.18063597
0.3845068 0.083159834 0.3433115 0.18046102 0.31046793 0.2244457 0.21704265 0.12147251
0.076454185 0.25120452 0.10078428 0.08175227 0.20537382 0.17836796 0.08730099 0.414162
4.0332803e-13 2.0437564e-16 0.18528639 0.2998406 0.14399482 0.05471735 0.21622019 0.43392444
0.1230024 0.11708443 0.1500328 0.21435982 0.14503634 0.186956 0.08182561 0.31799242
0.21852274 0.06390247 0.42769766 6e-45 0.30597144 0.26476166 0.121710606 0.13108253
00000000: e40d 2a3e ff62 1b3e 1fdb c63d 78f2 df13
00000010: 80c6 233e a3a1 173e 9163 743e 9b2d 843e
00000020: 8806 953d 18bb f53d 127c bb3d 3744 933e
00000030: d958 543e fc38 9636 61ad 653e e146 553e
00000040: bfa1 c83e d426 103e 9961 fb3c 53d6 1728
00000050: 1198 a03d 32e0 c03c bec9 ad3e a3f8 383e
00000060: 13de c43e b44f aa3d 86c6 af3e c6ca 383e
00000070: a7f5 9e3e 18d5 653e 6e40 5e3e 94c6 f83d
00000080: 0394 9c3d e19d 803e fd67 ce3d bc6d a73d
00000090: 844d 523e 17a6 363e ddca b23d 0b0d d43e
000000a0: b20d e32a 0ba1 6b25 b7bb 3d3e b584 993e
000000b0: 6173 133e 4d1f 603d d368 5d3e 582b de3e
000000c0: afe8 fb3d f6c9 ef3d 33a2 193e 2481 5b3e
000000d0: 6884 143e 6571 3f3e 2f94 a73d e7cf a23e
000000e0: 6dc4 5f3e 4cdf 823d 30fb da3e 0400 0000
000000f0: 4aa8 9c3e d78e 873e 6943 f93d 803a 063e
