models/model_random4_fold_3_l2.pkl (torch_old, 711448 bytes, 38 tensors)

weight f4 [16, 3, 3, 3]
00000000: 18e0 5eb7 d626 e437 6c62 f537 1e15 b4b7
00000010: ab62 bc35 1e90 75b8 9676 5d38 cd94 d537
00000020: bdbd 2838 b397 f4b6 6848 e736 76c2 bcb6
00000030: 6259 ccb6 edb9 c435 7d8f b336 0715 71b7
00000040: 3c05 dc36 506e 85b6 a8ce a137 8e9b bcb6
00000050: 2866 a1b6 6e8f c037 cdeb 2437 6f4f 8d37
00000060: 22c5 bb36 d342 0fb4 fa95 48b7 d422 3d3a
00000070: deab 85bb a82e 44bb a316 a83a c640 2abb
00000080: 34ad 07bb 2353 153b b5fc 92bb 6623 02bb
00000090: b79a 83ba 32f4 b5bb fde3 91bb 85af 84b8
000000a0: e3e1 81bb 2495 64bb 8b2f 8b39 a018 b8bb
000000b0: 2271 44bb e6f9 a4ba 433d b4bb ba48 92bb
000000c0: a8ab ebb9 22c1 88bb 0f3c 60bb 3f1c b938
000000d0: 8100 bcbb e7f4 4abb 25b3 1f06 2b00 0080
000000e0: 4e00 0080 39c7 0c91 3000 0000 5e00 0000
000000f0: 0090 ef90 8100 0000 7300 0000 a57b 5900
00000100: 8b00 0080 0900 0080 436b a603 8300 0080
00000110: 1600 0080 2d34 0a04 8000 0080 4600 0080
00000120: 005d 4b80 1d00 0000 3a00 0080 2b2f 6f04
00000130: 3000 0080 8e00 0080 fd76 2985 4800 0000
00000140: 8f00 0080 60d9 0ebc 20a5 923c f7e6 80bd
00000150: 1752 7dbc 549c 233d d544 2fbd 592c 55bc
00000160: 3b72 983a 2ea9 90bd 91e4 28bd 81d1 3c3d
00000170: 4ae5 cbbc 1542 253d 0c52 0e3d b8eb 9239
00000180: 7359 9d3b cccd 343c a8af dbbb cdda 483c
00000190: baa5 cd3c 66a4 063b 1350 b1bc ec1b 193d
000001a0: c199 80bd 9cb3 1d3c 68c0 853d 03d8 db3c
000001b0: 9365 a5ba 4e30 083c 4939 4ebc a67f 0dba
000001c0: 7caa cd3b 4af3 8dbc f83b 88bc 344e 953b
000001d0: 012f 83bc 35e5 afba 6506 253c 6644 9abb
000001e0: d836 6db9 8a05 7d3b a3d0 98bb 39ba b3ba
000001f0: d271 1ebb 87bd 87bb d0fa 66b9 7586 10bc
00000200: cf6f 17bb d0cd aebb f0a0 233b ce8c 82bb
00000210: b4bf 3cba a4e4 7236 efdc ebbb 4e48 02ab
00000220: fd96 9429 5b7c 3daa 70a4 8da8 339a a0a8
00000230: 991a acac 408c 04ae 3b8b 0e2b 8d2e 85ab
00000240: 7edf 8025 b6c4 0324 27e4 7e25 4034 1fa2
00000250: d819 f420 68ad 9a27 9a8f 2729 c581 6626
00000260: bdab 0926 6a20 e9a5 6d21 5525 9f4a 61a7
00000270: 7e69 a5a4 7419 db24 aeee c4a8 671a 29aa
00000280: cabd 5627 91fc 10a9 0624 07aa e645 7d2b
00000290: d4ed f629 ba06 99ab 720c d7a9 fbc6 9fa4
000002a0: aee1 19a9 cf9d 22a8 8a7f 88a6 bfc3 8d26
000002b0: 98dc a3a6 c9a2 ada2 a7f9 b423 6c01 1ca2
000002c0: b8c3 cc1c 8d74 2522 daf1 8e21 82a0 2e1f
000002d0: e3cd 56a6 f9bd ac26 daa8 f6a3 7de0 3f25
000002e0: 9d02 d9a1 2a67 9c1d c38a 07a3 9121 e4a2
000002f0: b06d b59c 1600 0080 2800 0000 8200 0000
00000300: 9f00 0080 5000 0000 1200 0000 3300 0000
00000310: 1900 0080 4f00 0000 3200 0080 7000 0080
00000320: 6900 0080 9500 0000 0c00 0000 8400 0000
00000330: 2b00 0080 5500 0080 0a00 0080 2900 0000
00000340: 6600 0000 a800 0080 9a00 0080 ae00 0080
00000350: 1400 0000 6b00 0000 1400 0000 1200 0000
00000360: 3040 2796 ba83 268b 4d27 228a 3bed ce13
00000370: 1104 f682 3000 0000 93cf f28f 61de cc92
00000380: 5a41 fe8e dd10 520e 9839 e686 0ca7 d385
00000390: 811e 8e09 0c12 0000 5700 0000 98f6 8c05
000003a0: 2824 ea09 9d57 f384 6a42 9f8f e482 158d
000003b0: 209b 040a 773e 900d fe9b 7f06 38f3 0d81
000003c0: 5442 0889 ee11 ba0f 9163 8e0d 0100 0080
000003d0: 8500 0000 5d00 0000 5400 0000 6400 0080
000003e0: 7900 0000 2e00 0000 0600 0080 9a00 0000
000003f0: 1b00 0080 3600 0000 7e00 0080 4300 0000
-1.3284407e-05 2.7197802e-05 2.9252107e-05 -2.1467506e-05 1.4035808e-06 -5.854677e-05 5.2800948e-05 2.546087e-05
4.023103e-05 -7.289427e-06 6.8927657e-06 -5.625475e-06 -6.0900793e-06 1.465725e-06 5.35132e-06 -1.4369615e-05
6.5571203e-06 -3.976551e-06 1.9288927e-05 -5.6209456e-06 -4.8100665e-06 2.2954973e-05 9.830063e-06 1.6845499e-05
5.5959836e-06 -1.3342223e-07 -1.1955848e-05 0.00072149676 -0.004079326 -0.0029935036 0.0012824129 -0.002597855
-0.0020702602 0.002278515 -0.0044856914 -0.0019857525 -0.0010040615 -0.005552792 -0.004452227 -6.3269435e-05
-0.0039636954 -0.0034878934 0.00026547568 -0.00561817 -0.002997466 -0.0012586683 -0.005500467 -0.004464236
-0.00044950587 -0.004173414 -0.0034215485 8.826749e-05 -0.0057373648 -0.0030968727 3.003619e-35 -6e-44
-1.1e-43 -1.1105443e-28 6.7e-44 1.32e-43 -9.4490745e-29 1.81e-43 1.61e-43 8.217714e-39
-1.95e-43 -1.3e-44 9.781229e-37 -1.84e-43 -3.1e-44 1.624578e-36 -1.8e-43 -9.8e-44
-6.921024e-39 4e-44 -8.1e-44 2.8115973e-36 -6.7e-44 -1.99e-43 -7.9681965e-36 1.01e-43
-2e-43 -0.008718818 0.017901003 -0.06294053 -0.015461466 0.039944008 -0.042790253 -0.013011062
0.0011630723 -0.070635185 -0.041233603 0.046098236 -0.024889607 0.040346224 0.034746215 0.00028022914
0.004801923 0.011035394 -0.0067042895 0.012259197 0.025103439 0.0020544766 -0.021644628 0.037380144
-0.06279326 0.009625342 0.06530839 0.0268364 -0.0012618772 0.008312298 -0.0125869 -0.0005397744
0.006276427 -0.017327923 -0.016630158 0.0045564417 -0.016013624 -0.001341975 0.010072325 -0.0047078608
-0.00022622512 0.0038608038 -0.0046635433 -0.0013712115 -0.002417673 -0.0041424665 -0.00022027944 -0.00882112
-0.0023107415 -0.0053345934 0.0024967752 -0.0039840704 -0.0007200197 3.6193896e-06 -0.007197968 -4.628562e-13
6.5987126e-14 -1.6829717e-13 -1.5725458e-14 -1.7830442e-14 -4.891487e-12 -3.0137892e-11 5.0641755e-13 -9.463139e-13
2.2355905e-16 2.8572718e-17 2.2108289e-16 -2.157618e-18 4.135231e-19 4.2931594e-15 3.7206004e-14 7.997315e-16
4.776417e-16 -4.0441022e-16 1.848613e-16 -3.1265475e-15 -7.1736054e-17 9.501923e-17 -2.1863882e-14 -1.5019375e-13
2.980135e-15 -3.219349e-14 -1.2002907e-13 8.998066e-13 1.0965851e-13 -1.0873171e-12 -9.550077e-14 -6.9292344e-17
-3.416857e-14 -9.027026e-15 -9.471465e-16 9.836897e-16 -1.1370189e-15 -4.70641e-18 1.9621371e-17 -2.1142695e-18
1.355018e-21 2.2423371e-18 9.686312e-19 3.6978702e-20 -7.4525193e-16 1.198639e-15 -2.6742885e-17 1.6642669e-16
-1.4705184e-18 4.1399525e-21 -7.347749e-18 -6.1835064e-18 -1.2005929e-21 -3.1e-44 5.6e-44 1.82e-43
-2.23e-43 1.12e-43 2.5e-44 7.1e-44 -3.5e-44 1.11e-43 -7e-44 -1.57e-43
-1.47e-43 2.09e-43 1.7e-44 1.85e-43 -6e-44 -1.19e-43 -1.4e-44 5.7e-44
1.43e-43 -2.35e-43 -2.16e-43 -2.44e-43 2.8e-44 1.5e-43 2.8e-44 2.5e-44
-1.3510407e-25 -3.2069537e-32 -7.807408e-33 5.223564e-27 -3.6148785e-37 6.7e-44 -2.3942997e-29 -1.2929031e-27
-6.2678766e-30 2.5892618e-30 -8.660101e-35 -1.9903708e-35 3.4213942e-33 6.474e-42 1.22e-43 1.3256121e-35
5.6367452e-33 -5.7209486e-36 -1.5704192e-29 -4.6071724e-31 6.3847446e-33 8.889723e-31 4.8074774e-35 -2.607211e-38
-1.6401592e-33 1.8347922e-29 8.775395e-31 -1e-45 1.86e-43 1.3e-43 1.18e-43 -1.4e-43
1.7e-43 6.4e-44 -8e-45 2.16e-43 -3.8e-44 7.6e-44 -1.77e-43 9.4e-44

bias f4 [16]
00000000: d604 0080 74cd bbb6 0a5e fc9f a14e 8ab8
00000010: 0db6 a537 b702 0000 2d03 0000 4e07 0000
00000020: 6001 0080 ae01 0080 1700 0000 bf02 0080
00000030: 2101 0080 1401 0000 de0a 0000 4804 0080
-1.735e-42 -5.596952e-06 -1.06881726e-19 -6.5949986e-05 1.9754307e-05 9.74e-43 1.139e-42 2.62e-42
-4.93e-43 -6.03e-43 3.2e-44 -9.85e-43 -4.05e-43 3.87e-43 3.898e-42 -1.536e-42

weight f4 [16]
00000000: 277e 8933 68c4 4a3c 0c00 0080 892e 723d
00000010: ef7f cf3c 9924 bc2c e834 202d 07f5 0104
00000020: f96d 470f 3c00 0080 734d 98ad 1ce2 4a89
00000030: ac1b 0200 5f00 0000 3900 0080 a300 0000
6.4025066e-08 0.012375928 -1.7e-44 0.05912641 0.025329558 5.3473445e-12 9.1066946e-12 1.5276388e-36
9.8326375e-30 -8.4e-44 -1.7314794e-11 -2.4421182e-33 1.93598e-40 1.33e-43 -8e-44 2.28e-43

bias f4 [16]
00000000: aa1a 12b3 de3f 9b3a 3306 0080 1a70 6cbb
00000010: 3d34 97bc 54da 3aa6 1822 08a1 9116 808d
00000020: 9ab5 f98f ce50 818b bd28 5bae 7fb4 6785
00000030: 19dc 2a05 b530 0080 3933 028e 2827 0000
-3.4017525e-08 0.0011844595 -2.224e-42 -0.003607756 -0.018457526 -6.4827603e-16 -4.6123715e-19 -7.894042e-31
-2.4623246e-29 -4.9810574e-32 -4.9831018e-11 -1.089472e-35 8.033787e-36 -1.7473e-41 -1.60484e-30 1.4047e-41

running_mean f4 [16]
00000000: fef6 0eb9 4495 8a3d a4ae a81e d267 203d
00000010: 4859 ac3d ea38 4d2e 50b1 002b 2502 0080
00000020: e8d5 7316 8304 0080 9ea9 b82f 6d5d 152e
00000030: 5906 a22e cc04 0000 3947 c09f 6902 0000
-0.00013634187 0.067667514 1.7859922e-20 0.03916151 0.084154665 4.6662153e-11 4.5720806e-13 -7.7e-43
1.969688e-25 -1.618e-42 3.3589925e-10 3.3961656e-11 7.368035e-11 1.721e-42 -8.143299e-20 8.65e-43

running_var f4 [16]
00000000: d625 be33 91af b83c 0400 0000 babd 003d
00000010: fb3b 0b3d 7712 491e 7b26 3518 0400 0000
00000020: 0400 0000 0400 0000 248e 2521 e73b d91d
00000030: ea05 051f 0400 0000 ec95 3301 0400 0000
8.854447e-08 0.022544654 6e-45 0.031430937 0.03399275 1.064467e-20 2.341313e-24 6e-45
6e-45 6e-45 5.6092296e-19 5.750136e-21 2.8168737e-20 6e-45 3.298467e-38 6e-45

weight f4 [32, 16, 3, 3]
00000000: a200 0000 5b00 0000 6100 0000 9d00 0080
00000010: 9e00 0080 6500 0080 1600 0080 0b00 0000
00000020: 6400 0080 3c00 0080 0a00 0000 a700 0000
00000030: 5c00 0080 6f00 0080 6200 0000 1000 0080
00000040: 2800 0000 2600 0080 2e00 0080 b600 0080
00000050: 0100 0080 7300 0080 0900 0000 2d00 0000
00000060: 9f00 0000 5000 0080 0800 0000 a200 0080
00000070: 0800 0000 6f00 0000 7b00 0000 4a00 0000
00000080: 4a00 0080 4400 0080 6b00 0000 7500 0080
00000090: 7d00 0080 6900 0080 0300 0080 9a00 0080
000000a0: 6e00 0080 8a00 0000 4700 0000 7200 0000
000000b0: 2900 0080 6400 0000 6d00 0080 2500 0080
000000c0: 0a00 0000 a500 0080 5500 0080 7a00 0000
000000d0: 2f00 0000 3200 0080 3200 0000 9300 0080
000000e0: 5300 0000 7b00 0000 3400 0000 7e00 0080
000000f0: 6400 0080 0400 0000 9d00 0000 a900 0000
00000100: 3f00 0080 7b00 0080 4a00 0080 2800 0000
00000110: 1b00 0080 4a00 0000 a600 0080 a300 0000
00000120: 0600 0000 b000 0080 0700 0080 9700 0080
00000130: 0400 0000 a800 0000 a700 0080 9600 0080
00000140: 1500 0080 4600 0080 0f00 0080 6a00 0000
00000150: 8800 0080 a900 0080 aa00 0000 6200 0000
00000160: 9400 0000 0000 0000 b100 0080 9a00 0080
00000170: 1400 0000 5700 0000 8500 0080 a400 0080
00000180: a400 0080 9200 0000 9800 0080 a500 0080
00000190: 2200 0000 0800 0000 7700 0080 a700 0000
000001a0: 4f00 0080 4000 0000 a300 0000 a400 0080
000001b0: a200 0080 7600 0080 4300 0000 7b00 0000
000001c0: 8300 0000 6400 0080 8400 0000 2e00 0080
000001d0: 7000 0080 1000 0080 8600 0000 b200 0080
000001e0: 5600 0000 be00 0080 4900 0000 9a00 0000
000001f0: 7700 0080 7e00 0000 3b00 0080 0900 0000
00000200: 0800 0080 1e00 0080 4700 0000 1300 0000
00000210: 0500 0080 7400 0000 4000 0080 1000 0080
00000220: 6600 0000 7b00 0000 8d00 0000 9000 0000
00000230: 7700 0080 8f00 0080 6a00 0000 6000 0080
00000240: 3100 0080 0100 0000 5c00 0080 7e00 0000
00000250: 7c00 0080 1a00 0080 3c00 0080 5d00 0000
00000260: 4600 0000 2500 0000 b040 7a01 5202 0080
00000270: 0b00 0080 1c00 0000 6e00 0000 5a00 0000
00000280: a900 0080 1700 0000 8500 0080 a700 0080
00000290: 6700 0000 2b00 0000 9a00 0000 a900 0080
000002a0: 7400 0080 1100 0000 a900 0080 9a00 0000
000002b0: 0200 0000 5600 0000 5200 0000 0100 0000
000002c0: 2500 0080 7e00 0080 1200 0000 4000 0000
000002d0: 6a00 0080 9900 0000 1700 0000 9400 0080
000002e0: 7000 0080 a300 0080 5d00 0000 1d00 0080
000002f0: 8f00 0080 7f00 0000 3e00 0000 0200 0000
00000300: 3f00 0000 9b00 0080 5d00 0080 a54f 5c00
00000310: b77d 5881 8000 0000 9c00 0080 6800 0080
00000320: 8700 0080 c6f1 5380 0201 0080 8200 0000
00000330: 4102 0000 bc00 0080 8900 0000 2b00 0000
00000340: a400 0000 5100 0000 4000 0000 4a00 0080
00000350: 7300 0000 6a00 0000 4b00 0000 9f00 0080
00000360: 5b00 0080 7f00 0080 3200 0000 7900 0000
00000370: 7a00 0000 5100 0000 8300 0000 1e00 0000
00000380: 4000 0080 8100 0080 7900 0080 2700 0000
00000390: 0800 0000 3700 0080 1900 0000 8600 0080
000003a0: 9c00 0080 8b00 0080 8200 0080 8400 0000
000003b0: a600 0080 a900 0080 3600 0080 3c00 0000
000003c0: 6300 0000 9900 0080 6e00 0080 7b00 0000
000003d0: 4200 0000 4300 0000 8c00 0080 7400 0080
000003e0: 6e00 0000 a800 0080 0c00 0080 1400 0080
000003f0: 8900 0000 6900 0000 5b00 0080 2000 0080
2.27e-43 1.28e-43 1.36e-43 -2.2e-43 -2.21e-43 -1.42e-43 -3.1e-44 1.5e-44
-1.4e-43 -8.4e-44 1.4e-44 2.34e-43 -1.29e-43 -1.56e-43 1.37e-43 -2.2e-44
5.6e-44 -5.3e-44 -6.4e-44 -2.55e-43 -1e-45 -1.61e-43 1.3e-44 6.3e-44
2.23e-43 -1.12e-43 1.1e-44 -2.27e-43 1.1e-44 1.56e-43 1.72e-43 1.04e-43
-1.04e-43 -9.5e-44 1.5e-43 -1.64e-43 -1.75e-43 -1.47e-43 -4e-45 -2.16e-43
-1.54e-43 1.93e-43 1e-43 1.6e-43 -5.7e-44 1.4e-43 -1.53e-43 -5.2e-44
1.4e-44 -2.31e-43 -1.19e-43 1.71e-43 6.6e-44 -7e-44 7e-44 -2.06e-43
1.16e-43 1.72e-43 7.3e-44 -1.77e-43 -1.4e-43 6e-45 2.2e-43 2.37e-43
-8.8e-44 -1.72e-43 -1.04e-43 5.6e-44 -3.8e-44 1.04e-43 -2.33e-43 2.28e-43
8e-45 -2.47e-43 -1e-44 -2.12e-43 6e-45 2.35e-43 -2.34e-43 -2.1e-43
-3e-44 -9.8e-44 -2.1e-44 1.49e-43 -1.9e-43 -2.37e-43 2.38e-43 1.37e-43
2.07e-43 0.0 -2.48e-43 -2.16e-43 2.8e-44 1.22e-43 -1.86e-43 -2.3e-43
-2.3e-43 2.05e-43 -2.13e-43 -2.31e-43 4.8e-44 1.1e-44 -1.67e-43 2.34e-43
-1.11e-43 9e-44 2.28e-43 -2.3e-43 -2.27e-43 -1.65e-43 9.4e-44 1.72e-43
1.84e-43 -1.4e-43 1.85e-43 -6.4e-44 -1.57e-43 -2.2e-44 1.88e-43 -2.5e-43
1.2e-43 -2.66e-43 1.02e-43 2.16e-43 -1.67e-43 1.77e-43 -8.3e-44 1.3e-44
-1.1e-44 -4.2e-44 1e-43 2.7e-44 -7e-45 1.63e-43 -9e-44 -2.2e-44
1.43e-43 1.72e-43 1.98e-43 2.02e-43 -1.67e-43 -2e-43 1.49e-43 -1.35e-43
-6.9e-44 1e-45 -1.29e-43 1.77e-43 -1.74e-43 -3.6e-44 -8.4e-44 1.3e-43
9.8e-44 5.2e-44 4.596416e-38 -8.32e-43 -1.5e-44 3.9e-44 1.54e-43 1.26e-43
-2.37e-43 3.2e-44 -1.86e-43 -2.34e-43 1.44e-43 6e-44 2.16e-43 -2.37e-43
-1.63e-43 2.4e-44 -2.37e-43 2.16e-43 3e-45 1.2e-43 1.15e-43 1e-45
-5.2e-44 -1.77e-43 2.5e-44 9e-44 -1.49e-43 2.14e-43 3.2e-44 -2.07e-43
-1.57e-43 -2.28e-43 1.3e-43 -4e-44 -2e-43 1.78e-43 8.7e-44 3e-45
8.8e-44 -2.17e-43 -1.3e-43 8.477437e-39 -3.976313e-38 1.8e-43 -2.19e-43 -1.46e-43
-1.89e-43 -7.709078e-39 -3.62e-43 1.82e-43 8.09e-43 -2.63e-43 1.92e-43 6e-44
2.3e-43 1.14e-43 9e-44 -1.04e-43 1.61e-43 1.49e-43 1.05e-43 -2.23e-43
-1.28e-43 -1.78e-43 7e-44 1.7e-43 1.71e-43 1.14e-43 1.84e-43 4.2e-44
-9e-44 -1.81e-43 -1.7e-43 5.5e-44 1.1e-44 -7.7e-44 3.5e-44 -1.88e-43
-2.19e-43 -1.95e-43 -1.82e-43 1.85e-43 -2.33e-43 -2.37e-43 -7.6e-44 8.4e-44
1.39e-43 -2.14e-43 -1.54e-43 1.72e-43 9.2e-44 9.4e-44 -1.96e-43 -1.63e-43
1.54e-43 -2.35e-43 -1.7e-44 -2.8e-44 1.92e-43 1.47e-43 -1.28e-43 -4.5e-44

bias f4 [32]
00000000: c101 0000 f306 7036 3401 0080 2e07 0080
00000010: 2f02 0080 1007 0000 3900 0080 ec01 0080
00000020: 6801 0080 e70a 0000 b402 0000 4501 0000
00000030: fecd fea3 a603 0000 a98b ac2f c802 0000
00000040: 6301 0080 28ce 1721 3702 0080 ef6f c4a4
00000050: 3730 38b5 3402 0080 be00 0080 5302 0000
00000060: 7c8a 918c dd04 0000 9769 18b3 be88 1839
00000070: e543 adb8 7703 0000 3001 0080 e701 0000
6.29e-43 3.5766832e-06 -4.32e-43 -2.576e-42 -7.83e-43 2.534e-42 -8e-44 -6.9e-43
-5.04e-43 3.911e-42 9.7e-43 4.55e-43 -2.7625976e-17 1.309e-42 3.1385852e-10 9.98e-43
-4.97e-43 5.1433636e-19 -7.95e-43 -8.519107e-17 -6.8615503e-07 -7.9e-43 -2.66e-43 8.34e-43
-2.2424135e-31 1.745e-42 -3.548629e-08 0.0001454679 -8.261929e-05 1.243e-42 -4.26e-43 6.82e-43

weight f4 [32]
00000000: 5700 0080 5600 0080 a700 0000 7a00 0080
00000010: 5500 0080 6700 0000 0e00 0000 6f00 0080
00000020: 0500 0000 b406 0000 8800 0000 a000 0080
00000030: 0600 0000 d0c8 b709 7100 0000 5600 0080
00000040: 5200 0000 5900 0000 5224 0538 2400 0080
00000050: a700 0000 0e87 5814 48d9 5938 1500 0080
00000060: 46da 2d2d 51cf 4b30 7f00 0080 ed09 803d
00000070: a6f1 7f3c 3300 0080 8000 0080 7571 a42a
-1.22e-43 -1.2e-43 2.34e-43 -1.71e-43 -1.19e-43 1.44e-43 2e-44 -1.56e-43
7e-45 2.405e-42 1.9e-43 -2.24e-43 8e-45 4.424449e-33 1.58e-43 -1.2e-43
1.15e-43 1.25e-43 3.1743497e-05 -5e-44 2.34e-43 1.0931848e-26 5.193919e-05 -3e-44
9.882378e-12 7.4145584e-10 -1.78e-43 0.06251893 0.015621578 -7.1e-44 -1.8e-43 2.921098e-13

bias f4 [32]
00000000: f900 0080 ef0b 0080 8f0e 0080 1c13 0000
00000010: b100 0080 7206 0080 8406 0080 6c4d 7182
00000020: a877 8182 4909 0080 8e01 0080 0a75 b987
00000030: 254b bf82 b6bf 0080 200f 0080 2300 0080
00000040: 6806 0080 8c47 e087 6cff f2af acdd 3790
00000050: 2b92 6188 14b3 0c86 094d 38b2 6f75 2814
00000060: f82f 4fa6 2115 059f 4cdb 8f8c ae56 b2bc
00000070: 4bde 89bb 6801 0080 c501 0080 8031 7e95
-3.49e-43 -4.281e-42 -5.223e-42 6.855e-42 -2.48e-43 -2.312e-42 -2.337e-42 -1.7728103e-37
-1.9023526e-37 -3.331e-42 -5.58e-43 -2.7904496e-34 -2.8108058e-37 -6.8773e-41 -5.426e-42 -4.9e-44
-2.298e-42 -3.3745826e-34 -4.4201032e-10 -3.6261156e-29 -6.7880294e-34 -2.646264e-35 -1.0727725e-08 8.504992e-27
-7.188256e-16 -2.8181323e-20 -2.2164623e-31 -0.021769848 -0.0042074076 -5.04e-43 -6.35e-43 -5.133394e-26

running_mean f4 [32]
00000000: ac00 0000 b2b5 51b4 8500 0000 5c00 0000
00000010: 6ed4 6b86 8866 228f 5700 0080 a800 0000
00000020: 9300 0000 2301 0080 a400 0080 6f00 0080
00000030: 91cc ca21 f70c 1f91 b61c 41ad 0e00 0080
00000040: 3200 0000 f905 d91f e2b4 5caf ba9c f322
00000050: 7010 9c33 43e9 4e85 bc52 5b2f 7705 0080
00000060: 178d e830 de4c c1a1 f325 6e31 9ae3 9039
00000070: 7134 f1b9 8700 0080 1402 0000 974c 599d
2.41e-43 -1.9530742e-07 1.86e-43 1.29e-43 -4.4354656e-35 -8.0069635e-30 -1.22e-43 2.35e-43
2.06e-43 -4.08e-43 -2.3e-43 -1.56e-43 1.3742201e-18 -1.2546883e-28 -1.0977155e-11 -2e-44
7e-44 9.1912956e-20 -2.0073146e-10 6.6031223e-18 7.267306e-08 -9.728917e-36 1.9947327e-10 -1.96e-42
1.6920322e-09 -1.3098535e-18 3.465513e-09 0.00027635397 -0.00046006174 -1.89e-43 7.45e-43 -2.8759307e-21

running_var f4 [32]
00000000: 0400 0000 e0cc cc12 0400 0000 0400 0000
00000010: 0400 0000 0400 0000 0400 0000 0400 0000
00000020: 0400 0000 0400 0000 0400 0000 0400 0000
00000030: 0400 0000 0400 0000 0400 0000 0400 0000
00000040: 0400 0000 0400 0000 934e 0023 0400 0000
00000050: e0cc cc12 0400 0000 7674 2820 0400 0000
00000060: 3aea 2123 7d5a 1505 e0cc cc0e 9342 b137
00000070: 07f4 0237 0400 0000 0400 0000 3c49 0000
6e-45 1.2924716e-27 6e-45 6e-45 6e-45 6e-45 6e-45 6e-45
6e-45 6e-45 6e-45 6e-45 6e-45 6e-45 6e-45 6e-45
6e-45 6e-45 6.955533e-18 6e-45 1.2924716e-27 6e-45 1.4268687e-19 6e-45
8.777427e-18 7.0225664e-36 5.048717e-30 2.1131045e-05 7.805421e-06 6e-45 6e-45 2.6272e-41

weight f4 [48, 32, 3, 3]
00000000: 8300 0000 6300 0000 1800 0000 b900 0080
00000010: ab00 0080 8300 0000 c300 0080 7c00 0080
00000020: b700 0000 5200 0000 6a00 0000 5b00 0000
00000030: 4000 0000 2e00 0000 ba00 0000 9200 0080
00000040: a400 0000 5700 0000 1500 0080 a500 0080
00000050: a000 0000 8700 0000 c400 0080 9e00 0000
00000060: 4700 0000 0000 0080 5000 0000 b600 0000
00000070: b600 0080 ad00 0000 9900 0080 a900 0000
00000080: a900 0000 b000 0000 1400 0080 9f00 0000
00000090: 3600 0000 1300 0000 b100 0000 6d00 0000
000000a0: 7c00 0080 7100 0080 1200 0000 6500 0000
000000b0: 0d00 0000 1e00 0000 9100 0080 5800 0080
000000c0: 2500 0000 aa00 0000 ac00 0000 b900 0080
000000d0: b700 0080 9200 0080 0700 0000 8100 0000
000000e0: 9c00 0080 6f00 0080 a300 0080 7000 0080
000000f0: 9c00 0080 a900 0000 0a00 0000 a600 0000
00000100: 7c00 0000 6a00 0080 7000 0000 5300 0000
00000110: 5500 0000 8500 0080 1c00 0000 1100 0080
00000120: 7300 0080 5f00 0080 1000 0000 5600 0080
00000130: 6700 0080 2000 0000 7800 0080 6c00 0080
00000140: b900 0000 7500 0080 6b00 0080 9f00 0000
00000150: b900 0080 8300 0080 a300 0080 3900 0080
00000160: 9b00 0000 5a00 0000 6b00 0000 9e00 0000
00000170: 4600 0000 7a00 0080 5b00 0080 1500 0080
00000180: 0900 0000 2100 0080 0300 0080 2500 0080
00000190: 3900 0080 4600 0080 2b00 0080 0200 0080
000001a0: 3300 0000 1800 0080 2c00 0080 6200 0080
000001b0: 0600 0080 8c00 0000 8c00 0080 6c00 0000
000001c0: 3000 0080 a800 0080 8a00 0000 4400 0080
000001d0: 4900 0080 7a00 0000 2900 0000 9a00 0080
000001e0: 5d00 0080 3100 0080 1200 0000 a900 0080
000001f0: 5a00 0000 6800 0080 c000 0080 a800 0000
00000200: 4200 0000 be00 0000 3700 0000 5800 0080
00000210: 8300 0000 6100 0080 b600 0080 8a00 0000
00000220: 3300 0080 8500 0000 2800 0000 1100 0080
00000230: b000 0000 0500 0000 8100 0000 7100 0080
00000240: 9000 0000 4f00 0080 2d00 0000 8b00 0000
00000250: 4100 0000 5b00 0080 3100 0000 c600 0080
00000260: a800 0080 2200 0000 aa00 0080 a600 0000
00000270: a800 0080 9f00 0000 8600 0080 3200 0000
00000280: 9700 0080 9c00 0080 6200 0080 1a00 0080
00000290: 2c00 0000 9000 0080 aa00 0000 b200 0080
000002a0: 0d00 0000 8500 0000 0d00 0000 3400 0080
000002b0: 1f00 0080 c100 0080 ad00 0000 0c00 0000
000002c0: 8d00 0000 8b00 0080 0700 0080 0300 0000
000002d0: 3c00 0000 6700 0080 9d00 0080 4d00 0000
000002e0: 3600 0080 8600 0080 ad00 0000 5200 0000
000002f0: 2500 0000 1f00 0080 9a00 0000 9800 0080
00000300: 3000 0000 0200 0000 9300 0000 a400 0080
00000310: 3c00 0000 b200 0000 6d00 0000 6b00 0000
00000320: 4f00 0080 1000 0000 6d00 0080 3c00 0000
00000330: 6b00 0080 2e00 0080 8f00 0000 aa00 0080
00000340: 5200 0080 5000 0080 ab00 0080 a300 0080
00000350: b600 0080 b000 0000 9800 0000 2d00 0080
00000360: 3c00 0000 2400 0000 b700 0000 5e00 0000
00000370: 5700 0080 2300 0080 2700 0080 a800 0000
00000380: 3000 0080 2d00 0080 2300 0000 7c00 0080
00000390: 0d00 0080 5500 0000 b200 0080 2900 0080
000003a0: ab00 0080 2500 0000 9700 0080 9800 0080
000003b0: a000 0000 0400 0080 6d00 0080 6800 0080
000003c0: 5200 0000 1300 0000 4800 0000 1c00 0080
000003d0: 9000 0000 4d00 0080 9f00 0000 8d00 0080
000003e0: 4100 0080 0a00 0080 8d00 0000 3900 0080
000003f0: 5f00 0080 5800 0000 9700 0000 5e00 0080
1.84e-43 1.39e-43 3.4e-44 -2.59e-43 -2.4e-43 1.84e-43 -2.73e-43 -1.74e-43
2.56e-43 1.15e-43 1.49e-43 1.28e-43 9e-44 6.4e-44 2.6e-43 -2.05e-43
2.3e-43 1.22e-43 -3e-44 -2.31e-43 2.24e-43 1.89e-43 -2.75e-43 2.21e-43
1e-43 -0.0 1.12e-43 2.55e-43 -2.55e-43 2.42e-43 -2.14e-43 2.37e-43
2.37e-43 2.47e-43 -2.8e-44 2.23e-43 7.6e-44 2.7e-44 2.48e-43 1.53e-43
-1.74e-43 -1.58e-43 2.5e-44 1.42e-43 1.8e-44 4.2e-44 -2.03e-43 -1.23e-43
5.2e-44 2.38e-43 2.41e-43 -2.59e-43 -2.56e-43 -2.05e-43 1e-44 1.81e-43
-2.19e-43 -1.56e-43 -2.28e-43 -1.57e-43 -2.19e-43 2.37e-43 1.4e-44 2.33e-43
1.74e-43 -1.49e-43 1.57e-43 1.16e-43 1.19e-43 -1.86e-43 3.9e-44 -2.4e-44
-1.61e-43 -1.33e-43 2.2e-44 -1.2e-43 -1.44e-43 4.5e-44 -1.68e-43 -1.51e-43
2.59e-43 -1.64e-43 -1.5e-43 2.23e-43 -2.59e-43 -1.84e-43 -2.28e-43 -8e-44
2.17e-43 1.26e-43 1.5e-43 2.21e-43 9.8e-44 -1.71e-43 -1.28e-43 -3e-44
1.3e-44 -4.6e-44 -4e-45 -5.2e-44 -8e-44 -9.8e-44 -6e-44 -3e-45
7.1e-44 -3.4e-44 -6.2e-44 -1.37e-43 -8e-45 1.96e-43 -1.96e-43 1.51e-43
-6.7e-44 -2.35e-43 1.93e-43 -9.5e-44 -1.02e-43 1.71e-43 5.7e-44 -2.16e-43
-1.3e-43 -6.9e-44 2.5e-44 -2.37e-43 1.26e-43 -1.46e-43 -2.69e-43 2.35e-43
9.2e-44 2.66e-43 7.7e-44 -1.23e-43 1.84e-43 -1.36e-43 -2.55e-43 1.93e-43
-7.1e-44 1.86e-43 5.6e-44 -2.4e-44 2.47e-43 7e-45 1.81e-43 -1.58e-43
2.02e-43 -1.11e-43 6.3e-44 1.95e-43 9.1e-44 -1.28e-43 6.9e-44 -2.77e-43
-2.35e-43 4.8e-44 -2.38e-43 2.33e-43 -2.35e-43 2.23e-43 -1.88e-43 7e-44
-2.12e-43 -2.19e-43 -1.37e-43 -3.6e-44 6.2e-44 -2.02e-43 2.38e-43 -2.5e-43
1.8e-44 1.86e-43 1.8e-44 -7.3e-44 -4.3e-44 -2.7e-43 2.42e-43 1.7e-44
1.98e-43 -1.95e-43 -1e-44 4e-45 8.4e-44 -1.44e-43 -2.2e-43 1.08e-43
-7.6e-44 -1.88e-43 2.42e-43 1.15e-43 5.2e-44 -4.3e-44 2.16e-43 -2.13e-43
6.7e-44 3e-45 2.06e-43 -2.3e-43 8.4e-44 2.5e-43 1.53e-43 1.5e-43
-1.11e-43 2.2e-44 -1.53e-43 8.4e-44 -1.5e-43 -6.4e-44 2e-43 -2.38e-43
-1.15e-43 -1.12e-43 -2.4e-43 -2.28e-43 -2.55e-43 2.47e-43 2.13e-43 -6.3e-44
8.4e-44 5e-44 2.56e-43 1.32e-43 -1.22e-43 -4.9e-44 -5.5e-44 2.35e-43
-6.7e-44 -6.3e-44 4.9e-44 -1.74e-43 -1.8e-44 1.19e-43 -2.5e-43 -5.7e-44
-2.4e-43 5.2e-44 -2.12e-43 -2.13e-43 2.24e-43 -6e-45 -1.53e-43 -1.46e-43
1.15e-43 2.7e-44 1.01e-43 -3.9e-44 2.02e-43 -1.08e-43 2.23e-43 -1.98e-43
-9.1e-44 -1.4e-44 1.98e-43 -8e-44 -1.33e-43 1.23e-43 2.12e-43 -1.32e-43

bias f4 [48]
00000000: d100 0080 dc26 87a7 3e0e eca6 4a04 0080
00000010: 3e02 0000 6803 0080 a997 dd2e 7e04 0000
00000020: 0702 0000 f5b4 02b5 2703 0080 1304 0000
00000030: 7b81 92b7 0703 0080 7e04 0000 6a00 0080
00000040: 4809 0080 6402 0000 d404 0080 6801 0000
00000050: 5e04 0000 ac16 2a25 1a01 0080 5bcf 98b9
00000060: ee01 0000 b502 0080 2f01 0000 d806 0080
00000070: 8c04 0080 6404 0080 2864 d0b8 1603 0080
00000080: 6c55 b3b2 1d44 a0aa 9301 0000 9405 0080
00000090: 9605 0000 6330 3d9e 341b 7535 f2e5 88b7
000000a0: d031 fc29 2100 0000 018e 0100 1404 0080
000000b0: c702 0080 a402 0080 ed03 0000 1bbe 1d31
-2.93e-43 -3.751216e-15 -1.637965e-15 -1.539e-42 8.04e-43 -1.222e-42 1.0076857e-10 1.611e-42
7.27e-43 -4.86921e-07 -1.131e-42 1.462e-42 -1.746485e-05 -1.086e-42 1.611e-42 -1.49e-43
-3.33e-42 8.58e-43 -1.732e-42 5.04e-43 1.567e-42 1.4752831e-16 -3.95e-43 -0.0002914619
6.92e-43 -9.71e-43 4.25e-43 -2.455e-42 -1.631e-42 -1.575e-42 -9.9368684e-05 -1.107e-42
-2.0877188e-08 -2.8468973e-13 5.65e-43 -2.001e-42 2.004e-42 -1.0015583e-20 9.13092e-07 -1.631954e-05
1.1199689e-13 4.6e-44 1.42777e-40 -1.463e-42 -9.96e-43 -9.47e-43 1.408e-42 2.295457e-09

weight f4 [48]
00000000: a600 0000 710b 0000 2300 0080 1b00 0080
00000010: 8c00 0080 e016 7d2f 8900 0000 1100 0080
00000020: 30c9 49a4 bbbc 4406 4300 0000 5b29 9034
00000030: 0e64 ce3c d4af 0e00 e1f0 cc16 2300 0000
00000040: 8700 0080 2587 f822 5200 0000 196f aa34
00000050: 8a00 0000 9f00 0080 8f00 0000 b81f 573d
00000060: 5500 0000 7000 0000 1500 0000 9b00 0000
00000070: 8dff 1122 5f00 0000 4742 5b3d 0700 0000
00000080: c5fc e3a6 05da b522 3c00 0080 eae6 149f
00000090: a800 0080 0400 0000 a400 0000 0a00 0080
000000a0: 3e00 0000 c04b 5c28 3cf7 ec26 8fe8 fa14
000000b0: f075 cf2d ab95 0b16 e824 0000 a14b 1d20
2.33e-43 4.104e-42 -4.9e-44 -3.8e-44 -1.96e-43 2.3018343e-10 1.92e-43 -2.4e-44
-4.375534e-17 3.700216e-35 9.4e-44 2.685218e-07 0.025194194 1.348772e-39 3.3109993e-25 4.9e-44
-1.89e-43 6.7363625e-18 1.15e-43 3.1745802e-07 1.93e-43 -2.23e-43 2e-43 0.052520484
1.19e-43 1.57e-43 3e-44 2.17e-43 1.9786452e-18 1.33e-43 0.053530004 1e-44
-1.5819802e-15 4.9290985e-18 -8.4e-44 -3.1531227e-20 -2.35e-43 6e-45 2.3e-43 -1.4e-44
8.7e-44 1.2228879e-14 1.6442803e-15 2.5335277e-26 2.358555e-11 1.1275557e-25 1.324e-41 1.3323441e-19

bias f4 [48]
00000000: c806 0080 e001 0080 2d72 9591 7800 0080
00000010: 8b00 0080 1daf 2bb2 a404 0080 8b00 0080
00000020: 7c93 1ba6 1f00 0080 cf00 0080 2ffb 8baf
00000030: dbb1 bfbc cf15 0080 f8eb 6c80 df02 0000
00000040: d411 0080 c926 62a8 1e00 0080 ec5f 17b6
00000050: 90df af82 0dc7 4b94 69c6 57b9 1ba3 0cbd
00000060: 6004 0080 fc12 0000 5d00 0080 5577 4724
00000070: 9ced 4684 3202 0000 2d35 10bd 5e00 0080
00000080: 13c9 6da5 fe27 e19f 8a04 0080 27da 1d9a
00000090: 2410 0080 810b 0080 cb47 8c98 4103 0000
000000a0: 7b02 0080 af8b 4085 fb4e 499d 70e3 1687
000000b0: 4c55 2aaf 0c00 0080 b603 0080 2103 0080
-2.433e-42 -6.73e-43 -2.3578421e-28 -1.68e-43 -1.95e-43 -9.993326e-09 -1.665e-42 -1.95e-43
-5.3976306e-16 -4.3e-44 -2.9e-43 -2.546243e-10 -0.023400238 -7.823e-42 -1.0002883e-38 1.03e-42
-6.396e-42 -1.255393e-14 -4.2e-44 -2.2556587e-06 -2.5842258e-37 -1.0288137e-26 -0.00020577911 -0.034335237
-1.57e-42 6.81e-42 -1.3e-43 4.3252325e-17 -2.3383893e-36 7.88e-43 -0.035206962 -1.32e-43
-2.06246e-16 -9.535737e-20 -1.628e-42 -3.264306e-23 -5.79e-42 -4.127e-42 -3.6261644e-24 1.167e-42
-8.9e-43 -9.0534524e-36 -2.664296e-21 -1.1351584e-34 -1.5491713e-10 -1.7e-44 -1.331e-42 -1.122e-42

running_mean f4 [48]
00000000: 9d00 0000 2199 7a25 1d9e 7325 4000 0000
00000010: 2300 0080 a3bf 5526 d5a0 aead 8900 0080
00000020: 5662 3215 5a1a 7a32 2c00 0000 a93d 1c25
00000030: 3f64 2b3a 9000 0080 3560 0180 4000 0080
00000040: a500 0000 8988 9e19 6100 0000 17a2 5a2c
00000050: 0567 920d 1845 b6a2 5400 0000 5788 a33a
00000060: 1e00 0080 2000 0080 5f00 0000 8e00 0000
00000070: cfd6 0c97 0800 0000 4118 a33a 1500 0080
00000080: 4e2a 3030 d48c bb28 4800 0000 ab86 0200
00000090: 8000 0080 8677 2a9d 1a5f ffb1 9e24 1e35
000000a0: 35af b429 532c dc0a 15a3 4a88 2abc 0080
000000b0: b0bf f21f d00c e704 4d43 7493 c4ca c0ae
2.2e-43 2.1735926e-16 2.1130461e-16 9e-44 -4.9e-44 7.4158936e-16 -1.9852934e-11 -1.92e-43
3.6024387e-26 1.4557907e-08 6.2e-44 1.3551734e-16 0.000653807 -2.02e-43 -1.26348e-40 -9e-44
2.31e-43 1.6391963e-23 1.36e-43 3.1069641e-12 9.022746e-31 -4.9404355e-18 1.18e-43 0.0012476546
-4.2e-44 -4.5e-44 1.33e-43 1.99e-43 -4.5507566e-25 1.1e-44 0.0012443141 -3e-44
6.4088546e-10 2.0822245e-14 1.01e-43 2.31981e-40 -1.8e-43 -2.2561105e-21 -7.4322886e-09 5.891287e-07
8.0239994e-14 2.1201902e-32 -6.0978866e-34 -6.75e-41 1.0280811e-19 5.4319605e-36 -3.0830312e-27 -8.7671675e-11

running_var f4 [48]
00000000: 0400 0000 0400 0000 0400 0000 0400 0000
00000010: 0400 0000 3308 3d0f 0400 0000 0400 0000
00000020: 0400 0000 1dcd cc0f 0400 0000 0f21 c30c
00000030: d56d 1b37 0400 0000 0400 0000 0400 0000
00000040: 0400 0000 0400 0000 0400 0000 5fce e81a
00000050: 0400 0000 0400 0000 0400 0000 8446 0a38
00000060: 0400 0000 0400 0000 0400 0000 0400 0000
00000070: 0400 0000 0400 0000 7e80 0b38 0400 0000
00000080: 1dcd cc0a 0400 0000 0400 0000 0400 0000
00000090: 0400 0000 0400 0000 0400 0000 0400 0000
000000a0: 4b33 3300 0400 0000 0400 0000 0400 0000
000000b0: b37c 6e02 0400 0000 0400 0000 1dcd cc08
6e-45 6e-45 6e-45 6e-45 6e-45 9.3199986e-30 6e-45 6e-45
6e-45 2.019496e-29 6e-45 3.0064404e-31 9.264292e-06 6e-45 6e-45 6e-45
6e-45 6e-45 6e-45 9.628636e-23 6e-45 6e-45 6e-45 3.2967437e-05
6e-45 6e-45 6e-45 6e-45 6e-45 6e-45 3.325985e-05 6e-45
1.972164e-32 6e-45 6e-45 6e-45 6e-45 6e-45 6e-45 6e-45
4.702011e-39 6e-45 6e-45 6e-45 1.7521265e-37 6e-45 6e-45 1.2326025e-33

weight f4 [64, 48, 3, 3]
00000000: af00 0080 3d00 0080 7c00 0080 b500 0080
00000010: 8500 0080 c000 0000 bd00 0080 1000 0000
00000020: ba00 0080 b000 0000 6c00 0080 9c00 0000
00000030: 4600 0080 a700 0000 9100 0000 aa00 0000
00000040: 7100 0080 3300 0080 5700 0000 2000 0000
00000050: 0400 0000 5900 0080 7600 0080 7500 0080
00000060: 2300 0000 1000 0000 8b00 0080 ac00 0000
00000070: 2d00 0000 a800 0000 8200 0000 1200 0080
00000080: 5300 0000 0200 0000 4100 0080 ac00 0000
00000090: 2500 0080 2c00 0000 a100 0000 4600 0000
000000a0: 0e00 0080 4100 0080 8f00 0000 aa00 0000
000000b0: 0900 0080 ad00 0000 6e00 0000 2f00 0080
000000c0: b000 0080 8500 0000 4400 0080 4b00 0000
000000d0: 6600 0080 6100 0080 3a00 0000 6d00 0000
000000e0: 7e00 0080 b900 0080 5d00 0080 8300 0080
000000f0: 4500 0080 aa00 0000 8200 0000 3b00 0080
00000100: a200 0080 a200 0000 8b00 0080 7700 0080
00000110: b300 0080 8500 0080 4100 0080 3400 0080
00000120: 7900 0080 a100 0080 0500 0000 0800 0000
00000130: 8c00 0000 7700 0080 4000 0000 a700 0000
00000140: 3d00 0080 7600 0000 5200 0080 5f00 0000
00000150: a000 0080 4000 0080 a600 0080 3400 0080
00000160: 4e00 0080 a700 0000 a900 0080 4f00 0080
00000170: 2e00 0000 4600 0000 3e00 0000 2300 0080
00000180: 9c00 0000 1e00 0000 1800 0080 0600 0080
00000190: a100 0080 8f00 0000 2800 0000 1600 0080
000001a0: 1c00 0080 7500 0080 5100 0000 4900 0000
000001b0: 4200 0000 0e00 0080 4200 0000 5200 0000
000001c0: 4100 0080 8800 0080 1200 0080 a200 0080
000001d0: 8600 0000 1700 0080 6700 0000 6100 0080
000001e0: 2500 0080 0f00 0080 9b00 0080 8100 0080
000001f0: 9e00 0080 7500 0000 7100 0000 4300 0080
00000200: 5300 0000 4000 0080 5b00 0000 9000 0000
00000210: 7f00 0000 4200 0000 3b00 0000 5300 0080
00000220: a900 0080 4400 0080 1800 0080 a200 0080
00000230: 1e00 0000 3300 0000 2700 0080 3200 0080
00000240: 8100 0000 bd00 0000 a300 0080 b100 0000
00000250: 9500 0080 0b00 0000 3100 0080 5c00 0000
00000260: 5b00 0080 9900 0080 1700 0000 1000 0000
00000270: 0d00 0080 4e00 0080 7000 0000 a500 0080
00000280: 3900 0080 4700 0080 ac00 0080 6f00 0080
00000290: 9d00 0000 7c00 0080 3500 0000 7300 0080
000002a0: 3400 0000 1e00 0080 8900 0000 a900 0000
000002b0: 8500 0080 0200 0000 7f00 0000 3b00 0080
000002c0: 8600 0000 3600 0080 1f00 0000 0f00 0000
000002d0: 3a00 0080 2a00 0080 9e00 0080 5400 0080
000002e0: 6400 0080 4500 0000 1a00 0080 2600 0080
000002f0: 0d00 0080 3400 0080 7f00 0080 7700 0080
00000300: 5600 0080 3400 0000 6500 0000 6b00 0080
00000310: 6f00 0000 5400 0000 6000 0000 3700 0000
00000320: 6800 0000 8900 0000 3500 0000 aa00 0080
00000330: 9e00 0000 1400 0080 af00 0080 0500 0000
00000340: 6c00 0000 0f00 0000 8c00 0000 9d00 0000
00000350: 9f00 0080 7200 0080 0f00 0000 6d00 0080
00000360: 4d00 0080 8e00 0080 b700 0000 2000 0080
00000370: 6600 0080 8400 0080 8800 0080 1200 0000
00000380: 6100 0000 7800 0000 7500 0080 8400 0080
00000390: bd00 0000 3200 0000 2600 0000 7e00 0080
000003a0: 2f00 0000 9700 0000 2100 0080 ad00 0000
000003b0: 0100 0080 ab00 0080 3900 0080 4b00 0000
000003c0: b300 0000 8700 0080 0b00 0080 aa00 0000
000003d0: 0b00 0080 7700 0080 3a00 0080 8100 0000
000003e0: 8300 0000 7d00 0000 a400 0000 5e00 0000
000003f0: 9800 0080 0300 0000 7300 0080 7400 0080
-2.45e-43 -8.5e-44 -1.74e-43 -2.54e-43 -1.86e-43 2.69e-43 -2.65e-43 2.2e-44
-2.6e-43 2.47e-43 -1.51e-43 2.19e-43 -9.8e-44 2.34e-43 2.03e-43 2.38e-43
-1.58e-43 -7.1e-44 1.22e-43 4.5e-44 6e-45 -1.25e-43 -1.65e-43 -1.64e-43
4.9e-44 2.2e-44 -1.95e-43 2.41e-43 6.3e-44 2.35e-43 1.82e-43 -2.5e-44
1.16e-43 3e-45 -9.1e-44 2.41e-43 -5.2e-44 6.2e-44 2.26e-43 9.8e-44
-2e-44 -9.1e-44 2e-43 2.38e-43 -1.3e-44 2.42e-43 1.54e-43 -6.6e-44
-2.47e-43 1.86e-43 -9.5e-44 1.05e-43 -1.43e-43 -1.36e-43 8.1e-44 1.53e-43
-1.77e-43 -2.59e-43 -1.3e-43 -1.84e-43 -9.7e-44 2.38e-43 1.82e-43 -8.3e-44
-2.27e-43 2.27e-43 -1.95e-43 -1.67e-43 -2.51e-43 -1.86e-43 -9.1e-44 -7.3e-44
-1.7e-43 -2.26e-43 7e-45 1.1e-44 1.96e-43 -1.67e-43 9e-44 2.34e-43
-8.5e-44 1.65e-43 -1.15e-43 1.33e-43 -2.24e-43 -9e-44 -2.33e-43 -7.3e-44
-1.1e-43 2.34e-43 -2.37e-43 -1.11e-43 6.4e-44 9.8e-44 8.7e-44 -4.9e-44
2.19e-43 4.2e-44 -3.4e-44 -8e-45 -2.26e-43 2e-43 5.6e-44 -3.1e-44
-3.9e-44 -1.64e-43 1.14e-43 1.02e-43 9.2e-44 -2e-44 9.2e-44 1.15e-43
-9.1e-44 -1.9e-43 -2.5e-44 -2.27e-43 1.88e-43 -3.2e-44 1.44e-43 -1.36e-43
-5.2e-44 -2.1e-44 -2.17e-43 -1.81e-43 -2.21e-43 1.64e-43 1.58e-43 -9.4e-44
1.16e-43 -9e-44 1.28e-43 2.02e-43 1.78e-43 9.2e-44 8.3e-44 -1.16e-43
-2.37e-43 -9.5e-44 -3.4e-44 -2.27e-43 4.2e-44 7.1e-44 -5.5e-44 -7e-44
1.81e-43 2.65e-43 -2.28e-43 2.48e-43 -2.09e-43 1.5e-44 -6.9e-44 1.29e-43
-1.28e-43 -2.14e-43 3.2e-44 2.2e-44 -1.8e-44 -1.1e-43 1.57e-43 -2.31e-43
-8e-44 -1e-43 -2.41e-43 -1.56e-43 2.2e-43 -1.74e-43 7.4e-44 -1.61e-43
7.3e-44 -4.2e-44 1.92e-43 2.37e-43 -1.86e-43 3e-45 1.78e-43 -8.3e-44
1.88e-43 -7.6e-44 4.3e-44 2.1e-44 -8.1e-44 -5.9e-44 -2.21e-43 -1.18e-43
-1.4e-43 9.7e-44 -3.6e-44 -5.3e-44 -1.8e-44 -7.3e-44 -1.78e-43 -1.67e-43
-1.2e-43 7.3e-44 1.42e-43 -1.5e-43 1.56e-43 1.18e-43 1.35e-43 7.7e-44
1.46e-43 1.92e-43 7.4e-44 -2.38e-43 2.21e-43 -2.8e-44 -2.45e-43 7e-45
1.51e-43 2.1e-44 1.96e-43 2.2e-43 -2.23e-43 -1.6e-43 2.1e-44 -1.53e-43
-1.08e-43 -1.99e-43 2.56e-43 -4.5e-44 -1.43e-43 -1.85e-43 -1.9e-43 2.5e-44
1.36e-43 1.68e-43 -1.64e-43 -1.85e-43 2.65e-43 7e-44 5.3e-44 -1.77e-43
6.6e-44 2.12e-43 -4.6e-44 2.42e-43 -1e-45 -2.4e-43 -8e-44 1.05e-43
2.51e-43 -1.89e-43 -1.5e-44 2.38e-43 -1.5e-44 -1.67e-43 -8.1e-44 1.81e-43
1.84e-43 1.75e-43 2.3e-43 1.32e-43 -2.13e-43 4e-45 -1.61e-43 -1.63e-43

bias f4 [64]
00000000: 6901 0080 7803 0080 6c01 0080 7d55 a133
00000010: 6808 0080 310c 0080 3233 8d87 4848 6d25
00000020: 7002 0080 d604 0000 322a 8bb2 9003 0000
00000030: 5928 67b4 7c04 0000 1d0c 0000 2e06 0000
00000040: f303 0080 4505 0000 a727 beb5 b903 0080
00000050: 6699 87ac f207 0000 2150 ccad 1000 0000
00000060: a39d 9737 0ca4 71af 3d03 0000 a3e9 6d34
00000070: 4d4e 7434 9b03 0000 af03 0000 4301 0000
00000080: 0301 0080 ca01 0000 8c02 0080 713c b5a6
00000090: 1703 0000 713b c8a8 7703 0080 b205 0080
000000a0: f903 0080 8f02 0000 6f04 0000 e310 0000
000000b0: 3c0a 0000 576d 9f36 0401 0080 5d05 0080
000000c0: d0ca c7aa 09b7 ca37 0001 0000 efbe 8336
000000d0: 1778 feb5 55a8 a52e 029e 51a5 c300 0080
000000e0: 5c08 0000 8b06 0000 c3ca 1437 d006 0080
000000f0: ad07 0080 2905 0080 2004 0080 cc02 0080
-5.06e-43 -1.244e-42 -5.1e-43 7.512697e-08 -3.016e-42 -4.373e-42 -2.1245412e-34 2.0580963e-16
-8.74e-43 1.735e-42 -1.6200918e-08 1.278e-42 -2.152823e-07 1.609e-42 4.345e-42 2.217e-42
-1.417e-42 1.89e-42 -1.4167643e-06 -1.335e-42 -3.8539614e-12 2.85e-42 -2.32277e-11 2.2e-44
1.8074008e-05 -2.1977103e-10 1.162e-42 2.2157342e-07 2.2752756e-07 1.293e-42 1.321e-42 4.53e-43
-3.63e-43 6.42e-43 -9.14e-43 -1.2575781e-15 1.108e-42 -2.2230239e-14 -1.243e-42 -2.043e-42
-1.425e-42 9.18e-43 1.59e-42 6.058e-42 3.671e-42 4.751298e-06 -3.64e-43 -1.924e-42
-3.549023e-13 2.4165509e-05 3.59e-43 3.926332e-06 -1.8959425e-06 7.533233e-11 -1.8181395e-16 -2.73e-43
2.999e-42 2.347e-42 8.868697e-06 -2.444e-42 -2.754e-42 -1.851e-42 -1.48e-42 -1.003e-42

weight f4 [64]
00000000: 7ac2 5d0a ce1a 8623 46a3 7c30 610d ac15
00000010: 9ecd 4234 9200 0000 3f00 0000 7560 7731
00000020: 3100 0080 2300 0000 1600 0000 0500 0000
00000030: 1100 0080 5540 8228 43c5 8709 6200 0080
00000040: c6fa 3408 5500 0000 7b9b 3439 4d00 0000
00000050: 290e 6312 2300 0080 c7c2 0330 6000 0000
00000060: 3e7f 533d 4d00 0080 7d00 0080 223c 5209
00000070: 4f78 5532 f1d1 9524 4300 0000 8c26 b30d
00000080: 1300 0080 1900 0000 3129 c639 674c a71a
00000090: 421d ca1b 2100 0080 8906 0521 d1ce 8d2d
000000a0: 8371 6515 aa21 3239 0459 6738 0c00 0080
000000b0: 4e05 2121 0949 4d00 3a00 0080 e0c6 9039
000000c0: a400 0000 4131 883c 6800 0000 6e00 0000
000000d0: 4c74 e83c 2b00 0000 8e00 0080 1d03 423b
000000e0: 0200 0000 5400 0000 d9b1 903d 9300 0000
000000f0: 7500 0080 94c2 d515 4c66 5b3b bbdb 9911
1.067734e-32 1.4539661e-17 9.190909e-10 6.9491355e-26 1.8142461e-07 2.05e-43 8.8e-44 3.599806e-09
-6.9e-44 4.9e-44 3.1e-44 7e-45 -2.4e-44 1.4460799e-14 3.2685572e-33 -1.37e-43
5.4461562e-34 1.19e-43 0.00017224059 1.08e-43 7.1646024e-28 -4.9e-44 4.793432e-10 1.35e-43
0.05163502 -1.08e-43 -1.75e-43 2.5306105e-33 1.2425587e-08 6.4974104e-17 9.4e-44 1.1041007e-30
-2.7e-44 3.5e-44 0.00037796193 6.9193016e-23 3.3437004e-22 -4.6e-44 4.50708e-19 1.6121689e-11
4.6335727e-26 0.00016987944 5.5157594e-05 -1.7e-44 5.455594e-19 7.097533e-39 -8.1e-44 0.00027613994
2.3e-43 0.016625049 1.46e-43 1.54e-43 0.028375767 6e-44 -1.99e-43 0.0029603906
3e-45 1.18e-43 0.07065172 2.06e-43 -1.64e-43 8.6337005e-26 0.0033477722 2.4274563e-28

bias f4 [64]
00000000: ec09 e890 ebc6 a2a9 5f35 93af eb1a ae9f
00000010: 21c5 abb3 4bb4 ca06 e430 5f09 d394 36b0
00000020: e2c6 16a4 6a89 2883 4ff3 d884 6570 d087
00000030: 792f fc8e 1e08 15ab f94b 059a 498c 2f13
00000040: b0a2 939d 9219 0080 72d9 f7b8 2daf 1c80
00000050: fc3d b39d ebbc 3312 9f29 1eaa 0d03 0080
00000060: e45a 01bd 00f4 0e20 aceb a784 922f 3d90
00000070: 839d c5b3 b36c e0a9 95e6 4014 dec4 9283
00000080: 5700 0080 1649 3486 bcfa e4b7 7654 3297
00000090: 07a8 5a9c 2aa5 0080 79dc 8ba4 3a91 d2ae
000000a0: c837 e1a1 0969 eeb9 736a c7b5 08dd 968c
000000b0: 9493 7da7 3a3a 3691 5511 0080 c952 ddb9
000000c0: c2fd 2180 9136 86bc 1b00 0080 830b 9201
000000d0: bbbc cabc 3fe0 6080 0a01 0080 6ca6 85bb
000000e0: 7ff3 c681 fb4a a395 1e1e 01bd d09b 72a9
000000f0: 4a1b 0000 8e68 329b 73bc a5bb 6359 a091
-9.152315e-29 -7.228752e-14 -2.6777067e-10 -7.37364e-20 -7.9986656e-08 7.624887e-35 2.6865637e-33 -6.6422706e-10
-3.2694525e-17 -4.9528506e-37 -5.10048e-36 -3.1362421e-34 -6.216851e-30 -5.29467e-13 -2.7565126e-23 2.2157271e-27
-3.907879e-21 -9.173e-42 -0.0001181838 -2.634235e-39 -4.7444996e-21 5.67153e-28 -1.4047659e-13 -1.094e-42
-0.03158082 1.2108601e-19 -3.947794e-36 -3.7310325e-29 -9.2021786e-08 -9.9664546e-14 9.738997e-27 -8.626307e-37
-1.22e-43 -3.3907932e-35 -2.7296475e-05 -5.7621507e-25 -7.234732e-22 -5.925e-41 -6.0655136e-17 -9.575492e-11
-1.5261358e-18 -0.00045473155 -1.4857636e-06 -2.3244188e-31 -3.5190805e-15 -1.4375211e-28 -6.218e-42 -0.00042214085
-3.121603e-39 -0.016383441 -3.8e-44 5.364845e-38 -0.024748197 -8.896652e-39 -3.73e-43 -0.004078677
-7.308311e-38 -6.5953474e-26 -0.031522863 -5.386994e-14 9.79e-42 -1.4757598e-22 -0.0050578653 -2.5298638e-28

running_mean f4 [64]
00000000: 0900 0080 4900 0080 a8e5 dd91 b98a 44b1
00000010: f87d 29a1 2800 0000 6c9d 3f05 35bb 15a3
00000020: 4a00 0000 5b00 0080 041b 13b1 1b00 0080
00000030: 6a18 4b32 70a7 0180 4600 0080 4b00 0080
00000040: 2c00 0000 7b00 0080 af64 b533 5d00 0000
00000050: fe0a d62a 8400 0080 38d7 d42b 4200 0080
00000060: 8c66 c83a 710a d92c 8b00 0080 73a0 3632
00000070: 3287 14b2 f504 0080 9d00 0080 2e00 0080
00000080: 0e00 0080 2c00 0000 3d54 9aaa e777 c624
00000090: 5000 0000 a054 4f26 2200 0000 bdae ce8c
000000a0: 6a00 0000 4ae5 7f30 b486 a51e a600 0080
000000b0: 5d00 0080 4bd8 34b5 2e00 0080 bb33 7330
000000c0: 819e c728 7407 8f39 2d00 0000 1e6b 86b4
000000d0: dbe4 3f3a 8f5a 7dac 8ff2 53a2 8843 b835
000000e0: 9b00 0080 4500 0080 9375 ed3a 1100 0080
000000f0: 3e00 0000 6a00 0000 ce0e 8136 5600 0080
-1.3e-44 -1.02e-43 -3.5009189e-28 -2.8600609e-09 -5.7426145e-19 5.6e-44 9.009691e-36 -8.116949e-18
1.04e-43 -1.28e-43 -2.1406672e-09 -3.8e-44 1.1821706e-08 -1.51901e-40 -9.8e-44 -1.05e-43
6.2e-44 -1.72e-43 8.4467835e-08 1.3e-43 3.8021664e-13 -1.85e-43 1.5123241e-12 -9.2e-44
0.001528935 6.16867e-12 -1.95e-43 1.0630276e-08 -8.645474e-09 -1.778e-42 -2.2e-43 -6.4e-44
-2e-44 6.2e-44 -2.7414347e-13 8.6071935e-17 1.12e-43 7.193224e-16 4.8e-44 -3.1844492e-31
1.49e-43 9.30943e-10 1.7525766e-20 -2.33e-43 -1.3e-43 -6.7369973e-07 -6.4e-44 8.84764e-10
2.2162178e-14 0.00027280638 6.3e-44 -2.5037383e-07 0.0007320174 -3.6003733e-12 -2.8724242e-18 1.3728722e-06
-2.17e-43 -9.7e-44 0.0018116705 -2.4e-44 8.7e-44 1.49e-43 3.846223e-06 -1.2e-43

running_var f4 [64]
00000000: 0400 0000 0400 0000 0400 0000 0400 0000
00000010: 2ac5 7a05 0400 0000 0400 0000 3800 0000
00000020: 0400 0000 0400 0000 0400 0000 0400 0000
00000030: 0400 0000 0400 0000 0400 0000 0400 0000
00000040: 0400 0000 0400 0000 bc4e 0b21 0400 0000
00000050: 0400 0000 0400 0000 0400 0000 0400 0000
00000060: 76c6 6b38 0400 0000 0400 0000 0dce cc11
00000070: 0400 0000 0400 0000 0400 0000 0400 0000
00000080: 0400 0000 0400 0000 f632 0e18 0400 0000
00000090: 0400 0000 3700 0000 0400 0000 0400 0000
000000a0: 0400 0000 1e8e 0824 c065 7700 0400 0000
000000b0: 0400 0000 0dce cc15 0400 0000 9f04 ea23
000000c0: 0400 0000 e013 9536 0400 0000 0400 0000
000000d0: b620 9137 0dce cc02 0400 0000 3e9d 3a2e
000000e0: 0400 0000 0400 0000 0370 b738 0400 0000
000000f0: 0400 0000 0400 0000 af8c ee2f 0400 0000
6e-45 6e-45 6e-45 6e-45 1.1791157e-35 6e-45 6e-45 7.8e-44
6e-45 6e-45 6e-45 6e-45 6e-45 6e-45 6e-45 6e-45
6e-45 6e-45 4.7199236e-19 6e-45 6e-45 6e-45 6e-45 6e-45
5.6213197e-05 6e-45 6e-45 3.2312514e-28 6e-45 6e-45 6e-45 6e-45
6e-45 6e-45 1.8378799e-24 6e-45 6e-45 7.7e-44 6e-45 6e-45
6e-45 2.9610677e-17 1.0964925e-38 6e-45 6e-45 8.2720035e-26 6e-45 2.5372288e-17
6e-45 4.44286e-06 6e-45 6e-45 1.730058e-05 3.0093373e-37 6e-45 4.2431163e-11
6e-45 6e-45 8.746984e-05 6e-45 6e-45 6e-45 4.339191e-10 6e-45

weight f4 [80, 64, 3, 3]
00000000: 7200 0000 0500 0000 a100 0080 6600 0080
00000010: a600 0000 9700 0000 9e00 0080 6800 0000
00000020: 4900 0080 a200 0000 1800 0080 6f00 0080
00000030: 0500 0080 7a00 0000 7700 0000 3a00 0080
00000040: 3000 0080 5c00 0000 1900 0080 6100 0000
00000050: 6400 0000 6200 0080 1e00 0080 9400 0000
00000060: 2800 0080 6b00 0000 9b00 0080 1600 0080
00000070: 9e00 0080 3300 0080 a400 0080 9600 0000
00000080: 1c00 0080 1f00 0000 0700 0000 0800 0000
00000090: 7500 0000 3e00 0080 7800 0000 1400 0080
000000a0: 0900 0080 6b00 0080 3900 0000 2d00 0080
000000b0: a800 0000 2600 0000 ac00 0000 2f00 0080
000000c0: 1300 0080 7b00 0080 bf00 0080 7500 0080
000000d0: 7900 0000 2a00 0080 a400 0080 4f00 0000
000000e0: be00 0000 7b00 0080 ab00 0000 0900 0080
000000f0: bf00 0080 1c00 0000 1d00 0000 0200 0000
00000100: 9700 0080 1500 0000 3200 0080 9c00 0000
00000110: 5900 0000 8100 0080 4500 0000 a100 0080
00000120: a000 0000 5400 0000 a600 0000 a800 0080
00000130: 6b00 0080 5200 0000 6700 0000 0300 0000
00000140: 4d00 0000 8f00 0000 5800 0080 4800 0080
00000150: 9b00 0000 2b00 0000 0e00 0080 4800 0080
00000160: 7500 0000 2800 0000 7d00 0000 8a00 0080
00000170: 4700 0000 6e00 0080 6300 0000 5900 0000
00000180: 8a00 0000 6800 0000 ba00 0000 4400 0080
00000190: 0800 0080 9d00 0000 1000 0000 6100 0000
000001a0: 0300 0080 2500 0000 0e00 0000 0800 0000
000001b0: 7000 0080 5d00 0000 9500 0080 8800 0080
000001c0: c100 0000 a800 0080 0300 0080 2300 0000
000001d0: af00 0000 2700 0000 0d00 0000 5200 0000
000001e0: a800 0080 9b00 0080 3000 0080 6a00 0000
000001f0: 5900 0000 6500 0080 6f00 0000 5e00 0080
00000200: 0900 0000 b900 0000 5900 0080 1e00 0000
00000210: a100 0000 ab00 0080 5100 0080 a300 0000
00000220: 6500 0080 3000 0080 2d00 0080 9f00 0080
00000230: 4800 0000 c900 0080 7000 0000 2100 0000
00000240: 7600 0080 3000 0080 5700 0080 8000 0080
00000250: 6700 0080 0900 0080 2a00 0080 9000 0080
00000260: 1b00 0080 3900 0000 2800 0000 5e00 0000
00000270: 4300 0000 aa00 0000 9000 0080 2900 0000
00000280: 8b00 0080 8200 0000 9100 0000 4300 0000
00000290: 8600 0000 aa00 0000 0100 0080 2300 0080
000002a0: 6100 0080 9a00 0080 9600 0000 4000 0080
000002b0: 1200 0000 7700 0080 2600 0000 a400 0000
000002c0: 7700 0000 0a00 0080 2100 0000 ac00 0000
000002d0: a600 0080 6b00 0080 6e00 0000 3400 0080
000002e0: 0700 0080 0400 0080 9d00 0000 8100 0080
000002f0: 5500 0080 5600 0080 4e00 0080 0d00 0080
00000300: 4100 0080 8000 0000 b300 0080 4b00 0080
00000310: 1800 0080 b100 0000 3600 0080 1300 0080
00000320: 1000 0080 0400 0000 9200 0000 1500 0080
00000330: 2e00 0080 6b00 0000 4500 0000 4e00 0080
00000340: 1a00 0080 0300 0080 ab00 0080 9300 0080
00000350: b300 0080 8700 0080 3100 0080 4000 0080
00000360: 9700 0000 3400 0000 3100 0000 5900 0000
00000370: 2000 0000 8d00 0080 1400 0000 daaa 0180
00000380: 4400 0000 a400 0080 3200 0000 6200 0000
00000390: b500 0000 2000 0000 9c00 0080 7a00 0080
000003a0: 7600 0000 5e00 0000 5e00 0080 6600 0000
000003b0: 3700 0080 6500 0000 9e00 0080 5600 0000
000003c0: 7a00 0000 b300 0000 7900 0080 6700 0000
000003d0: 0600 0080 1000 0080 9400 0000 6b00 0000
000003e0: 8600 0000 5500 0080 7a00 0080 1600 0080
000003f0: 3c00 0000 2200 0000 9900 0080 3400 0000
1.6e-43 7e-45 -2.26e-43 -1.43e-43 2.33e-43 2.12e-43 -2.21e-43 1.46e-43
-1.02e-43 2.27e-43 -3.4e-44 -1.56e-43 -7e-45 1.71e-43 1.67e-43 -8.1e-44
-6.7e-44 1.29e-43 -3.5e-44 1.36e-43 1.4e-43 -1.37e-43 -4.2e-44 2.07e-43
-5.6e-44 1.5e-43 -2.17e-43 -3.1e-44 -2.21e-43 -7.1e-44 -2.3e-43 2.1e-43
-3.9e-44 4.3e-44 1e-44 1.1e-44 1.64e-43 -8.7e-44 1.68e-43 -2.8e-44
-1.3e-44 -1.5e-43 8e-44 -6.3e-44 2.35e-43 5.3e-44 2.41e-43 -6.6e-44
-2.7e-44 -1.72e-43 -2.68e-43 -1.64e-43 1.7e-43 -5.9e-44 -2.3e-43 1.11e-43
2.66e-43 -1.72e-43 2.4e-43 -1.3e-44 -2.68e-43 3.9e-44 4e-44 3e-45
-2.12e-43 3e-44 -7e-44 2.19e-43 1.25e-43 -1.81e-43 9.7e-44 -2.26e-43
2.24e-43 1.18e-43 2.33e-43 -2.35e-43 -1.5e-43 1.15e-43 1.44e-43 4e-45
1.08e-43 2e-43 -1.23e-43 -1.01e-43 2.17e-43 6e-44 -2e-44 -1.01e-43
1.64e-43 5.6e-44 1.75e-43 -1.93e-43 1e-43 -1.54e-43 1.39e-43 1.25e-43
1.93e-43 1.46e-43 2.6e-43 -9.5e-44 -1.1e-44 2.2e-43 2.2e-44 1.36e-43
-4e-45 5.2e-44 2e-44 1.1e-44 -1.57e-43 1.3e-43 -2.09e-43 -1.9e-43
2.7e-43 -2.35e-43 -4e-45 4.9e-44 2.45e-43 5.5e-44 1.8e-44 1.15e-43
-2.35e-43 -2.17e-43 -6.7e-44 1.49e-43 1.25e-43 -1.42e-43 1.56e-43 -1.32e-43
1.3e-44 2.59e-43 -1.25e-43 4.2e-44 2.26e-43 -2.4e-43 -1.14e-43 2.28e-43
-1.42e-43 -6.7e-44 -6.3e-44 -2.23e-43 1.01e-43 -2.82e-43 1.57e-43 4.6e-44
-1.65e-43 -6.7e-44 -1.22e-43 -1.8e-43 -1.44e-43 -1.3e-44 -5.9e-44 -2.02e-43
-3.8e-44 8e-44 5.6e-44 1.32e-43 9.4e-44 2.38e-43 -2.02e-43 5.7e-44
-1.95e-43 1.82e-43 2.03e-43 9.4e-44 1.88e-43 2.38e-43 -1e-45 -4.9e-44
-1.36e-43 -2.16e-43 2.1e-43 -9e-44 2.5e-44 -1.67e-43 5.3e-44 2.3e-43
1.67e-43 -1.4e-44 4.6e-44 2.41e-43 -2.33e-43 -1.5e-43 1.54e-43 -7.3e-44
-1e-44 -6e-45 2.2e-43 -1.81e-43 -1.19e-43 -1.2e-43 -1.1e-43 -1.8e-44
-9.1e-44 1.8e-43 -2.51e-43 -1.05e-43 -3.4e-44 2.48e-43 -7.6e-44 -2.7e-44
-2.2e-44 6e-45 2.05e-43 -3e-44 -6.4e-44 1.5e-43 9.7e-44 -1.1e-43
-3.6e-44 -4e-45 -2.4e-43 -2.06e-43 -2.51e-43 -1.89e-43 -6.9e-44 -9e-44
2.12e-43 7.3e-44 6.9e-44 1.25e-43 4.5e-44 -1.98e-43 2.8e-44 -1.53125e-40
9.5e-44 -2.3e-43 7e-44 1.37e-43 2.54e-43 4.5e-44 -2.19e-43 -1.71e-43
1.65e-43 1.32e-43 -1.32e-43 1.43e-43 -7.7e-44 1.42e-43 -2.21e-43 1.2e-43
1.71e-43 2.51e-43 -1.7e-43 1.44e-43 -8e-45 -2.2e-44 2.07e-43 1.5e-43
1.88e-43 -1.19e-43 -1.71e-43 -3.1e-44 8.4e-44 4.8e-44 -2.14e-43 7.3e-44

bias f4 [80]
00000000: a405 0000 5a99 8338 ae04 0000 2200 0080
00000010: e304 0080 ce04 0000 9302 0080 0a07 0080
00000020: db07 0080 1704 0000 cdfd 5632 5a93 e038
00000030: e85d 0b23 5902 2934 bf02 0000 210c 0000
00000040: 9a51 c2b6 8d12 b9b4 da46 0080 4e06 0080
00000050: 5c00 0080 9901 0000 8904 0080 0d06 0000
00000060: b604 0080 5b00 0000 c7b4 6129 f602 0080
00000070: d93c a3b3 9901 0000 b71b ce1b a90b 0080
00000080: d6b1 cd33 ebb7 2511 a587 1ab6 2c22 0037
00000090: a604 0000 c5cd 7228 1a67 6e37 b600 0000
000000a0: 33ac 8335 f93a 1533 8805 0080 1203 dc37
000000b0: 2e97 b3a8 cdcb 0ea2 9503 0000 5491 56ab
000000c0: a3a3 c037 ea62 ba37 f006 0000 96fb 97b4
000000d0: 7233 1bb6 9791 cab4 f207 0000 0f84 2f2c
000000e0: ea01 0000 e900 0000 6d00 0080 4705 0000
000000f0: 598d c12f 4605 0080 3608 0080 f501 0000
00000100: cf05 0000 4109 a3b2 67ae 6184 fc05 0000
00000110: a200 0080 4d03 0080 9804 0000 2040 eba5
00000120: a900 0080 c001 0000 5f06 0080 f429 ce1d
00000130: e603 0080 1101 0000 1ed8 f4b6 af05 0080
2.023e-42 6.275131e-05 1.679e-42 -4.8e-44 -1.753e-42 1.724e-42 -9.23e-43 -2.525e-42
-2.818e-42 1.467e-42 1.2514147e-08 0.00010708599 7.5550905e-18 1.5740206e-07 9.85e-43 4.351e-42
-5.79115e-06 -3.4472433e-07 -2.5417e-41 -2.262e-42 -1.29e-43 5.73e-43 -1.627e-42 2.17e-42
-1.69e-42 1.28e-43 5.0116835e-14 -1.062e-42 -7.601347e-08 5.73e-43 3.4097752e-22 -4.183e-42
9.5784046e-08 1.3072879e-28 -2.3026744e-06 7.637351e-06 1.668e-42 1.3478318e-14 1.4209911e-05 2.55e-43
9.810377e-07 3.47454e-08 -1.984e-42 2.6227473e-05 -1.9938556e-14 -1.935248e-18 1.285e-42 -7.6229756e-13
2.2964383e-05 2.2218988e-05 2.489e-42 -2.8308995e-07 -2.3126745e-06 -3.7731363e-07 2.85e-42 2.4942303e-12
6.87e-43 3.27e-43 -1.53e-43 1.893e-42 3.520693e-10 -1.892e-42 -2.946e-42 7.02e-43
2.084e-42 -1.8979906e-08 -2.6528705e-36 2.147e-42 -2.27e-43 -1.184e-42 1.648e-42 -4.0809454e-16
-2.37e-43 6.28e-43 -2.286e-42 5.4571124e-21 -1.398e-42 3.83e-43 -7.296926e-06 -2.039e-42
