models/model_random4_fold_1_l2.pkl (torch_old, 714175 bytes, 38 tensors)

weight f4 [16, 3, 3, 3]
00000000: a800 0000 5000 0000 2b00 0080 3200 0080
00000010: 3700 0000 6600 0080 1a00 0080 5f00 0080
00000020: 1900 0000 5f00 0080 a100 0080 1700 0000
00000030: 3400 0080 3400 0000 0200 0000 2d00 0000
00000040: 2117 0000 2400 0080 6f00 0000 3800 0080
00000050: 8200 0000 0500 0080 5500 0000 5a01 0000
00000060: 1400 0080 255b 0380 4e00 0080 9100 0080
00000070: a700 0080 6200 0000 4e00 0080 3200 0080
00000080: 6c00 0000 5f00 0000 5200 0080 3700 0000
00000090: 1500 0000 5300 0000 7a00 0080 2000 0080
000000a0: 4200 0080 2300 0080 1900 0000 1800 0000
000000b0: a900 0000 0c00 0000 b100 0000 a700 0080
000000c0: 2a00 0000 3600 0000 2600 0080 0600 0080
000000d0: 4b00 0080 4e00 0000 9f00 0080 7200 0000
000000e0: 0000 0080 2300 0000 2800 0080 af00 0000
000000f0: 1300 0000 7000 0000 b200 0080 7000 0000
00000100: a700 0080 9200 0080 4e00 0000 0900 0080
00000110: 9200 0080 7600 0000 2600 0000 1000 0080
00000120: 5300 0000 6700 0000 7d00 0000 2900 0000
00000130: 0800 0080 5f00 0000 0b00 0000 9a00 0000
00000140: 5500 0000 5af9 04bc 0452 603c fc53 9fbd
00000150: ab8b 6abc e8b8 233d 3485 03bd 9299 74bc
00000160: ee4a 6cbb 241c 2ebd 744a d3bc 481d 623d
00000170: 3c3a 3bbd 7c35 de3c c398 223d 94e8 923b
00000180: ccda a53b 7072 fe3b e589 4f3c 4a63 803c
00000190: 902d f53c 2966 c0bb c14a 12bc 8ace 383d
000001a0: fcf3 95bd 560d 4a3c 8e04 9e3d c913 583d
000001b0: abc4 833b ee30 0abb f16e 10bd 24d5 dbbb
000001c0: fbb2 4b3c 328d 2bbd 30d4 4bbd 363a 843c
000001d0: c6a3 07bd 1914 4f3c d754 893c 38f6 35bc
000001e0: e115 c13b 9ae6 b53c 366f b8bb bab9 f43b
000001f0: 03af 793c dbcf efb9 2a5b ab3c 2936 fdbc
00000200: 76a7 4a3b 0c90 30bc 013e c33c ac92 21bb
00000210: 351f 6e3c 63ef cf3c 167b 2abc 6900 0000
00000220: 2000 0080 6800 0080 3d00 0080 4200 0080
00000230: 7200 0000 a300 0000 a300 0000 5100 0000
00000240: 8900 0000 9000 0080 3300 0080 6300 0080
00000250: 0b00 0000 a600 0080 0f00 0000 7400 0080
00000260: 5d00 0000 2a00 0080 4200 0000 4c00 0000
00000270: 3100 0080 1600 0000 1c00 0080 5c00 0080
00000280: 5e00 0000 0e00 0000 0a00 0080 9d00 0000
00000290: 9700 0000 2500 0080 2900 0000 1200 0000
000002a0: 5500 0080 8e00 0000 3900 0000 0c00 0080
000002b0: 4700 0080 6900 0080 8400 0080 7400 0080
000002c0: 5800 0000 0d00 0080 3800 0080 a300 0080
000002d0: 7300 0000 2a00 0080 2c00 0080 2a00 0080
000002e0: 4000 0080 4300 0000 9e00 0080 4600 0000
000002f0: 4300 0000 0300 0080 af00 0080 0a00 0000
00000300: 4700 0080 8700 0000 5000 0080 5800 0000
00000310: 6900 0000 6900 0000 0900 0080 6f00 0000
00000320: 7500 0000 a100 0000 0800 0000 4a00 0080
00000330: 7400 0000 8400 0000 6200 0080 6800 0080
00000340: a700 0080 4e00 0080 6200 0000 0700 0000
00000350: 2900 0080 8000 0080 8800 0080 3100 0080
00000360: 1300 0080 9b00 0080 6c00 0000 ae00 0000
00000370: 9a00 0000 1800 0080 6c00 0080 1c00 0000
00000380: 9200 0080 9d00 0080 5100 0000 af00 0080
00000390: 2200 0080 8f00 0080 b600 0080 a400 0080
000003a0: 4600 0000 9d00 0000 0900 0080 9e00 0000
000003b0: 8900 0000 2b00 0080 8400 0080 0800 0000
000003c0: 9d00 0000 8000 0080 8700 0080 0700 0080
000003d0: 5a00 0000 9c00 0080 8100 0080 a800 0080
000003e0: 7a00 0080 9d00 0000 9700 0080 a800 0080
000003f0: a600 0080 af00 0000 5100 0000 6700 0000
2.35e-43 1.12e-43 -6e-44 -7e-44 7.7e-44 -1.43e-43 -3.6e-44 -1.33e-43
3.5e-44 -1.33e-43 -2.26e-43 3.2e-44 -7.3e-44 7.3e-44 3e-45 6.3e-44
8.297e-42 -5e-44 1.56e-43 -7.8e-44 1.82e-43 -7e-45 1.19e-43 4.85e-43
-2.8e-44 -3.08203e-40 -1.1e-43 -2.03e-43 -2.34e-43 1.37e-43 -1.1e-43 -7e-44
1.51e-43 1.33e-43 -1.15e-43 7.7e-44 3e-44 1.16e-43 -1.71e-43 -4.5e-44
-9.2e-44 -4.9e-44 3.5e-44 3.4e-44 2.37e-43 1.7e-44 2.48e-43 -2.34e-43
5.9e-44 7.6e-44 -5.3e-44 -8e-45 -1.05e-43 1.1e-43 -2.23e-43 1.6e-43
-0.0 4.9e-44 -5.6e-44 2.45e-43 2.7e-44 1.57e-43 -2.5e-43 1.57e-43
-2.34e-43 -2.05e-43 1.1e-43 -1.3e-44 -2.05e-43 1.65e-43 5.3e-44 -2.2e-44
1.16e-43 1.44e-43 1.75e-43 5.7e-44 -1.1e-44 1.33e-43 1.5e-44 2.16e-43
1.19e-43 -0.008116091 0.013691429 -0.077796906 -0.014315526 0.039971262 -0.032109454 -0.014929192
-0.0036055404 -0.042507306 -0.025792338 0.055203706 -0.045709834 0.027125113 0.039696466 0.004483292
0.005061483 0.007765107 0.012667154 0.015672345 0.029928952 -0.0058715534 -0.0089289555 0.045118846
-0.07321927 0.012332281 0.077157125 0.052753244 0.0040212474 -0.0021086293 -0.035262052 -0.006708758
0.012432809 -0.0418827 -0.049762905 0.016141038 -0.03311517 0.012639069 0.016764088 -0.011106066
0.0058925007 0.022204686 -0.0056284918 0.0074684294 0.01523948 -0.00045740497 0.020917494 -0.030909615
0.0030922568 -0.010776531 0.023833277 -0.0024654074 0.0145338075 0.025382703 -0.010405323 1.47e-43
-4.5e-44 -1.46e-43 -8.5e-44 -9.2e-44 1.6e-43 2.28e-43 2.28e-43 1.14e-43
1.92e-43 -2.02e-43 -7.1e-44 -1.39e-43 1.5e-44 -2.33e-43 2.1e-44 -1.63e-43
1.3e-43 -5.9e-44 9.2e-44 1.06e-43 -6.9e-44 3.1e-44 -3.9e-44 -1.29e-43
1.32e-43 2e-44 -1.4e-44 2.2e-43 2.12e-43 -5.2e-44 5.7e-44 2.5e-44
-1.19e-43 1.99e-43 8e-44 -1.7e-44 -1e-43 -1.47e-43 -1.85e-43 -1.63e-43
1.23e-43 -1.8e-44 -7.8e-44 -2.28e-43 1.61e-43 -5.9e-44 -6.2e-44 -5.9e-44
-9e-44 9.4e-44 -2.21e-43 9.8e-44 9.4e-44 -4e-45 -2.45e-43 1.4e-44
-1e-43 1.89e-43 -1.12e-43 1.23e-43 1.47e-43 1.47e-43 -1.3e-44 1.56e-43
1.64e-43 2.26e-43 1.1e-44 -1.04e-43 1.63e-43 1.85e-43 -1.37e-43 -1.46e-43
-2.34e-43 -1.1e-43 1.37e-43 1e-44 -5.7e-44 -1.8e-43 -1.9e-43 -6.9e-44
-2.7e-44 -2.17e-43 1.51e-43 2.44e-43 2.16e-43 -3.4e-44 -1.51e-43 3.9e-44
-2.05e-43 -2.2e-43 1.14e-43 -2.45e-43 -4.8e-44 -2e-43 -2.55e-43 -2.3e-43
9.8e-44 2.2e-43 -1.3e-44 2.21e-43 1.92e-43 -6e-44 -1.85e-43 1.1e-44
2.2e-43 -1.8e-43 -1.89e-43 -1e-44 1.26e-43 -2.19e-43 -1.81e-43 -2.35e-43
-1.71e-43 2.2e-43 -2.12e-43 -2.35e-43 -2.33e-43 2.45e-43 1.14e-43 1.44e-43

bias f4 [16]
00000000: 5709 0080 6302 0080 7a04 0000 20fe 02b8
00000010: 47c2 9938 0606 0080 d902 0080 0407 0000
00000020: 8004 0080 0a02 0080 597d 4536 a003 0080
00000030: e903 0000 7b01 0000 5e00 0080 b501 0000
-3.35e-42 -8.56e-43 1.606e-42 -3.1231088e-05 7.3317955e-05 -2.161e-42 -1.022e-42 2.517e-42
-1.614e-42 -7.31e-43 2.942825e-06 -1.3e-42 1.403e-42 5.31e-43 -1.32e-43 6.12e-43

weight f4 [16]
00000000: a100 0000 a200 0080 8900 0080 9066 9f3d
00000010: 69ce a73d 4e00 0000 15b5 4f12 6800 0080
00000020: 9400 0000 1f00 0000 0dae da3b 6500 0000
00000030: 9200 0080 5800 0080 6e00 0000 3600 0080
2.26e-43 -2.27e-43 -1.92e-43 0.07783234 0.081936665 1.1e-43 6.5540884e-28 -1.46e-43
2.07e-43 4.3e-44 0.0066735805 1.42e-43 -2.05e-43 -1.23e-43 1.54e-43 -7.6e-44

bias f4 [16]
00000000: c904 0080 5903 0080 0100 0000 2f07 eabc
00000010: 9057 9dbc 731c 0080 b907 0080 e100 0080
00000020: 7a00 0000 091b 0000 a0d4 d2ba 690c 0000
00000030: 2707 0000 873e 0080 6900 0080 3512 0080
-1.717e-42 -1.201e-42 1e-45 -0.028567879 -0.019206792 -1.0206e-41 -2.77e-42 -3.15e-43
1.71e-43 9.698e-42 -0.0016085096 4.452e-42 2.566e-42 -2.243e-41 -1.47e-43 -6.531e-42

running_mean f4 [16]
00000000: fffa 0300 a202 0080 e701 0080 3e37 2bbd
00000010: 0ec6 8e3d e700 0000 9a00 0000 7802 0080
00000020: ca00 0000 5600 0000 6aed 8ebc e900 0080
00000030: 9a01 0000 5901 0080 ea01 0080 d403 0080
3.65547e-40 -9.44e-43 -6.82e-43 -0.04180073 0.0697137 3.24e-43 2.16e-43 -8.86e-43
2.83e-43 1.2e-43 -0.017447192 -3.27e-43 5.75e-43 -4.83e-43 -6.87e-43 -1.373e-42

running_var f4 [16]
00000000: 0400 0000 0400 0000 0400 0000 3546 363d
00000010: e6cd 053d 0400 0000 0400 0000 0400 0000
00000020: 0400 0000 0400 0000 72e2 d33a 0400 0000
00000030: 0400 0000 0400 0000 0400 0000 0400 0000
6e-45 6e-45 6e-45 0.04450055 0.032667063 6e-45 6e-45 6e-45
6e-45 6e-45 0.0016165508 6e-45 6e-45 6e-45 6e-45 6e-45

weight f4 [32, 16, 3, 3]
00000000: ce00 0080 6a00 0080 1f00 0080 2200 0080
00000010: 7e00 0000 f000 0000 7300 0000 ed00 0000
00000020: 3000 0080 5800 0080 4000 0000 7800 0080
00000030: 3b00 0000 8c00 0080 5700 0080 c000 0080
00000040: ae00 0000 8200 0000 9400 0080 ae00 0080
00000050: 3100 0000 d400 0000 5d00 0080 4900 0000
00000060: 9000 0000 3a00 0080 6d00 0000 6400 0080
00000070: 4c00 0080 af00 0000 8000 0080 8800 0080
00000080: 6e00 0080 5000 0000 5c00 0080 2f00 0080
00000090: 0800 0000 7d00 0080 b500 0000 6000 0000
000000a0: 7e00 0000 a400 0000 3b00 0000 a400 0000
000000b0: a400 0080 aa00 0000 4100 0080 7500 0080
000000c0: 3d00 0080 0100 0000 2d00 0000 a400 0000
000000d0: a500 0080 3300 0080 3800 0080 6500 0000
000000e0: b100 0080 1000 0080 5c00 0080 2c00 0080
000000f0: a300 0080 8500 0080 1200 0000 4000 0000
00000100: c300 0080 2a00 0000 4900 0080 0e00 0000
00000110: 3400 0080 6300 0080 6800 0080 a900 0080
00000120: b500 0000 a500 0000 5100 0080 a000 0080
00000130: 0900 0080 3400 0000 3200 0080 4c00 0000
00000140: 0c00 0000 a600 0080 4e00 0080 7400 0000
00000150: 5800 0080 7300 0080 8400 0000 9700 0000
00000160: 2b00 0080 2400 0000 4600 0000 1e00 0000
00000170: 9200 0080 9a00 0000 b400 0080 2100 0000
00000180: 6400 0080 9f00 0080 3e00 0080 d100 0000
00000190: ba00 0080 0300 0080 4000 0080 8a00 0080
000001a0: be00 0080 ce00 0000 b300 0080 b500 0080
000001b0: 6a00 0000 5d00 0000 9600 0000 4e00 0080
000001c0: 1900 0080 6300 0000 2e00 0080 b000 0080
000001d0: ca00 0000 9600 0080 ac00 0080 d400 0080
000001e0: f500 0000 7900 0080 4400 0000 e800 0000
000001f0: 1f00 0080 e900 0080 4d00 0080 0b00 0000
00000200: 2b00 0000 7a00 0080 5200 0000 ae00 0080
00000210: 5b00 0000 3600 0000 5300 0080 aa00 0000
00000220: 7600 0000 5900 0000 de00 0000 0e00 0080
00000230: e700 0080 3b00 0000 6e00 0000 6200 0000
00000240: eb00 0000 ba00 0080 b100 0080 d000 0080
00000250: 1700 0000 a700 0000 9a00 0000 a900 0000
00000260: c000 0080 0100 0080 7c00 0080 8900 0000
00000270: bd00 0080 0f00 0080 4c00 0000 ce00 0000
00000280: ff00 0080 9100 0080 b500 0000 5600 0080
00000290: 2100 0080 ad00 0000 0901 0000 6200 0080
000002a0: 7800 0080 e700 0080 9700 0000 7e00 0000
000002b0: c700 0080 ca00 0000 7600 0000 8f00 0080
000002c0: b800 0080 0200 0080 4700 0000 2f00 0000
000002d0: a200 0000 cd00 0000 ce00 0080 a900 0080
000002e0: 0000 0080 4e00 0000 2800 0000 6b00 0000
000002f0: 9500 0000 5800 0000 8300 0080 8f00 0080
00000300: bc00 0000 3900 0080 f100 0080 a200 0080
00000310: 9b00 0000 a500 0080 1300 0000 8400 0000
00000320: a600 0080 7500 0000 b000 0000 4a00 0080
00000330: b100 0000 1300 0080 a200 0080 9500 0080
00000340: 5700 0080 ab00 0000 ab00 0000 6400 0000
00000350: ad00 0000 b900 0000 a600 0000 2f00 0080
00000360: bc00 0000 8900 0000 3e00 0080 9f00 0080
00000370: 8300 0000 ca00 0080 a500 0000 b200 0000
00000380: bd00 0080 9c00 0000 8b00 0080 c100 0080
00000390: c400 0000 6d00 0000 1300 0000 7700 0000
000003a0: c800 0080 be00 0080 8a00 0080 5f00 0080
000003b0: 4800 0080 7300 0080 8300 0080 7900 0000
000003c0: 1b00 0000 ac00 0080 7500 0000 a100 0080
000003d0: ce00 0000 bb00 0000 b500 0080 3100 0080
000003e0: 0100 0000 4000 0080 d400 0000 a700 0080
000003f0: 3200 0080 3000 0080 7800 0000 ba00 0000
-2.89e-43 -1.49e-43 -4.3e-44 -4.8e-44 1.77e-43 3.36e-43 1.61e-43 3.32e-43
-6.7e-44 -1.23e-43 9e-44 -1.68e-43 8.3e-44 -1.96e-43 -1.22e-43 -2.69e-43
2.44e-43 1.82e-43 -2.07e-43 -2.44e-43 6.9e-44 2.97e-43 -1.3e-43 1.02e-43
2.02e-43 -8.1e-44 1.53e-43 -1.4e-43 -1.06e-43 2.45e-43 -1.8e-43 -1.9e-43
-1.54e-43 1.12e-43 -1.29e-43 -6.6e-44 1.1e-44 -1.75e-43 2.54e-43 1.35e-43
1.77e-43 2.3e-43 8.3e-44 2.3e-43 -2.3e-43 2.38e-43 -9.1e-44 -1.64e-43
-8.5e-44 1e-45 6.3e-44 2.3e-43 -2.31e-43 -7.1e-44 -7.8e-44 1.42e-43
-2.48e-43 -2.2e-44 -1.29e-43 -6.2e-44 -2.28e-43 -1.86e-43 2.5e-44 9e-44
-2.73e-43 5.9e-44 -1.02e-43 2e-44 -7.3e-44 -1.39e-43 -1.46e-43 -2.37e-43
2.54e-43 2.31e-43 -1.14e-43 -2.24e-43 -1.3e-44 7.3e-44 -7e-44 1.06e-43
1.7e-44 -2.33e-43 -1.1e-43 1.63e-43 -1.23e-43 -1.61e-43 1.85e-43 2.12e-43
-6e-44 5e-44 9.8e-44 4.2e-44 -2.05e-43 2.16e-43 -2.52e-43 4.6e-44
-1.4e-43 -2.23e-43 -8.7e-44 2.93e-43 -2.6e-43 -4e-45 -9e-44 -1.93e-43
-2.66e-43 2.89e-43 -2.51e-43 -2.54e-43 1.49e-43 1.3e-43 2.1e-43 -1.1e-43
-3.5e-44 1.39e-43 -6.4e-44 -2.47e-43 2.83e-43 -2.1e-43 -2.41e-43 -2.97e-43
3.43e-43 -1.7e-43 9.5e-44 3.25e-43 -4.3e-44 -3.27e-43 -1.08e-43 1.5e-44
6e-44 -1.71e-43 1.15e-43 -2.44e-43 1.28e-43 7.6e-44 -1.16e-43 2.38e-43
1.65e-43 1.25e-43 3.11e-43 -2e-44 -3.24e-43 8.3e-44 1.54e-43 1.37e-43
3.3e-43 -2.6e-43 -2.48e-43 -2.91e-43 3.2e-44 2.34e-43 2.16e-43 2.37e-43
-2.69e-43 -1e-45 -1.74e-43 1.92e-43 -2.65e-43 -2.1e-44 1.06e-43 2.89e-43
-3.57e-43 -2.03e-43 2.54e-43 -1.2e-43 -4.6e-44 2.42e-43 3.71e-43 -1.37e-43
-1.68e-43 -3.24e-43 2.12e-43 1.77e-43 -2.79e-43 2.83e-43 1.65e-43 -2e-43
-2.58e-43 -3e-45 1e-43 6.6e-44 2.27e-43 2.87e-43 -2.89e-43 -2.37e-43
-0.0 1.1e-43 5.6e-44 1.5e-43 2.09e-43 1.23e-43 -1.84e-43 -2e-43
2.63e-43 -8e-44 -3.38e-43 -2.27e-43 2.17e-43 -2.31e-43 2.7e-44 1.85e-43
-2.33e-43 1.64e-43 2.47e-43 -1.04e-43 2.48e-43 -2.7e-44 -2.27e-43 -2.09e-43
-1.22e-43 2.4e-43 2.4e-43 1.4e-43 2.42e-43 2.59e-43 2.33e-43 -6.6e-44
2.63e-43 1.92e-43 -8.7e-44 -2.23e-43 1.84e-43 -2.83e-43 2.31e-43 2.5e-43
-2.65e-43 2.19e-43 -1.95e-43 -2.7e-43 2.75e-43 1.53e-43 2.7e-44 1.67e-43
-2.8e-43 -2.66e-43 -1.93e-43 -1.33e-43 -1.01e-43 -1.61e-43 -1.84e-43 1.7e-43
3.8e-44 -2.41e-43 1.64e-43 -2.26e-43 2.89e-43 2.62e-43 -2.54e-43 -6.9e-44
1e-45 -9e-44 2.97e-43 -2.34e-43 -7e-44 -6.7e-44 1.68e-43 2.6e-43

bias f4 [32]
00000000: e204 0000 dd06 0080 0306 0000 aa06 0000
00000010: fd06 0080 2905 0080 9301 0080 a503 0000
00000020: a805 0000 a503 0000 6522 a838 8a03 0000
00000030: 9102 0080 3a04 0080 3b01 0000 5704 0080
00000040: d303 0000 0a06 0000 e575 e138 420a 0000
00000050: 6d04 0080 ea03 0080 7306 0080 e102 0080
00000060: 3d0a 0000 a502 0080 1c0a 0080 f501 0080
00000070: 62d0 4306 0505 0000 2106 0000 c505 0080
1.752e-42 -2.462e-42 2.157e-42 2.39e-42 -2.507e-42 -1.851e-42 -5.65e-43 1.307e-42
2.029e-42 1.307e-42 8.017271e-05 1.27e-42 -9.2e-43 -1.516e-42 4.41e-43 -1.557e-42
1.372e-42 2.166e-42 0.000107507956 3.68e-42 -1.588e-42 -1.404e-42 -2.314e-42 -1.033e-42
3.673e-42 -9.49e-43 -3.627e-42 -7.02e-43 3.682852e-35 1.8e-42 2.199e-42 -2.07e-42

weight f4 [32]
00000000: 5c00 0000 3200 0080 b200 0000 da00 0000
00000010: af00 0080 c400 0080 3b00 0000 5f00 0000
00000020: a500 0080 eabe 3909 aaf5 683c 5e00 0000
00000030: 2400 0000 2b00 0000 0400 0080 9200 0000
00000040: b500 0080 7100 0080 6214 8d3d b400 0080
00000050: 8c00 0080 6000 0080 c0d9 9a09 a000 0000
00000060: 5200 0080 5b00 0000 4500 0080 4600 0000
00000070: 9ca4 292e bb00 0080 5200 0080 c500 0000
1.29e-43 -7e-44 2.5e-43 3.05e-43 -2.45e-43 -2.75e-43 8.3e-44 1.33e-43
-2.31e-43 2.2358332e-33 0.014218727 1.32e-43 5e-44 6e-44 -6e-45 2.05e-43
-2.54e-43 -1.58e-43 0.06888653 -2.52e-43 -1.96e-43 -1.35e-43 3.7278923e-33 2.24e-43
-1.15e-43 1.28e-43 -9.7e-44 9.8e-44 3.8572354e-11 -2.62e-43 -1.15e-43 2.76e-43

bias f4 [32]
00000000: 9305 0080 be01 0080 3b02 0000 c520 0000
00000010: 3b10 0000 1927 0080 335c 0080 ea02 0080
00000020: 560f 0080 f7f0 80a8 c9ad 74bb 4908 0000
00000030: cf06 0080 8145 0000 b550 0000 f813 0080
00000040: ba21 0080 fd00 0080 fc36 9abc 0a22 0000
00000050: b642 0000 de24 0000 e0d4 ce9a 5c07 0000
00000060: 441c 0000 c206 0080 6100 0000 631a 0000
00000070: d29b 6da1 130c 0080 0a02 0000 7a16 0000
-2e-42 -6.25e-43 8e-43 1.1755e-41 5.822e-42 -1.4026e-41 -3.3075e-41 -1.045e-42
-5.501e-42 -1.4315357e-14 -0.003733503 2.972e-42 -2.442e-42 2.4933e-41 2.8952e-41 -7.163e-42
-1.2099e-41 -3.55e-43 -0.018825047 1.2211e-41 2.3931e-41 1.3225e-41 -8.554352e-23 2.64e-42
1.014e-41 -2.424e-42 1.36e-43 9.466e-42 -8.050495e-19 -4.331e-42 7.31e-43 8.063e-42

running_mean f4 [32]
00000000: 5700 0080 5a00 0000 0b00 0080 ae00 0080
00000010: 2700 0000 9400 0000 0e00 0000 1f00 0080
00000020: 2300 0000 f87e 9796 cb99 8d3a 5b00 0080
00000030: 2400 0080 0a00 0000 7600 0080 0300 0080
00000040: 2f00 0000 0400 0080 a605 253b a700 0080
00000050: 0000 0080 2b00 0080 bc68 bb9a 5400 0080
00000060: 6300 0080 5a00 0000 8100 0000 4200 0080
00000070: 166e d625 8900 0080 a900 0080 3100 0000
-1.22e-43 1.26e-43 -1.5e-44 -2.44e-43 5.5e-44 2.07e-43 2e-44 -4.3e-44
4.9e-44 -2.4475494e-25 0.001080328 -1.28e-43 -5e-44 1.4e-44 -1.65e-43 -4e-45
6.6e-44 -6e-45 0.0025180369 -2.34e-43 -0.0 -6e-44 -7.7510595e-23 -1.18e-43
-1.39e-43 1.26e-43 1.81e-43 -9.2e-44 3.719768e-16 -1.92e-43 -2.37e-43 6.9e-44

running_var f4 [32]
00000000: 0400 0000 0400 0000 0400 0000 0400 0000
00000010: 0400 0000 0400 0000 0400 0000 0400 0000
00000020: 0400 0000 0400 0000 a15c 1136 0400 0000
00000030: 0400 0000 0400 0000 0400 0000 0400 0000
00000040: 0400 0000 0400 0000 1186 2738 0400 0000
00000050: 0400 0000 0400 0000 0e00 0000 0400 0000
00000060: 0400 0000 0400 0000 0400 0000 0400 0000
00000070: 55ca 140d 0400 0000 0400 0000 0400 0000
6e-45 6e-45 6e-45 6e-45 6e-45 6e-45 6e-45 6e-45
6e-45 6e-45 2.16606e-06 6e-45 6e-45 6e-45 6e-45 6e-45
6e-45 6e-45 3.994076e-05 6e-45 6e-45 6e-45 2e-44 6e-45
6e-45 6e-45 6e-45 6e-45 4.584957e-31 6e-45 6e-45 6e-45

weight f4 [48, 32, 3, 3]
00000000: 6c00 0000 ce00 0080 de00 0080 5a00 0000
00000010: 6800 0080 ac00 0080 4300 0080 c200 0000
00000020: 5100 0080 9200 0080 ba00 0000 1a00 0080
00000030: 7600 0000 5f00 0000 ce00 0080 0500 0080
00000040: 1b00 0000 d400 0000 e400 0000 4d00 0000
00000050: 5400 0000 7d00 0000 e100 0080 db00 0000
00000060: 7600 0000 1900 0080 eb00 0000 b100 0000
00000070: 2300 0000 2a01 0000 8c00 0080 a900 0080
00000080: 0801 0000 d400 0000 ff00 0080 0f00 0080
00000090: b500 0000 b000 0080 8200 0000 2400 0080
000000a0: cc00 0000 d600 0000 9500 0000 9d00 0080
000000b0: 6300 0080 9000 0000 7a00 0080 9900 0000
000000c0: 9e00 0000 2900 0000 b400 0080 d000 0080
000000d0: f800 0080 3c00 0080 d000 0080 8300 0080
000000e0: b700 0080 d200 0000 1500 0080 8400 0080
000000f0: 9f00 0000 8800 0080 c500 0080 2d00 0080
00000100: 9e00 0080 2f00 0000 3200 0080 7b00 0000
00000110: d200 0080 5900 0000 9c00 0000 d900 0000
00000120: 9600 0080 6900 0080 af00 0080 3900 0000
00000130: a000 0000 aa00 0000 2900 0000 ca00 0080
00000140: a600 0000 a000 0080 0400 0080 a500 0000
00000150: 9800 0080 ce00 0080 a200 0080 0300 0080
00000160: b300 0000 7c00 0080 b300 0080 8700 0080
00000170: 6d00 0000 8600 0080 6000 0080 b400 0000
00000180: be00 0080 c700 0000 8800 0000 0100 0000
00000190: 4200 0080 a100 0000 4400 0000 1800 0000
000001a0: 3c00 0080 3b00 0000 4800 0080 4400 0080
000001b0: c100 0000 6600 0000 9f00 0000 ad00 0080
000001c0: 8300 0000 5500 0080 6f00 0080 1a00 0080
000001d0: d600 0080 7500 0000 0600 0000 ba00 0080
000001e0: 5900 0000 9400 0080 c800 0000 4a00 0000
000001f0: de00 0000 6600 0000 a100 0000 fb00 0080
00000200: 6700 0080 3600 0000 9c00 0000 b600 0000
00000210: ff00 0000 4600 0000 b600 0000 db00 0000
00000220: ad00 0080 a900 0080 2700 0000 b200 0000
00000230: 6100 0080 b000 0000 0d00 0000 8500 0000
00000240: ad00 0000 da00 0080 df00 0000 6a00 0000
00000250: 5600 0000 d300 0080 7d00 0000 bc00 0080
00000260: a900 0080 3500 0000 8100 0080 ca00 0000
00000270: 5b00 0000 a800 0000 9b00 0080 0200 0080
00000280: 4600 0000 2000 0080 c200 0000 9600 0080
00000290: 4300 0000 a600 0000 ab00 0000 cb00 0000
000002a0: 7d00 0000 3a00 0000 da00 0080 a200 0000
000002b0: a700 0000 be00 0080 6c00 0080 c900 0000
000002c0: 1601 0080 b000 0000 9c00 0080 7700 0080
000002d0: 9c00 0080 bf00 0000 a900 0000 0a00 0080
000002e0: 2e00 0000 b600 0000 3900 0080 3300 0000
000002f0: 9900 0080 9400 0000 7700 0000 1400 0000
00000300: 9e00 0000 3200 0080 1300 0080 8700 0000
00000310: 6900 0080 c500 0080 bf00 0000 7a00 0080
00000320: 0200 0000 b200 0000 bd00 0080 6000 0000
00000330: 4100 0080 8400 0000 7e00 0080 c000 0080
00000340: 0400 0080 ca00 0000 5600 0000 6e00 0000
00000350: 2500 0080 1200 0080 bb00 0000 2600 0000
00000360: 6000 0080 d600 0000 7000 0000 a800 0080
00000370: eb00 0080 7700 0000 8a00 0080 0200 0080
00000380: e000 0080 1300 0080 4c00 0000 8500 0000
00000390: 2b00 0080 2c00 0080 ac00 0080 7c00 0000
000003a0: 2000 0080 0500 0080 7300 0080 a200 0080
000003b0: 9100 0000 a200 0080 0000 0080 1a00 0000
000003c0: bb00 0000 e000 0000 2600 0080 4200 0080
000003d0: 2d00 0000 bb00 0080 9400 0000 2900 0000
000003e0: 8d00 0000 f300 0000 7100 0000 7100 0000
000003f0: 6800 0000 2c00 0080 a500 0080 2100 0080
1.51e-43 -2.89e-43 -3.11e-43 1.26e-43 -1.46e-43 -2.41e-43 -9.4e-44 2.72e-43
-1.14e-43 -2.05e-43 2.6e-43 -3.6e-44 1.65e-43 1.33e-43 -2.89e-43 -7e-45
3.8e-44 2.97e-43 3.2e-43 1.08e-43 1.18e-43 1.75e-43 -3.15e-43 3.07e-43
1.65e-43 -3.5e-44 3.3e-43 2.48e-43 4.9e-44 4.18e-43 -1.96e-43 -2.37e-43
3.7e-43 2.97e-43 -3.57e-43 -2.1e-44 2.54e-43 -2.47e-43 1.82e-43 -5e-44
2.86e-43 3e-43 2.09e-43 -2.2e-43 -1.39e-43 2.02e-43 -1.71e-43 2.14e-43
2.21e-43 5.7e-44 -2.52e-43 -2.91e-43 -3.48e-43 -8.4e-44 -2.91e-43 -1.84e-43
-2.56e-43 2.94e-43 -3e-44 -1.85e-43 2.23e-43 -1.9e-43 -2.76e-43 -6.3e-44
-2.21e-43 6.6e-44 -7e-44 1.72e-43 -2.94e-43 1.25e-43 2.19e-43 3.04e-43
-2.1e-43 -1.47e-43 -2.45e-43 8e-44 2.24e-43 2.38e-43 5.7e-44 -2.83e-43
2.33e-43 -2.24e-43 -6e-45 2.31e-43 -2.13e-43 -2.89e-43 -2.27e-43 -4e-45
2.51e-43 -1.74e-43 -2.51e-43 -1.89e-43 1.53e-43 -1.88e-43 -1.35e-43 2.52e-43
-2.66e-43 2.79e-43 1.9e-43 1e-45 -9.2e-44 2.26e-43 9.5e-44 3.4e-44
-8.4e-44 8.3e-44 -1.01e-43 -9.5e-44 2.7e-43 1.43e-43 2.23e-43 -2.42e-43
1.84e-43 -1.19e-43 -1.56e-43 -3.6e-44 -3e-43 1.64e-43 8e-45 -2.6e-43
1.25e-43 -2.07e-43 2.8e-43 1.04e-43 3.11e-43 1.43e-43 2.26e-43 -3.52e-43
-1.44e-43 7.6e-44 2.19e-43 2.55e-43 3.57e-43 9.8e-44 2.55e-43 3.07e-43
-2.42e-43 -2.37e-43 5.5e-44 2.5e-43 -1.36e-43 2.47e-43 1.8e-44 1.86e-43
2.42e-43 -3.05e-43 3.12e-43 1.49e-43 1.2e-43 -2.96e-43 1.75e-43 -2.63e-43
-2.37e-43 7.4e-44 -1.81e-43 2.83e-43 1.28e-43 2.35e-43 -2.17e-43 -3e-45
9.8e-44 -4.5e-44 2.72e-43 -2.1e-43 9.4e-44 2.33e-43 2.4e-43 2.84e-43
1.75e-43 8.1e-44 -3.05e-43 2.27e-43 2.34e-43 -2.66e-43 -1.51e-43 2.82e-43
-3.9e-43 2.47e-43 -2.19e-43 -1.67e-43 -2.19e-43 2.68e-43 2.37e-43 -1.4e-44
6.4e-44 2.55e-43 -8e-44 7.1e-44 -2.14e-43 2.07e-43 1.67e-43 2.8e-44
2.21e-43 -7e-44 -2.7e-44 1.89e-43 -1.47e-43 -2.76e-43 2.68e-43 -1.71e-43
3e-45 2.5e-43 -2.65e-43 1.35e-43 -9.1e-44 1.85e-43 -1.77e-43 -2.69e-43
-6e-45 2.83e-43 1.2e-43 1.54e-43 -5.2e-44 -2.5e-44 2.62e-43 5.3e-44
-1.35e-43 3e-43 1.57e-43 -2.35e-43 -3.3e-43 1.67e-43 -1.93e-43 -3e-45
-3.14e-43 -2.7e-44 1.06e-43 1.86e-43 -6e-44 -6.2e-44 -2.41e-43 1.74e-43
-4.5e-44 -7e-45 -1.61e-43 -2.27e-43 2.03e-43 -2.27e-43 -0.0 3.6e-44
2.62e-43 3.14e-43 -5.3e-44 -9.2e-44 6.3e-44 -2.62e-43 2.07e-43 5.7e-44
1.98e-43 3.4e-43 1.58e-43 1.58e-43 1.46e-43 -6.2e-44 -2.31e-43 -4.6e-44

bias f4 [48]
00000000: 8202 0080 fd00 0000 6f02 0000 5505 0000
00000010: b206 0080 4d05 0080 5507 0000 a203 0080
00000020: a602 0080 9105 0000 7f05 0080 2a00 0000
00000030: 0a01 0000 4e03 0080 7b3c 5ab7 d304 0080
00000040: cf0a 0080 af02 0080 4805 0080 3900 0080
00000050: f606 0080 ed05 0080 1605 0080 0103 0080
00000060: 6e03 0000 b500 0080 8104 0080 2f04 0080
00000070: 83f7 3739 2704 0000 7603 0080 d908 0000
00000080: 5804 0080 f904 0080 1301 0000 be04 0000
00000090: bc03 0080 5303 0080 be01 0080 2b03 0000
000000a0: fd05 0000 fc0a 0000 8306 0080 3001 0000
000000b0: 2801 0080 2503 0080 9503 0080 a902 0000
-9e-43 3.55e-43 8.73e-43 1.913e-42 -2.402e-42 -1.902e-42 2.63e-42 -1.303e-42
-9.5e-43 1.997e-42 -1.972e-42 5.9e-44 3.73e-43 -1.185e-42 -1.3007894e-05 -1.73e-42
-3.877e-42 -9.63e-43 -1.895e-42 -8e-44 -2.497e-42 -2.126e-42 -1.824e-42 -1.078e-42
1.23e-42 -2.54e-43 -1.616e-42 -1.501e-42 0.00017544445 1.49e-42 -1.242e-42 3.174e-42
-1.558e-42 -1.784e-42 3.85e-43 1.701e-42 -1.34e-42 -1.193e-42 -6.25e-43 1.136e-42
2.148e-42 3.94e-42 -2.336e-42 4.26e-43 -4.15e-43 -1.128e-42 -1.285e-42 9.54e-43

weight f4 [48]
00000000: c200 0080 6b00 0080 9200 0000 0c00 0000
00000010: 8500 0000 d900 0000 3c00 0000 4500 0000
00000020: 1500 0080 9700 0080 ee1c bc2a e5e6 a416
00000030: 2f00 0000 7100 0000 42ca 073d c600 0080
00000040: 5900 0080 4e00 0080 b100 0080 5500 0000
00000050: bb00 0000 1c00 0080 0800 0000 aa00 0080
00000060: af00 0080 c500 0080 4200 0000 7c00 0000
00000070: 85bc 9c3d 8800 0080 1700 0000 0c00 0000
00000080: 0e00 0080 ed69 f72f 0800 0000 7700 0080
00000090: a900 0000 8e00 0000 f800 0080 5a00 0080
000000a0: c500 0000 388e d524 a000 0080 8d00 0000
000000b0: a900 0000 0f00 0000 1e00 0000 0800 0080
-2.72e-43 -1.5e-43 2.05e-43 1.7e-44 1.86e-43 3.04e-43 8.4e-44 9.7e-44
-3e-44 -2.12e-43 3.3415583e-13 2.6641344e-25 6.6e-44 1.58e-43 0.033151872 -2.77e-43
-1.25e-43 -1.1e-43 -2.48e-43 1.19e-43 2.62e-43 -3.9e-44 1.1e-44 -2.38e-43
-2.45e-43 -2.76e-43 9.2e-44 1.74e-43 0.07653145 -1.9e-43 3.2e-44 1.7e-44
-2e-44 4.5004303e-10 1.1e-44 -1.67e-43 2.37e-43 1.99e-43 -3.48e-43 -1.26e-43
2.76e-43 9.261495e-17 -2.24e-43 1.98e-43 2.37e-43 2.1e-44 4.2e-44 -1.1e-44

bias f4 [48]
00000000: ce1b 0080 c063 0000 d800 0080 7b45 0080
00000010: b121 0080 d041 0080 080d 0080 3b3a 0080
00000020: 300d 0080 671a 0080 b067 a09b 2a81 59a3
00000030: 6513 0080 0b00 0000 63ad c9bc ae50 0000
00000040: 7901 0080 8908 0080 e26d 0080 585a 0000
00000050: 1f08 0080 6646 0000 7952 0000 3500 0000
00000060: 621d 0080 6d4f 0080 ba18 0080 ce3c 0080
00000070: b003 2bbd b20f 0080 a242 0080 d639 0080
00000080: a23c 0000 3d80 06b5 1f12 0080 d45e 0000
00000090: c30c 0080 8f01 0080 e32c 0080 2b18 0000
000000a0: 8f2f 0080 3a24 23a9 5d50 0000 b835 0000
000000b0: b201 0000 6001 0080 d4c8 0180 1880 0000
-9.974e-42 3.5784e-41 -3.03e-43 -2.4925e-41 -1.2086e-41 -2.3609e-41 -4.675e-42 -2.0889e-41
-4.731e-42 -9.471e-42 -2.6536786e-22 -1.1790945e-17 -6.957e-42 1.5e-44 -0.02461881 2.8942e-41
-5.28e-43 -3.062e-42 -3.9419e-41 3.2409e-41 -2.913e-42 2.5254e-41 2.9586e-41 7.4e-44
-1.054e-41 -2.8493e-41 -8.87e-42 -2.1813e-41 -0.041751564 -5.63e-42 -2.3903e-41 -2.0748e-41
2.1751e-41 -5.01055e-07 -6.5e-42 3.4018e-41 -4.578e-42 -5.59e-43 -1.6102e-41 8.67e-42
-1.7061e-41 -3.6224692e-14 2.8829e-41 1.927e-41 6.08e-43 -4.93e-43 -1.63879e-40 4.5951e-41

running_mean f4 [48]
00000000: 5200 0000 0f00 0000 5000 0000 2e00 0080
00000010: ae00 0000 6600 0000 8600 0080 8600 0000
00000020: c800 0000 1500 0000 60f2 b901 1b31 6d13
00000030: 6400 0000 3700 0000 2c0e a63a 3b00 0000
00000040: 4c00 0000 2700 0000 3e00 0000 1800 0080
00000050: 6600 0000 c800 0000 b800 0000 b800 0080
00000060: 3900 0080 5000 0000 4600 0000 7800 0000
00000070: dfea 303a 1e00 0000 7c00 0000 b800 0080
00000080: 8c00 0000 179c c82f 0a00 0080 a500 0080
00000090: 3600 0000 3100 0000 7c00 0000 0100 0080
000000a0: 6300 0080 bde9 d51d 7800 0000 0800 0000
000000b0: 4400 0080 8200 0000 5e00 0000 7400 0000
1.15e-43 2.1e-44 1.12e-43 -6.4e-44 2.44e-43 1.43e-43 -1.88e-43 1.88e-43
2.8e-43 3e-44 6.830606e-38 2.9937816e-27 1.4e-43 7.7e-44 0.0012669018 8.3e-44
1.06e-43 5.5e-44 8.7e-44 -3.4e-44 1.43e-43 2.8e-43 2.58e-43 -2.58e-43
-8e-44 1.12e-43 9.8e-44 1.68e-43 0.00067488657 4.2e-44 1.74e-43 -2.58e-43
1.96e-43 3.6490697e-10 -1.4e-44 -2.31e-43 7.6e-44 6.9e-44 1.74e-43 -1e-45
-1.39e-43 5.662231e-21 1.68e-43 1.1e-44 -9.5e-44 1.82e-43 1.32e-43 1.63e-43

running_var f4 [48]
00000000: 0400 0000 0400 0000 0400 0000 0400 0000
00000010: 0400 0000 0400 0000 0400 0000 0400 0000
00000020: 0400 0000 0400 0000 0400 0000 0400 0000
00000030: 0400 0000 0400 0000 56b0 8037 0400 0000
00000040: 0400 0000 0400 0000 0400 0000 0400 0000
00000050: 0400 0000 0400 0000 0400 0000 0400 0000
00000060: 0400 0000 0400 0000 0400 0000 0400 0000
00000070: a587 ad38 0400 0000 0400 0000 0400 0000
00000080: 0400 0000 5f78 0f22 0400 0000 0400 0000
00000090: 0400 0000 0400 0000 0400 0000 0400 0000
000000a0: 0400 0000 a629 0500 0400 0000 0400 0000
000000b0: 0400 0000 0400 0000 0400 0000 0400 0000
6e-45 6e-45 6e-45 6e-45 6e-45 6e-45 6e-45 6e-45
6e-45 6e-45 6e-45 6e-45 6e-45 6e-45 1.5340902e-05 6e-45
6e-45 6e-45 6e-45 6e-45 6e-45 6e-45 6e-45 6e-45
6e-45 6e-45 6e-45 6e-45 8.2745486e-05 6e-45 6e-45 6e-45
6e-45 1.9443838e-18 6e-45 6e-45 6e-45 6e-45 6e-45 6e-45
6e-45 4.74118e-40 6e-45 6e-45 6e-45 6e-45 6e-45 6e-45

weight f4 [64, 48, 3, 3]
00000000: 0c01 0080 bc00 0000 8500 0000 f700 0080
00000010: fa00 0000 3400 0000 0200 0000 5a00 0000
00000020: 5100 0080 0900 0000 ca00 0080 9b00 0000
00000030: 1001 0080 b000 0000 2500 0080 c900 0080
00000040: 4f00 0000 d700 0000 e600 0080 ce00 0080
00000050: 6100 0080 b900 0080 2e00 0000 4a00 0080
00000060: af00 0080 4000 0080 3800 0080 9a00 0000
00000070: 9900 0080 5300 0000 5000 0080 0200 0080
00000080: 8400 0000 4e00 0080 cd00 0000 4100 0000
00000090: 4b00 0080 4600 0080 2300 0080 ef00 0000
000000a0: de00 0080 1d00 0000 bd00 0000 c600 0000
000000b0: 0a00 0080 7600 0080 5300 0080 8200 0080
000000c0: 6700 0080 fa00 0080 3200 0000 1000 0080
000000d0: 1b00 0080 2f00 0080 4400 0080 1d00 0000
000000e0: aa00 0000 1001 0000 3a01 0080 5700 0080
000000f0: 0201 0000 c300 0000 2d00 0000 7d00 0000
00000100: 1001 0080 a000 0000 bb00 0080 d800 0080
00000110: 6700 0000 1501 0080 1000 0080 2100 0000
00000120: e200 0000 9900 0080 2c00 0080 6e00 0000
00000130: 4200 0080 2200 0080 ab00 0000 0500 0080
00000140: aa00 0000 5500 0000 7000 0000 3500 0080
00000150: c300 0080 2700 0080 7c00 0080 db00 0080
00000160: ae00 0080 6700 0000 b000 0080 9800 0000
00000170: 6700 0080 1900 0000 7c00 0080 1e00 0000
00000180: 6f00 0080 1800 0000 9f00 0080 b300 0080
00000190: 5a00 0000 8900 0080 0900 0000 ab00 0000
000001a0: 9e00 0080 9e00 0000 5b00 0000 8d00 0080
000001b0: 9c00 0080 f000 0080 7d00 0080 2101 0000
000001c0: 0f00 0080 6e00 0080 3c00 0080 9f00 0000
000001d0: 3c00 0000 5c00 0080 c100 0000 c300 0080
000001e0: ce00 0000 a500 0080 9c00 0000 3700 0000
000001f0: c100 0000 8500 0080 4a71 0980 1b3b e884
00000200: 8900 0080 8b00 0000 0900 0080 7700 0000
00000210: 19dc 2580 06e9 1289 bf00 0080 ab00 0000
00000220: 8000 0000 e700 0000 2500 0000 6800 0080
00000230: f900 0080 4b00 0080 cd00 0080 eb00 0080
00000240: e000 0000 0000 0000 3800 0080 ea00 0000
00000250: 1000 0000 6800 0000 b900 0080 b100 0080
00000260: f300 0080 ca00 0080 4b00 0000 8b00 0000
00000270: d500 0080 bb00 0080 7e00 0080 0200 0080
00000280: 0800 0080 8a00 0000 af00 0000 4200 0080
00000290: 1200 0080 cd00 0000 a300 0080 e300 0000
000002a0: 1b00 0080 e000 0000 5c00 0080 cd00 0000
000002b0: 1800 0080 aa00 0080 1400 0000 6200 0080
000002c0: 1c00 0000 ca00 0080 3900 0000 af00 0000
000002d0: b700 0000 8c00 0080 9500 0080 6900 0000
000002e0: dd00 0080 1a00 0000 5800 0080 f700 0000
000002f0: c800 0000 9b00 0080 ea00 0000 db00 0000
00000300: 3200 0000 a000 0000 e900 0000 3100 0080
00000310: 3100 0000 9500 0080 a600 0080 1500 0080
00000320: f900 0080 8c00 0000 ba00 0000 2900 0000
00000330: 4100 0000 8100 0080 4b00 0080 2500 0000
00000340: 6600 0080 a200 0080 e500 0080 d000 0080
00000350: 7700 0000 7e00 0000 2500 0000 9700 0000
00000360: 1400 0000 0200 0080 e200 0080 ae00 0080
00000370: 3c01 0000 5d00 0080 f300 0080 0801 0080
00000380: f900 0000 8900 0080 2a00 0080 b600 0080
00000390: e500 0000 9000 0080 1c00 0080 4d00 0080
000003a0: 3800 0080 0b01 0080 8500 0080 0801 0080
000003b0: 3d00 0080 2300 0080 3900 0000 b400 0000
000003c0: dc00 0000 6900 0080 3e00 0080 6f00 0000
000003d0: a900 0000 0201 0080 a700 0000 c600 0000
000003e0: c900 0000 c200 0000 0f00 0000 a900 0000
000003f0: ccc8 4721 3e2f 8322 a576 bd0f f12f 521e
-3.76e-43 2.63e-43 1.86e-43 -3.46e-43 3.5e-43 7.3e-44 3e-45 1.26e-43
-1.14e-43 1.3e-44 -2.83e-43 2.17e-43 -3.81e-43 2.47e-43 -5.2e-44 -2.82e-43
1.11e-43 3.01e-43 -3.22e-43 -2.89e-43 -1.36e-43 -2.59e-43 6.4e-44 -1.04e-43
-2.45e-43 -9e-44 -7.8e-44 2.16e-43 -2.14e-43 1.16e-43 -1.12e-43 -3e-45
1.85e-43 -1.1e-43 2.87e-43 9.1e-44 -1.05e-43 -9.8e-44 -4.9e-44 3.35e-43
-3.11e-43 4e-44 2.65e-43 2.77e-43 -1.4e-44 -1.65e-43 -1.16e-43 -1.82e-43
-1.44e-43 -3.5e-43 7e-44 -2.2e-44 -3.8e-44 -6.6e-44 -9.5e-44 4e-44
2.38e-43 3.81e-43 -4.4e-43 -1.22e-43 3.62e-43 2.73e-43 6.3e-44 1.75e-43
-3.81e-43 2.24e-43 -2.62e-43 -3.03e-43 1.44e-43 -3.88e-43 -2.2e-44 4.6e-44
3.17e-43 -2.14e-43 -6.2e-44 1.54e-43 -9.2e-44 -4.8e-44 2.4e-43 -7e-45
2.38e-43 1.19e-43 1.57e-43 -7.4e-44 -2.73e-43 -5.5e-44 -1.74e-43 -3.07e-43
-2.44e-43 1.44e-43 -2.47e-43 2.13e-43 -1.44e-43 3.5e-44 -1.74e-43 4.2e-44
-1.56e-43 3.4e-44 -2.23e-43 -2.51e-43 1.26e-43 -1.92e-43 1.3e-44 2.4e-43
-2.21e-43 2.21e-43 1.28e-43 -1.98e-43 -2.19e-43 -3.36e-43 -1.75e-43 4.05e-43
-2.1e-44 -1.54e-43 -8.4e-44 2.23e-43 8.4e-44 -1.29e-43 2.7e-43 -2.73e-43
2.89e-43 -2.31e-43 2.19e-43 7.7e-44 2.7e-43 -1.86e-43 -8.6716e-40 -5.4597218e-36
-1.92e-43 1.95e-43 -1.3e-44 1.67e-43 -3.47687e-39 -1.7683678e-33 -2.68e-43 2.4e-43
1.8e-43 3.24e-43 5.2e-44 -1.46e-43 -3.49e-43 -1.05e-43 -2.87e-43 -3.3e-43
3.14e-43 0.0 -7.8e-44 3.28e-43 2.2e-44 1.46e-43 -2.59e-43 -2.48e-43
-3.4e-43 -2.83e-43 1.05e-43 1.95e-43 -2.98e-43 -2.62e-43 -1.77e-43 -3e-45
-1.1e-44 1.93e-43 2.45e-43 -9.2e-44 -2.5e-44 2.87e-43 -2.28e-43 3.18e-43
-3.8e-44 3.14e-43 -1.29e-43 2.87e-43 -3.4e-44 -2.38e-43 2.8e-44 -1.37e-43
3.9e-44 -2.83e-43 8e-44 2.45e-43 2.56e-43 -1.96e-43 -2.09e-43 1.47e-43
-3.1e-43 3.6e-44 -1.23e-43 3.46e-43 2.8e-43 -2.17e-43 3.28e-43 3.07e-43
7e-44 2.24e-43 3.27e-43 -6.9e-44 6.9e-44 -2.09e-43 -2.33e-43 -3e-44
-3.49e-43 1.96e-43 2.6e-43 5.7e-44 9.1e-44 -1.81e-43 -1.05e-43 5.2e-44
-1.43e-43 -2.27e-43 -3.21e-43 -2.91e-43 1.67e-43 1.77e-43 5.2e-44 2.12e-43
2.8e-44 -3e-45 -3.17e-43 -2.44e-43 4.43e-43 -1.3e-43 -3.4e-43 -3.7e-43
3.49e-43 -1.92e-43 -5.9e-44 -2.55e-43 3.21e-43 -2.02e-43 -3.9e-44 -1.08e-43
-7.8e-44 -3.74e-43 -1.86e-43 -3.7e-43 -8.5e-44 -4.9e-44 8e-44 2.52e-43
3.08e-43 -1.47e-43 -8.7e-44 1.56e-43 2.37e-43 -3.62e-43 2.34e-43 2.77e-43
2.82e-43 2.72e-43 2.1e-44 2.37e-43 6.7689575e-19 3.555764e-18 1.8682539e-29 1.11272215e-20

bias f4 [64]
00000000: 1706 0000 cb00 0080 4b05 0080 4a04 0080
00000010: dd07 0000 d20b 0180 0806 0000 9409 0080
00000020: 2701 0000 7516 efb7 5e09 0000 b605 0080
00000030: 2a05 0080 0300 0000 9506 0080 a005 0000
00000040: 0907 0000 6b03 0080 c605 0000 c703 0080
00000050: c705 0000 0006 0080 3300 0080 c403 0080
00000060: 2b01 0000 3806 0080 b905 0000 98c9 d696
00000070: 6e3d 68b8 4f02 0080 ac05 0080 ff00 0000
00000080: 9d05 0000 d6ba 3eb8 9402 0000 0993 0e00
00000090: 2d07 0000 2e04 0000 a905 0080 ef02 0080
000000a0: 5d00 0000 d500 0000 7801 0000 1701 0000
000000b0: 2d02 0000 a000 0000 5702 0000 6706 0080
000000c0: ca00 0000 cb00 0080 eb04 0000 1006 0000
000000d0: 4c07 0000 cb01 0080 bf01 0000 5201 0000
000000e0: 8405 0080 9f06 0000 3d03 0080 1807 0000
000000f0: bfe8 3631 3404 0000 2b05 0000 bd07 0080
2.185e-42 -2.84e-43 -1.899e-42 -1.539e-42 2.821e-42 -9.6076e-41 2.164e-42 -3.436e-42
4.13e-43 -2.8501478e-05 3.36e-42 -2.049e-42 -1.853e-42 4e-45 -2.361e-42 2.018e-42
2.524e-42 -1.226e-42 2.071e-42 -1.355e-42 2.073e-42 -2.152e-42 -7.1e-44 -1.351e-42
4.19e-43 -2.231e-42 2.053e-42 -3.4700788e-25 -5.537032e-05 -8.28e-43 -2.035e-42 3.57e-43
2.014e-42 -4.5473535e-05 9.25e-43 1.338443e-39 2.574e-42 1.5e-42 -2.03e-42 -1.052e-42
1.3e-43 2.98e-43 5.27e-43 3.91e-43 7.8e-43 2.24e-43 8.4e-43 -2.297e-42
2.83e-43 -2.84e-43 1.764e-42 2.175e-42 2.618e-42 -6.43e-43 6.26e-43 4.74e-43
-1.979e-42 2.375e-42 -1.162e-42 2.545e-42 2.6616787e-09 1.508e-42 1.854e-42 -2.776e-42

weight f4 [64]
00000000: 32c0 0131 94db 8238 a500 0080 2a00 0000
00000010: a400 0080 5d00 0000 0301 0080 6a1b b303
00000020: dd00 0080 a00d 5d3d d000 0080 2100 0080
00000030: 9900 0080 4f00 0000 7f00 0000 bb00 0080
00000040: 9157 750f d200 0080 31b8 0c2f a400 0000
00000050: 5400 0000 de00 0000 9400 0080 2d00 0000
00000060: 83a4 7a3a 7a00 0000 8300 0000 7ca4 781c
00000070: 9cbe 373d 9400 0000 ad00 0000 01ce 7d0a
00000080: f57d d404 ff83 a23d 1a00 0080 9141 9e80
00000090: 6d00 0080 9600 0080 01f6 0825 8000 0080
000000a0: 5800 0080 4d00 0080 bb00 0000 7900 0080
000000b0: 7100 0000 c62e 5731 0900 0080 4900 0080
000000c0: 6d00 0080 5900 0080 0800 0000 aca9 db05
000000d0: 4100 0000 5600 0000 ab00 0080 3800 0000
000000e0: cc91 9d33 0400 0000 b000 0080 8900 0080
000000f0: 5298 c2b5 5f00 0000 a465 8b30 7700 0000
1.888122e-09 6.239783e-05 -2.31e-43 5.9e-44 -2.3e-43 1.3e-43 -3.63e-43 1.0526968e-36
-3.1e-43 0.053968072 -2.91e-43 -4.6e-44 -2.14e-43 1.11e-43 1.78e-43 -2.62e-43
1.2096297e-29 -2.94e-43 1.2798364e-10 2.3e-43 1.18e-43 3.11e-43 -2.07e-43 6.3e-44
0.00095612573 1.71e-43 1.84e-43 8.226891e-22 0.044859514 2.07e-43 2.42e-43 1.2220252e-32
4.9956634e-36 0.079353325 -3.6e-44 -1.4533529e-38 -1.53e-43 -2.1e-43 1.1879469e-16 -1.8e-43
-1.23e-43 -1.08e-43 2.62e-43 -1.7e-43 1.58e-43 3.1313205e-09 -1.3e-44 -1.02e-43
-1.53e-43 -1.25e-43 1.1e-44 2.0656989e-35 9.1e-44 1.2e-43 -2.4e-43 7.8e-44
7.3374025e-08 6e-45 -2.47e-43 -1.92e-43 -1.4498457e-06 1.33e-43 1.0142469e-09 1.67e-43

bias f4 [64]
00000000: f108 13b4 07ad efb7 4254 d38a 9ece acb7
00000010: a9a2 ac06 b330 d639 ef57 1db3 8e00 0080
00000020: 94c2 0080 4594 a939 bb84 f9b7 5100 0080
00000030: 57ba 00b8 4405 0080 3e4b 558d 3314 0080
00000040: d841 938e ac9f a29b 90ca 7cb1 48f8 cf88
00000050: 9600 0080 7c49 d583 8901 0080 43f5 2080
00000060: eda3 71ba 6000 0080 6100 0080 ec79 8a39
00000070: c40d 8cbc 8abb 3bb1 b2cb 1b95 3bab 0680
00000080: 87a3 2187 fac1 e3bc 61fa 6697 3b74 733a
00000090: edb1 7bb7 d940 41b4 095b 7ba4 71d7 0980
000000a0: 3697 c081 ef14 bb9e f12c 0080 2aa1 bfa5
000000b0: bc0e 0080 08de 37b4 3b00 0080 b657 8cb1
000000c0: 7922 0a80 1767 a513 6e45 09b4 85ab d28d
000000d0: 1f36 bb8a 522b 4ca6 446c ae96 88b0 6b8d
000000e0: f6aa ebb5 a1ee dda4 3f87 f29e 25e5 63a7
000000f0: 53b6 413b 3ab1 5880 cf13 f5b3 b602 0080
-1.3693695e-07 -2.8571592e-05 -2.0350255e-32 -2.0600211e-05 6.4938217e-35 0.00040853544 -3.6634386e-08 -1.99e-43
-6.9801e-41 0.0003234466 -2.974492e-05 -1.14e-43 -3.069112e-05 -1.889e-42 -6.572626e-31 -7.246e-42
-3.6301703e-30 -2.6903837e-22 -3.678597e-09 -1.251673e-33 -2.1e-43 -1.2535886e-36 -5.51e-43 -3.026719e-39
-0.0009217847 -1.35e-43 -1.36e-43 0.0002641225 -0.017096408 -2.7318685e-09 -3.1462688e-26 -6.12439e-40
-1.216035e-34 -0.027802456 -7.463303e-25 0.0009287034 -1.5002192e-05 -1.7998117e-07 -5.450406e-17 -9.03805e-40
-7.074664e-38 -1.9808053e-20 -1.6122e-41 -3.3242427e-16 -5.286e-42 -1.7123978e-07 -8.3e-44 -4.084508e-09
-9.30721e-40 4.175351e-27 -1.2784378e-07 -1.2983541e-30 -1.8027803e-32 -7.083543e-16 -2.8179541e-25 -7.262746e-31
-1.7558621e-06 -9.6247725e-17 -2.5678683e-20 -3.1626798e-15 0.0029558137 -8.1451e-39 -1.1412305e-07 -9.73e-43

running_mean f4 [64]
00000000: 1fdc ec22 93b7 c230 2f00 0000 6300 0080
00000010: b000 0080 db11 0000 1c00 0080 5a00 0000
00000020: 8900 0080 2569 2439 7700 0080 1200 0080
00000030: df00 0000 8900 0080 0900 0000 0100 0080
00000040: 0100 0000 9900 0000 de71 811c 9a00 0000
00000050: 1600 0000 8300 0000 5f00 0000 9b00 0000
00000060: 3c18 4036 7500 0000 4a00 0080 1d26 a89a
00000070: 8e21 bc3a 7f00 0080 3600 0080 7900 0080
00000080: 0d00 0000 e39b 193b 1900 0080 0b0a 0100
00000090: 2c00 0080 8300 0000 2700 0000 1a00 0080
000000a0: f900 0000 e900 0080 7000 0080 9500 0000
000000b0: 2300 0080 165b a824 0a00 0000 8600 0000
000000c0: e300 0080 3700 0080 c400 0080 5900 0080
000000d0: 8e00 0080 8800 0000 7f00 0080 8300 0080
000000e0: 3b78 0827 4400 0080 a400 0000 4f00 0080
000000f0: 4ad6 ba32 4000 0000 a80a d722 9200 0000
6.420099e-18 1.4167533e-09 6.6e-44 -1.39e-43 -2.47e-43 6.405e-42 -3.9e-44 1.26e-43
-1.92e-43 0.00015679428 -1.67e-43 -2.5e-44 3.12e-43 -1.92e-43 1.3e-44 -1e-45
1e-45 2.14e-43 8.565938e-22 2.16e-43 3.1e-44 1.84e-43 1.33e-43 2.17e-43
2.8624336e-06 1.64e-43 -1.04e-43 -6.9544747e-23 0.0014353262 -1.78e-43 -7.6e-44 -1.7e-43
1.8e-44 0.0023438863 -3.5e-44 9.5438e-41 -6.2e-44 1.84e-43 5.5e-44 -3.6e-44
3.49e-43 -3.27e-43 -1.57e-43 2.09e-43 -4.9e-44 7.301269e-17 1.4e-44 1.88e-43
-3.18e-43 -7.7e-44 -2.75e-43 -1.25e-43 -1.99e-43 1.9e-43 -1.78e-43 -1.84e-43
1.8938968e-15 -9.5e-44 2.3e-43 -1.11e-43 2.1750697e-08 9e-44 5.828715e-18 2.05e-43

running_var f4 [64]
00000000: 3c43 b408 8b0f 6524 0400 0000 0400 0000
00000010: 0400 0000 0400 0000 0400 0000 0400 0000
00000020: 0400 0000 5731 d137 0400 0000 0400 0000
00000030: 0400 0000 0400 0000 0400 0000 0400 0000
00000040: 0400 0000 0400 0000 483b 0000 0400 0000
00000050: 0400 0000 0400 0000 0400 0000 0400 0000
00000060: 4b10 162f 0400 0000 0400 0000 7f00 0000
00000070: 716f d937 0400 0000 0400 0000 0400 0000
00000080: 0400 0000 b341 a138 0400 0000 0400 0000
00000090: 0400 0000 0400 0000 0400 0000 0400 0000
000000a0: 0400 0000 0400 0000 0400 0000 0400 0000
000000b0: 0400 0000 db81 680d 0400 0000 0400 0000
000000c0: 0400 0000 0400 0000 0400 0000 0400 0000
000000d0: 0400 0000 0400 0000 0400 0000 0400 0000
000000e0: 8ed7 0211 0400 0000 0400 0000 0400 0000
000000f0: bb7f bf2a 0400 0000 85d2 b308 0400 0000
1.0849163e-33 4.9669625e-17 6e-45 6e-45 6e-45 6e-45 6e-45 6e-45
6e-45 2.4937717e-05 6e-45 6e-45 6e-45 6e-45 6e-45 6e-45
6e-45 6e-45 2.1266e-41 6e-45 6e-45 6e-45 6e-45 6e-45
1.3648209e-10 6e-45 6e-45 1.78e-43 2.592031e-05 6e-45 6e-45 6e-45
6e-45 7.689316e-05 6e-45 6e-45 6e-45 6e-45 6e-45 6e-45
6e-45 6e-45 6e-45 6e-45 6e-45 7.1646827e-31 6e-45 6e-45
6e-45 6e-45 6e-45 6e-45 6e-45 6e-45 6e-45 6e-45
1.0321615e-28 6e-45 6e-45 6e-45 3.4017046e-13 6e-45 1.08226635e-33 6e-45

weight f4 [80, 64, 3, 3]
00000000: 7400 0000 5b00 0000 9300 0080 7100 0000
00000010: a000 0080 5700 0080 6f00 0080 2500 0080
00000020: 7000 0000 1a00 0080 6300 0080 3a00 0000
00000030: b600 0080 5200 0000 7200 0000 9d00 0080
00000040: 3f00 0080 9c00 0000 c100 0080 5400 0080
00000050: 0e00 0000 1f00 0000 3200 0000 1f00 0000
00000060: e700 0000 7700 0080 6a00 0080 5c00 0000
00000070: 4600 0080 1800 0080 5800 0080 5f00 0080
00000080: c900 0080 6c00 0000 0300 0000 5c00 0000
00000090: c700 0080 ab00 0000 1700 0000 b100 0080
000000a0: 2200 0000 8800 0000 d200 0080 8800 0080
000000b0: 4b00 0080 4200 0000 1300 0080 b100 0000
000000c0: 2800 0000 9300 0080 7400 0000 2000 0080
000000d0: 6200 0080 7200 0000 6900 0080 0600 0080
000000e0: 6c00 0000 f800 0000 2e00 0080 5700 0080
000000f0: de00 0000 9600 0000 3d01 0080 4900 0000
00000100: 3f00 0080 9900 0000 a200 0080 4b00 0000
00000110: 9300 0080 cf00 0080 1d00 0000 a700 0000
00000120: e800 0000 3200 0000 1b00 0000 a100 0000
00000130: dd00 0000 5200 0080 4a00 0080 6f00 0080
00000140: 7b00 0000 a100 0000 1e00 0000 6200 0000
00000150: 9800 0080 2700 0080 8500 0080 af00 0080
00000160: 0c00 0000 7a00 0000 4000 0000 6700 0080
00000170: 0301 0080 c700 0080 1700 0080 c000 0000
00000180: df00 0000 1301 0080 d800 0080 8400 0080
00000190: 8400 0000 4c00 0000 5400 0000 a800 0000
000001a0: 8800 0080 2600 0080 2400 0080 8d00 0000
000001b0: 2200 0080 6f00 0000 0d00 0080 b300 0080
000001c0: 0400 0000 a400 0000 7c00 0000 7c00 0080
000001d0: 0a00 0000 7200 0000 8c00 0080 9200 0080
000001e0: be00 0000 8000 0000 7a00 0080 2400 0000
000001f0: 4400 0000 3c00 0080 c100 0080 a900 0000
00000200: 6f00 0000 7300 0080 9b00 0000 a900 0080
00000210: f700 0080 c900 0000 2600 0080 cb00 0000
00000220: b500 0000 c700 0000 1900 0000 9400 0000
00000230: 6f00 0000 5800 0080 4900 0080 6400 0080
00000240: 1c00 0080 0700 0000 5c00 0080 c200 0080
00000250: 8100 0080 2700 0080 ae00 0000 5400 0080
00000260: 0a00 0080 c100 0000 7500 0080 ba00 0000
00000270: 4700 0080 0a00 0080 6300 0000 d700 0000
00000280: 2000 0000 0300 0000 0600 0000 af00 0000
00000290: 7500 0080 1300 0080 3300 0000 6e00 0080
000002a0: 5100 0000 4b00 0080 3b00 0080 8e00 0080
000002b0: a900 0080 2d00 0080 0101 0000 a700 0080
000002c0: a100 0000 b200 0080 7300 0080 d100 0000
000002d0: 0100 0080 b900 0080 7c00 0000 6600 0080
000002e0: 4c00 0000 ae00 0080 1c00 0080 9b00 0000
000002f0: ba00 0080 0101 0080 2d00 0080 f200 0080
00000300: 1001 0000 5900 0000 0801 0000 e600 0000
00000310: 8100 0000 3900 0080 5400 0000 0000 0000
00000320: 9a00 0080 d700 0000 3300 0080 a600 0080
00000330: 9100 0080 7100 0000 4600 0000 2c00 0080
00000340: 8000 0080 8000 0080 fe00 0000 2c00 0000
00000350: 1500 0080 4300 0080 7b00 0080 b700 0080
00000360: 3d00 0000 7d00 0000 aa00 0000 9d00 0080
00000370: 4c00 0080 9900 0000 8500 0080 4700 0000
00000380: 4f00 0000 6f00 0000 3800 0080 3f00 0080
00000390: 7d00 0080 4b00 0080 2c00 0080 0700 0080
000003a0: 8800 0080 2500 0080 6f00 0080 8600 0000
000003b0: 8200 0000 c900 0080 3200 0080 0900 0000
000003c0: 7c00 0080 5c00 0000 2900 0080 0100 0080
000003d0: 9000 0080 2300 0000 a200 0080 ee00 0000
000003e0: 9e00 0080 cc00 0000 3900 0080 8e00 0080
000003f0: 1200 0000 2c00 0080 2f00 0080 9f00 0000
1.63e-43 1.28e-43 -2.06e-43 1.58e-43 -2.24e-43 -1.22e-43 -1.56e-43 -5.2e-44
1.57e-43 -3.6e-44 -1.39e-43 8.1e-44 -2.55e-43 1.15e-43 1.6e-43 -2.2e-43
-8.8e-44 2.19e-43 -2.7e-43 -1.18e-43 2e-44 4.3e-44 7e-44 4.3e-44
3.24e-43 -1.67e-43 -1.49e-43 1.29e-43 -9.8e-44 -3.4e-44 -1.23e-43 -1.33e-43
-2.82e-43 1.51e-43 4e-45 1.29e-43 -2.79e-43 2.4e-43 3.2e-44 -2.48e-43
4.8e-44 1.9e-43 -2.94e-43 -1.9e-43 -1.05e-43 9.2e-44 -2.7e-44 2.48e-43
5.6e-44 -2.06e-43 1.63e-43 -4.5e-44 -1.37e-43 1.6e-43 -1.47e-43 -8e-45
1.51e-43 3.48e-43 -6.4e-44 -1.22e-43 3.11e-43 2.1e-43 -4.44e-43 1.02e-43
-8.8e-44 2.14e-43 -2.27e-43 1.05e-43 -2.06e-43 -2.9e-43 4e-44 2.34e-43
3.25e-43 7e-44 3.8e-44 2.26e-43 3.1e-43 -1.15e-43 -1.04e-43 -1.56e-43
1.72e-43 2.26e-43 4.2e-44 1.37e-43 -2.13e-43 -5.5e-44 -1.86e-43 -2.45e-43
1.7e-44 1.71e-43 9e-44 -1.44e-43 -3.63e-43 -2.79e-43 -3.2e-44 2.69e-43
3.12e-43 -3.85e-43 -3.03e-43 -1.85e-43 1.85e-43 1.06e-43 1.18e-43 2.35e-43
-1.9e-43 -5.3e-44 -5e-44 1.98e-43 -4.8e-44 1.56e-43 -1.8e-44 -2.51e-43
6e-45 2.3e-43 1.74e-43 -1.74e-43 1.4e-44 1.6e-43 -1.96e-43 -2.05e-43
2.66e-43 1.8e-43 -1.71e-43 5e-44 9.5e-44 -8.4e-44 -2.7e-43 2.37e-43
1.56e-43 -1.61e-43 2.17e-43 -2.37e-43 -3.46e-43 2.82e-43 -5.3e-44 2.84e-43
2.54e-43 2.79e-43 3.5e-44 2.07e-43 1.56e-43 -1.23e-43 -1.02e-43 -1.4e-43
-3.9e-44 1e-44 -1.29e-43 -2.72e-43 -1.81e-43 -5.5e-44 2.44e-43 -1.18e-43
-1.4e-44 2.7e-43 -1.64e-43 2.6e-43 -1e-43 -1.4e-44 1.39e-43 3.01e-43
4.5e-44 4e-45 8e-45 2.45e-43 -1.64e-43 -2.7e-44 7.1e-44 -1.54e-43
1.14e-43 -1.05e-43 -8.3e-44 -1.99e-43 -2.37e-43 -6.3e-44 3.6e-43 -2.34e-43
2.26e-43 -2.5e-43 -1.61e-43 2.93e-43 -1e-45 -2.59e-43 1.74e-43 -1.43e-43
1.06e-43 -2.44e-43 -3.9e-44 2.17e-43 -2.6e-43 -3.6e-43 -6.3e-44 -3.39e-43
3.81e-43 1.25e-43 3.7e-43 3.22e-43 1.81e-43 -8e-44 1.18e-43 0.0
-2.16e-43 3.01e-43 -7.1e-44 -2.33e-43 -2.03e-43 1.58e-43 9.8e-44 -6.2e-44
-1.8e-43 -1.8e-43 3.56e-43 6.2e-44 -3e-44 -9.4e-44 -1.72e-43 -2.56e-43
8.5e-44 1.75e-43 2.38e-43 -2.2e-43 -1.06e-43 2.14e-43 -1.86e-43 1e-43
1.11e-43 1.56e-43 -7.8e-44 -8.8e-44 -1.75e-43 -1.05e-43 -6.2e-44 -1e-44
-1.9e-43 -5.2e-44 -1.56e-43 1.88e-43 1.82e-43 -2.82e-43 -7e-44 1.3e-44
-1.74e-43 1.29e-43 -5.7e-44 -1e-45 -2.02e-43 4.9e-44 -2.27e-43 3.34e-43
-2.21e-43 2.86e-43 -8e-44 -1.99e-43 2.5e-44 -6.2e-44 -6.6e-44 2.23e-43

bias f4 [80]
00000000: 8005 0080 4500 0000 a704 0000 f801 0080
00000010: 4906 0080 8806 0080 5a01 0080 e800 0080
00000020: 3408 0000 2e07 0000 0502 0080 3401 0000
00000030: 1904 0080 4f02 0000 0d04 0080 6302 0080
00000040: a4c2 95b4 7a0a 0080 0700 0080 e709 0000
00000050: 7f00 0080 6b08 0080 9c05 0000 2500 0080
00000060: 8f09 0080 f700 0080 da04 0000 1100 0000
00000070: 6b03 0000 c605 0000 ee0a 0000 3d0a 0000
00000080: c409 0080 2403 0000 0e04 0080 4803 0080
00000090: 9501 0080 0b05 0080 4205 0080 2504 0000
000000a0: df00 0000 7909 0080 d904 0000 4008 0080
000000b0: e605 0000 1c00 0080 5f00 0080 f005 0080
000000c0: ac08 0000 a006 0000 4a00 0000 2e04 0000
000000d0: c205 0000 9f07 0080 2700 0000 4b2e 5835
000000e0: f208 0000 a709 0080 cb00 0080 d0a4 e1b6
000000f0: aa03 0080 fe07 0000 f68e 4ab5 d700 0000
00000100: 5301 0080 f7c0 1736 9f0a 0000 1b01 0000
00000110: 4f07 0000 e301 0080 1508 0000 9500 0080
00000120: 4b07 0080 8ce7 7f33 e203 0000 1e06 0080
00000130: 6b02 0000 a404 0080 fc06 0080 9a09 0000
-1.973e-42 9.7e-44 1.669e-42 -7.06e-43 -2.255e-42 -2.343e-42 -4.85e-43 -3.25e-43
2.943e-42 2.576e-42 -7.24e-43 4.32e-43 -1.47e-42 8.28e-43 -1.453e-42 -8.56e-43
-2.7895032e-07 -3.758e-42 -1e-44 3.552e-42 -1.78e-43 -3.02e-42 2.012e-42 -5.2e-44
-3.429e-42 -3.46e-43 1.74e-42 2.4e-44 1.226e-42 2.071e-42 3.921e-42 3.673e-42
-3.503e-42 1.127e-42 -1.455e-42 -1.177e-42 -5.68e-43 -1.809e-42 -1.886e-42 1.487e-42
3.12e-43 -3.398e-42 1.739e-42 -2.96e-42 2.116e-42 -3.9e-44 -1.33e-43 -2.13e-42
3.111e-42 2.377e-42 1.04e-43 1.5e-42 2.066e-42 -2.734e-42 5.5e-44 8.0533636e-07
3.209e-42 -3.463e-42 -2.84e-43 -6.7247092e-06 -1.314e-42 2.867e-42 -7.54589e-07 3.01e-43
-4.75e-43 2.2613074e-06 3.81e-42 3.97e-43 2.622e-42 -6.77e-43 2.899e-42 -2.09e-43
-2.616e-42 5.9582405e-08 1.393e-42 -2.194e-42 8.67e-43 -1.665e-42 -2.506e-42 3.444e-42

weight f4 [80]
00000000: 4480 8432 c400 0000 5000 0080 80ed 7134
00000010: bf00 0000 8d00 0000 c99e 280d 9d00 0080
00000020: 0300 0000 90fe 2831 2800 0080 56ed 1a13
00000030: 0d00 0080 9131 2b00 4200 0080 9a00 0080
00000040: f225 323c 5100 0000 0300 0080 5e00 0000
00000050: 9000 0080 af00 0080 2f00 0080 6900 0080
00000060: 8e00 0000 1f00 0080 6509 2c1c af00 0080
00000070: b900 0000 c100 0000 8d00 0000 7900 0080
00000080: b40c 352b 9881 d326 5f00 0080 e80e 1e1d
00000090: 4a00 0000 7500 0000 bd00 0080 1600 0080
000000a0: 7400 0000 0900 0000 d200 0000 7900 0000
000000b0: 0b00 0080 1900 0000 7800 0000 a200 0000
000000c0: b969 521e a500 0080 7600 0000 7c00 0000
000000d0: b200 0080 5e00 0080 1693 4d1d 2670 a93c
000000e0: 9a00 0000 9c10 0000 9500 0000 3976 de3d
000000f0: 7700 0000 1200 0000 4a41 a63d 638d 173a
00000100: b700 0000 1abf a63c b29f 6d03 fc42 2000
00000110: 7200 0000 8300 0080 d800 0000 a50d d632
00000120: cd00 0080 6b4c b5b7 6700 0080 9f00 0080
00000130: 9000 0080 c7a1 ec1f b600 0000 8500 0000
1.5425151e-08 2.75e-43 -1.12e-43 2.2531276e-07 2.68e-43 1.98e-43 5.1960128e-31 -2.2e-43
4e-45 2.459192e-09 -5.6e-44 1.9554548e-27 -1.8e-44 3.966707e-39 -9.2e-44 -2.16e-43
0.010873305 1.14e-43 -4e-45 1.32e-43 -2.02e-43 -2.45e-43 -6.6e-44 -1.47e-43
1.99e-43 -4.3e-44 5.692217e-22 -2.45e-43 2.59e-43 2.7e-43 1.98e-43 -1.7e-43
6.4321747e-13 1.4676193e-15 -1.33e-43 2.0918832e-21 1.04e-43 1.64e-43 -2.65e-43 -3.1e-44
1.63e-43 1.3e-44 2.94e-43 1.7e-43 -1.5e-44 3.5e-44 1.68e-43 2.27e-43
1.113917e-20 -2.31e-43 1.65e-43 1.74e-43 -2.5e-43 -1.32e-43 2.7207566e-21 0.02068336
2.16e-43 5.958e-42 2.09e-43 0.10862393 1.67e-43 2.5e-44 0.08117922 0.0005781261
2.56e-43 0.020354796 6.983136e-37 2.962765e-39 1.6e-43 -1.84e-43 3.03e-43 2.4919084e-08
-2.87e-43 -2.1612466e-05 -1.44e-43 -2.23e-43 -2.02e-43 1.00217526e-19 2.55e-43 1.86e-43
