models/model_all_fold_0_thresholding_1_l2.pkl (torch_old, 704408 bytes, 38 tensors)

weight f4 [16, 3, 3, 3]
00000000: 8dae f7bc 6647 0b3d 90e9 aa3d fb40 21bd
00000010: 9575 b5bc c440 a7bd 2703 9b3d 39fe 8b3d
00000020: 8ea0 133e 78e8 cebd 8d64 a93c 0171 54be
00000030: 48bf d1bd 786a 2abd ccb9 383c 424b b6bd
00000040: bdaa 5f3d 0ad9 dfbd 8f07 123e c6aa 1cbd
00000050: 72bd 8cbd 9d91 593e 448a d53d 96cc 1a3e
00000060: 6762 ac3d 7c52 283d e004 dfbd c3db 8e3d
00000070: 8c25 333e 0aed 2e3e b767 39be a366 f03d
00000080: b451 dfbd 190d 58bd a7e0 f8bc 18d9 eabd
00000090: a676 16bd 69ff 133e cb89 723e a9d0 2dbc
000000a0: 558d be3d 3c43 a63d 2aef f2bd 423c 1bbe
000000b0: 42d8 a73d d134 b0bd 2ac8 0ebe b2ff 2e3c
000000c0: 92d0 f13d 6ac3 93bd ad79 c93d 8fb3 283d
000000d0: 9897 7bbe 5de2 afbd 381e 32bd b974 023e
000000e0: f3f3 b83d eb20 12be f240 95bd f958 8d3d
000000f0: 6520 78bd 7332 033e 6992 013e ba57 6bbc
00000100: 3b34 233c 288f 233e 08e1 34bd d606 0d3d
00000110: 621a 703e b119 14bc a951 1c3e 0be1 213e
00000120: 6d9a 91be 3316 683c 51d8 3f3c 1429 97bd
00000130: 7cb9 51bd 5ad1 253d f14f 3ebe 618c e83c
00000140: be8e bcbd 5c4c 21bd 801b d0bc 99f8 26be
00000150: e401 4cbc 5b4f 083e 6df4 9fbc 069b 70bc
00000160: f0fd 78bd 95ff e2bd dcb9 3bbe e800 873d
00000170: 33f2 22be 71d6 2b3e e6fc df3d 9deb b33c
00000180: 2cfa a93c ebcc 74bd 2885 dbbc b5d6 833d
00000190: 584d 4b3d 3f6e 873c 01b0 5dbc e505 513e
000001a0: 901d e3bd 51df be3d 658a 423e bc70 373e
000001b0: 54b1 ae3c e289 653d 7baf 1ebd 5998 ca3c
000001c0: 6bb5 ec3c a722 a2bd 373a 09be 6ec1 df3c
000001d0: 6c6a 20be e03f a23d 5fa1 0a3e 4aad d1bb
000001e0: 4cff cf3d 33ed 5f3d bd3c d13c 75a3 b13d
000001f0: cd54 85bd 443e 58bd 38c0 033e 8b43 563b
00000200: bd5b ec3d 1013 c53c 2b42 4e3d 0080 d63d
00000210: a44b ec3d fa2a e03c d5e7 bcbd ba39 e9bd
00000220: 1789 5a3d 396b b5bd f622 2ebe e2aa 1bbe
00000230: cd5f 75bd 3784 933d d716 063e 817e 0a3d
00000240: 3fa1 493d 22dc 7fbd d337 8c3d c702 6bbe
00000250: e789 11be 124f ae3d 857e d33d 779a 4e3e
00000260: 76eb 1b3d 6839 843c da41 0d3d 301e bcbd
00000270: 5d5a 0fbe 9701 d83d f16f a9bc 7fef d43d
00000280: a28d 4b3e c425 883c b03f 083e 0b9a e13d
00000290: 8c1a 0b3e df89 8d3c 5b1f cfbd 9d53 11be
000002a0: 7d9a 063e 600f c03d af7a e0bd 9daf 1d3e
000002b0: c8a7 2ebe 3650 3dbe b0c2 c23d 0d8a fdbd
000002c0: 3bf7 7bbd c040 343e 948d 343d 5acc 64bd
000002d0: f574 b73d 0aee a03d 47ff 48be 2ae2 183e
000002e0: c64c c0bd 02af 19be f810 023e a292 13be
000002f0: 6dff 40be f29e 0fbe f55c 973d 144e 493d
00000300: 070d 923d 12fd b0bd 5a66 153e ffd7 b5bd
00000310: 8607 1cbe 6798 de3d 2a8a 5a3e 8346 28bc
00000320: 597c 353d 9b9e 043e 55d3 323e 04dc 8ebb
00000330: 974f 0a3e aa14 bbbc 2328 2d3d fa6c fbbd
00000340: 6332 18be 3136 34be ed5c e2bd e32f f4bd
00000350: 42f8 14be 546b 4bbd d36d 223e c805 2abe
00000360: b4f8 f3bd cc0e fbbc be0f 83bd 7705 473d
00000370: 9b2e 32be a072 52be 7d29 3dbe 4f75 12be
00000380: 0da9 66be a14b 313e b0d7 5dbd 964b f2bd
00000390: c9c4 c53d 75b9 6c3d 2033 ef3d cb04 ad3d
000003a0: e0e7 2c3d ab8d 8b3c d3ae 0cbc 9351 f5bd
000003b0: 2898 d63d 1031 eb3d d0b7 193e 30aa bdbd
000003c0: 03c5 7cbc ac6f 223e 4055 263e 21d1 3ebd
000003d0: 9b63 22bd 777c 99bd 8aaa 18bd 194a acbd
000003e0: 031d 7a3d e803 813d afff 61bd ffdc 2f3e
000003f0: 65c9 8abd 493f fcbd 4822 19be 2d79 43be
-0.0302346 0.034003638 0.0834533 -0.03936861 -0.022150794 -0.0816665 0.07568961 0.068355985
0.14416716 -0.10102934 0.02067783 -0.20746233 -0.10241562 -0.041605443 0.011274766 -0.08901073
0.054606188 -0.10930069 0.14260696 -0.0382488 -0.06872071 0.21246953 0.10426763 0.15117106
0.08417206 0.04109429 -0.10889602 0.0697551 0.17494792 0.1708261 -0.1810597 0.117383264
-0.109042555 -0.052746866 -0.03038056 -0.114671886 -0.036734246 0.144529 0.23685376 -0.0106088305
0.09304301 0.08118293 -0.11862023 -0.15159705 0.08195545 -0.08603824 -0.13943544 0.01068108
0.1180736 -0.07215007 0.09837661 0.041186865 -0.24569547 -0.08588097 -0.04348585 0.12739839
0.090309046 -0.1427037 -0.07287778 0.06901736 -0.06057777 0.12812214 0.12653507 -0.014364177
0.009961183 0.15972579 -0.04415992 0.034430347 0.23447564 -0.009039328 0.15265526 0.15808503
-0.2843813 0.014165449 0.011709289 -0.07380882 -0.051202282 0.040482856 -0.18585183 0.02838725
-0.092069134 -0.039379463 -0.025403738 -0.1630577 -0.012451623 0.13311522 -0.019525731 -0.014685398
-0.06078905 -0.11083905 -0.18332618 0.0659197 -0.15912704 0.16781022 0.109369084 0.021962935
0.020749174 -0.059765738 -0.026796892 0.064374365 0.049634308 0.016532062 -0.013530732 0.20412405
-0.11089623 0.09319938 0.18998106 0.17914099 0.021324791 0.0560397 -0.03874157 0.024730848
0.0288951 -0.07916766 -0.13401113 0.027313914 -0.15665597 0.079223394 0.1353812 -0.0063988315
0.10156116 0.05466957 0.025541658 0.08673755 -0.06510315 -0.052793756 0.12866294 0.0032694067
0.11540935 0.024056941 0.05035607 0.10473633 0.11537865 0.027364243 -0.09223906 -0.113879636
0.053353395 -0.08858342 -0.17005524 -0.15201905 -0.059905816 0.07202952 0.1309465 0.03381205
0.049226042 -0.062465794 0.06846585 -0.22950278 -0.14212762 0.08511175 0.10326866 0.20176111
0.03806635 0.016140655 0.03448663 -0.09185445 -0.13999315 0.10547178 -0.02068326 0.10397243
0.19878247 0.01661957 0.13305545 0.110157095 0.13584346 0.017277656 -0.101134025 -0.14192052
0.1314487 0.093779325 -0.109609 0.15399022 -0.17056191 -0.1848763 0.0950979 -0.12379847
-0.061515074 0.17602825 0.044080332 -0.055858947 0.08957855 0.07857902 -0.1962863 0.14930025
-0.09389643 -0.15008166 0.12701786 -0.14411405 -0.18847437 -0.14025477 0.07390777 0.049146727
0.07131391 -0.08642019 0.14589825 -0.088790886 -0.15237245 0.10868912 0.21341768 -0.010270718
0.04430804 0.12951128 0.1746343 -0.004359724 0.13506924 -0.022837002 0.042274605 -0.12276645
-0.14862971 -0.17598797 -0.110528804 -0.11923196 -0.14547828 -0.049662903 0.15862207 -0.16603768
-0.11912671 -0.030646704 -0.06399487 0.048589196 -0.17400591 -0.20551538 -0.18472858 -0.14302562
-0.22525425 0.17314006 -0.054160774 -0.11830823 0.096566744 0.057794053 0.11679673 0.0844818
0.04221332 0.017035326 -0.008586603 -0.1197845 0.1047824 0.11483967 0.15011525 -0.09260976
-0.015427831 0.15862912 0.16243458 -0.04658616 -0.039645772 -0.07494443 -0.037272014 -0.084125705
0.061062824 0.06299573 -0.05517548 0.17174147 -0.06776694 -0.12316758 -0.14954484 -0.19089194

bias f4 [16]
00000000: bafa 61bb 168e 35bb 121d 3aba 3eae 1f3b
00000010: 38ac 27ba e582 0fb9 48bc f439 4d3e 64ba
00000020: aa3b e5b8 1ac5 49ba 4a82 af3a d799 8939
00000030: 21ee 263a 1856 f1ba 953e 0b3b b2f0 b039
-0.003448172 -0.0027703098 -0.0007099669 0.002436533 -0.0006396207 -0.00013686305 0.00046679587 -0.00087067933
-0.00010930684 -0.0007696912 0.001339027 0.00026245296 0.00063678814 -0.0018412499 0.0021247019 0.00033748668

weight f4 [16]
00000000: 0b7b 6c3e b6fd 513f f364 db3e 83cd f33e
00000010: adc2 a83d 03a1 9d3d 063d 7e3e 18c8 cd3e
00000020: 92c3 b13e f7cd a73e ad38 263f 238f 413e
00000030: 656f 013f d130 003f cf95 033f 9c0c 813e
0.23093812 0.8202776 0.42850456 0.4761773 0.082402565 0.07696726 0.24827966 0.40191722
0.3471952 0.32774326 0.6493023 0.18902259 0.505606 0.5007449 0.51400465 0.25204933

bias f4 [16]
00000000: 5c03 f7bc ade9 8f3e 45fc 0e3e 0336 2c3e
00000010: 1121 633d 295e 333e 3209 93bd b21d 8ebc
00000020: 4762 04bc e022 b0bd 7e4b 593e 1075 ffbc
00000030: 0163 16bd 699f bd3b ef20 983e f3eb a93d
-0.030152969 0.28107968 0.1396342 0.16817479 0.055451456 0.17516388 -0.07179488 -0.017348144
-0.008080072 -0.08600402 0.21220204 -0.03118375 -0.03671551 0.0057868254 0.29712626 0.08296957

running_mean f4 [16]
00000000: 6fda 88be 447a 90bc 22f1 b2be baba 5dbe
00000010: 208f f4be 10c5 6d3d eb6d 993d e21b 723e
00000020: a5e4 0d3f a908 833f 6376 9d3b 2aef 6ebe
00000030: b6bd 8fbd 7a93 0abf 2fad 8f3e 9066 f5be
-0.26729152 -0.017636426 -0.34949595 -0.21653262 -0.47765446 0.05804926 0.07491668 0.23643449
0.5542701 1.0237018 0.0048053726 -0.23333421 -0.07018606 -0.5413128 0.28061816 -0.4792981

running_var f4 [16]
00000000: 5e67 9a3e 587b c03e 32f9 873f 2e9e e53e
00000010: 6a9b aa3f af3b b73e 727f 3b3f d969 753e
00000020: 8883 b13f 0af6 a140 f9b3 bf3e 505e 083f
00000030: 89f6 993e e99a da3f 633f 173f 863d 923f
0.30156988 0.37594104 1.0622923 0.44847244 1.3328679 0.35787722 0.7324134 0.23966159
1.3868265 5.061284 0.37441996 0.5326891 0.30070904 1.7078525 0.59081095 1.1425025

weight f4 [32, 16, 3, 3]
00000000: f19a 98bc 7d09 9b3c 5449 443d f7bc 26bd
00000010: 73e4 f1bb 423d b7ba 5a88 a1bd 4599 b0bd
00000020: c259 83bc 1c3f 29bd 5f7e 37bb 5732 87bc
00000030: eea3 2dbd 7396 173c df5f 383d 80f3 9e3d
00000040: aa76 d03d 0128 b53d 0676 0e3d e3e3 9f3c
00000050: 1d0d dcbc 5eb1 67bd 8e58 85bd 5fb9 343c
00000060: ad03 4d3c b059 02bd b394 a8bd 182b d13c
00000070: c2e0 d1bc c41b 15bd 9ce8 66bd 5b4d 50bd
00000080: 46de eabd 5d48 e5bb 4322 aebd 347d 0fbd
00000090: f5ed 873d 7d6c 6f3d c989 0a3d 60ed 7b3d
000000a0: 5416 90bc aee0 abbc be3e 113d d7a0 b83c
000000b0: d433 31bc 2e68 20bd f203 60bd a50f 0fbd
000000c0: 0e12 81bd ee0d 41bd 09f2 4dbd 1bc9 b0bd
000000d0: 6dbf a4bd 579a 86bd 4907 05be 02bc 00be
000000e0: 30ea 92bd 2418 ccbd 98d0 bdbd a063 00bd
000000f0: 59d3 9ebd cd79 4f3d b51b d23d d967 85bd
00000100: dafb 15be a931 4ebd ac3f 11be 6b49 e9bd
00000110: 49fd 93bc 28c4 653a 59c5 2ebd 4d44 bfbc
00000120: 737a f63a e952 edbc 99be debc 1f2c 8dbd
00000130: 2eae e93b 4a03 a7bd ce7d 9fbd f35e cabd
00000140: 063c a0bd c1c1 00be bea0 97bd 50d2 0ebd
00000150: f248 adbd cdc0 96bd 44eb babb 26fd 07bd
00000160: 9412 0e3d 3f1c 353c 7baf bfbd e563 acbd
00000170: 78b3 7fbd 85f2 bbbd 6725 c7bd 2f2f 9cbc
00000180: da65 81bd 03d4 88bd 60a2 49bd 6ada dc3c
00000190: ad87 74bd ce30 82bd d183 78bc 006e babd
000001a0: 6fed 373c fc7b 6fbb d428 8aba 0e4a 6bbb
000001b0: 8061 593d 37d6 5c3c bbc7 8dbd d0b9 a9bd
000001c0: cc6f ddbc 632f 32bd 62fa 3dbd e524 abbd
000001d0: fa96 8dbd 720e b93d 5870 543d f66e 5c3d
000001e0: 1b6b 6abc 9ea6 7e3d 3afb ad3d 0545 213d
000001f0: 01dc 0e3b 9928 443d fbba 46bd c354 33bc
00000200: 002e 3a3d fabd 053d d827 8d3b 0e8d 7ebd
00000210: 0196 41bd 22e6 9cbc b4cc 22bd e4f7 083d
00000220: 9ff5 723c c2f0 cf3d 830c 993d 74de 143d
00000230: 9a48 1d3d 739d c93a 1a2e bd3d 9192 a43d
00000240: 5726 cabc 9108 f53b 5b01 7abc aa03 c03d
00000250: 7d69 333d 7a8e 3c3d 6c10 a43d bdbb 2abc
00000260: 0ca5 783d ff72 90bd c549 c8bd c654 d1bc
00000270: a014 80bd 3e95 c6bd 92ee 22bd ef59 913c
00000280: 1a52 b0bc af9f ee3c c983 4ebd cc24 23be
00000290: 51ab 49be 8e6a 363d 3d05 16bd aa71 c9bd
000002a0: d7b8 a43d 6a3c 4c3d ad74 373b 7e99 d33d
000002b0: 7d26 eabc d61a 53bd 9b6d f83d b01e a23c
000002c0: 5421 e33c ec40 8e3d 3add b23d 51f2 383d
000002d0: 0887 c3ba 9a03 88bd aa84 8fbd b5fb a93c
000002e0: be9f 443c 5e63 71bd ce4a 053d 4a7c 21bc
000002f0: 4e24 16bc f92d 743c 5c31 203c 6ea4 bc3b
00000300: eb19 0fbb 8233 263d 10ed d73c 5d54 ed3c
00000310: f825 713d d4a1 fa3c 7c98 c33d 67bf 2abc
00000320: 650b 8abd 1cb4 5b3d 20af 503c 6545 763c
00000330: 7cfb 3cbd e73e 19bc 1c30 843d 9e78 893a
00000340: a103 ba3c 19dc 77bd a415 d7bd e66b 6bbd
00000350: b17d 4c3d 2dfe 20bd 3c31 9e3c 85d4 ac3c
00000360: 2f83 883d a865 7a3d 6ab8 78bd 6657 3c3d
00000370: c095 95bc 8aef d4bc 1a47 c6bc 27fe b9bb
00000380: f2d7 a63b a53e 7fbd d64c 48bc 3ac7 9bbc
00000390: 9e04 2dbd 6342 8ebc c478 cfbc 469e 28bd
000003a0: 6293 5d3d 0f70 b9bc 0026 1b3d 9762 94ba
000003b0: 253c 783c 4efc ce3d 3fd0 ea3d b63e 823d
000003c0: 56b9 ad3c b523 f03d 8a0d fb3d ad72 a2bd
000003d0: b169 d9bd 3c15 9bbd 5947 c93c e41a d5bc
000003e0: b070 adbd 8ab4 5a3d cf0f 223d 1cc2 4bbd
000003f0: 90f4 1ebd 6a02 4f3d 4dd4 08bd 4f5a 8c3b
-0.01862857 0.018925423 0.047921494 -0.040707555 -0.0073819696 -0.0013980048 -0.07887335 -0.08622984
-0.01603401 -0.04131995 -0.0027998907 -0.016503496 -0.042392664 0.0092521785 0.045013305 0.07761288
0.101788834 0.08845521 0.034780525 0.019517845 -0.026861722 -0.056565635 -0.06511031 0.011030524
0.012513083 -0.031823814 -0.08231487 0.025533244 -0.025619868 -0.036403432 -0.056374177 -0.050855022
-0.114681765 -0.0069971518 -0.08502629 -0.035031512 0.066371836 0.05845307 0.03382281 0.061505675
-0.017588772 -0.020981159 0.035460226 0.022537632 -0.010815579 -0.039161853 -0.054691263 -0.03492703
-0.06302272 -0.047132425 -0.05027965 -0.08632108 -0.08044324 -0.06572407 -0.1299106 -0.1257172
-0.07173574 -0.09965542 -0.09268302 -0.03134501 -0.07755155 0.050653268 0.10259191 -0.06513948
-0.14646855 -0.05034033 -0.14184445 -0.113909565 -0.018065112 0.00087648863 -0.042668674 -0.023347998
0.0018804803 -0.028970199 -0.027190493 -0.06893181 0.0071313595 -0.08154924 -0.07787667 -0.098813914
-0.078239486 -0.12573911 -0.07403706 -0.03486854 -0.08461179 -0.073609926 -0.0057043154 -0.033200406
0.034685686 0.011054098 -0.09359642 -0.08417491 -0.062427014 -0.09177116 -0.09723931 -0.019065468
-0.06318255 -0.06681063 -0.04922712 0.026959617 -0.059699703 -0.06356965 -0.015168146 -0.09103012
0.011226042 -0.0036542406 -0.0010540732 -0.0035902294 0.0530715 0.013478807 -0.06922861 -0.08287394
-0.027030848 -0.043502223 -0.04638136 -0.083566464 -0.06913562 0.09035958 0.05186495 0.053816758
-0.0143077625 0.062170617 0.08495183 0.039372463 0.0021798613 0.04789028 -0.048518162 -0.010945502
0.045454025 0.03265188 0.0043077283 -0.06214624 -0.047262195 -0.019152705 -0.039746 0.033439532
0.014829068 0.10153343 0.074730895 0.03634496 0.038399316 0.0015382007 0.09237309 0.08035768
-0.024676485 0.007477828 -0.015259112 0.09375699 0.043801773 0.046034314 0.08010945 -0.010420737
0.060704276 -0.07053184 -0.097796954 -0.025553118 -0.06253934 -0.096964344 -0.0397783 0.017743079
-0.021523524 0.029128877 -0.05041865 -0.15932006 -0.19694258 0.044535212 -0.03662609 -0.09836133
0.08043068 0.049862303 0.0027993128 0.10332011 -0.028582806 -0.051539265 0.121302806 0.019790024
0.027725853 0.069459766 0.08733602 0.045152966 -0.0014917562 -0.06641312 -0.070077255 0.020749906
0.012000976 -0.058932655 0.032542042 -0.009856293 -0.009163929 0.014903539 0.009777393 0.0057569062
-0.0021835517 0.040576465 0.026358157 0.028970892 0.0588741 0.030594744 0.095505685 -0.01042161
-0.067404546 0.053638563 0.012737066 0.015031193 -0.04613827 -0.009353376 0.06454489 0.0010488217
0.022706809 -0.060512636 -0.105021745 -0.057475947 0.049924556 -0.0393049 0.019310586 0.021097431
0.06665646 0.061132103 -0.060722746 0.045981787 -0.018259883 -0.025993127 -0.024203826 -0.0056760493
0.0050916607 -0.0623156 -0.01222535 -0.019015897 -0.04224073 -0.01736564 -0.02532614 -0.041166566
0.054095633 -0.022636442 0.037878036 -0.0011320886 0.015151058 0.10106717 0.11465501 0.063596174
0.02120654 0.117255606 0.12258442 -0.07932029 -0.10615862 -0.075724095 0.024570154 -0.026013799
-0.08468759 0.05339483 0.039565857 -0.049745664 -0.03880745 0.05053941 -0.03340559 0.0042832266

bias f4 [32]
00000000: 584e a6b9 f145 9db8 b272 f2b5 7dde b5b9
00000010: 4ae3 a0b8 af4c 11b9 f3bd d739 ba8f 73ba
00000020: c319 f939 0cbb 7db9 79b0 0bba 4af6 8d37
00000030: 3eb9 1aba e393 8ab9 7501 073a 8bc7 16ba
00000040: c380 2b3a 8ae2 1bb9 c047 d8b8 34dc ad38
00000050: 8b39 bfb7 49c8 ed39 10e6 9639 0cfc c539
00000060: fda2 3739 8c5d 25b9 54e4 443a a13f b0b8
00000070: aa1c fd39 9605 1f37 dfa8 d1b8 33c6 363a
-0.00031720358 -7.499371e-05 -1.8063786e-06 -0.00034688777 -7.6717304e-05 -0.00013856844 0.0004114952 -0.0009291131
0.00047512175 -0.0002419764 -0.00053287257 1.6923197e-05 -0.0005902237 -0.00026431595 0.00051500584 -0.000575178
0.00065423193 -0.00014866344 -0.00010313047 8.290299e-05 -2.279577e-05 0.00045353387 0.0002878164 0.00037762558
0.00017512958 -0.00015770475 0.000751083 -8.404186e-05 0.00048277277 9.478439e-06 -9.997351e-05 0.0006972283

weight f4 [32]
00000000: 52a2 e63e 7069 cf3e 0040 d23d 5028 603f
00000010: 72c7 993e 3f74 203e fa44 5c3f 41a5 ba3e
00000020: 9224 023f e491 cb3e c38d 183f 8ec7 4c3f
00000030: 8314 233f ac3f c23e dfab a23e 247f c93e
00000040: c74e 353f d44c 733e cbe4 f73d fd70 103f
00000050: caf0 503f 301d 2d3f a5ed 0f3e fe93 2c3f
00000060: aa36 0b3f dbba bd3e 8436 123f 91e5 443f
00000070: 0ce5 633e b003 dd3e f5fd 8f3e 6d65 1e3f
0.45045716 0.4051013 0.10266113 0.8756151 0.30034977 0.15669344 0.8604275 0.36454204
0.5083705 0.39759743 0.5959131 0.79991996 0.63703173 0.37939203 0.31771752 0.39354813
0.7082333 0.23759776 0.12104186 0.56422406 0.81617415 0.6762266 0.14055498 0.6741332
0.54380286 0.37056622 0.57114434 0.7691279 0.22255343 0.43166876 0.2812344 0.61873513

bias f4 [32]
00000000: c16e 3ebd dfe8 1dbd 7700 93bd 7120 b33d
00000010: c355 8cbd 1fac a3bd c954 8fbd 3905 a83c
00000020: 8696 87bb 0220 72bd fbb5 163d 86a2 eebd
00000030: fd5b 7bbd 6ffa 2f3b 3b81 44bd cf35 c33c
00000040: 99a2 453e 6b04 d03c 731b 27bd 7f03 20bd
00000050: a8ba 44be b5dd 963d 9333 c4bd 4245 d6bb
00000060: ca94 2bbd e62b 4a3c fa40 f1bd 1f82 e3bc
00000070: e83e 073e a07b 063d fb4e 54bc 9347 85bd
-0.046492342 -0.03855216 -0.07177823 0.08746422 -0.06852295 -0.07991814 -0.06998593 0.020510303
-0.004137817 -0.059112556 0.036794644 -0.11652093 -0.061367024 0.002685215 -0.047974806 0.023829369
0.19300307 0.025392732 -0.040797662 -0.039065834 -0.19211829 0.07366506 -0.095801495 -0.006539018
-0.041889943 0.012339568 -0.117799714 -0.027772008 0.1320759 0.03283274 -0.012958284 -0.06507792

running_mean f4 [32]
00000000: 5513 37bf 61be d73d 5c82 d6be 6f79 acbf
00000010: 723d 6f3e 141a 12bf 772e c9be 571f fd3b
00000020: eb61 86be f488 a4bd be23 40bf cfdb d93e
00000030: b0c4 b33e 302f 0abe b37f 063e 69ed 5ebe
00000040: 605a a4be 6b25 43be ecb5 093f 61b1 39be
00000050: 841d 45be 5cb3 18bf 6c44 04bf d372 46be
00000060: f064 e5bd 70ff 92bd c041 723f d410 093d
00000070: 235e 37be ede2 023e 4459 b3be 8f0f c93d
-0.71513873 0.10534359 -0.4189633 -1.3474559 0.23363283 -0.5707104 -0.39293262 0.0077246833
-0.2624658 -0.08033934 -0.7505454 0.42550513 0.35110998 -0.13494563 0.13134651 -0.21770252
-0.321002 -0.19057243 0.53793216 -0.18134071 -0.1924954 -0.5964868 -0.51666903 -0.1937974
-0.11200893 -0.07177627 0.94631577 0.033463314 -0.17907004 0.12781878 -0.35029042 0.09817421

running_var f4 [32]
00000000: 01f7 b33e ccc1 323e 0927 4b3d 4a7f 8e3e
00000010: fbf3 d73d bfe0 333e c4db 813e 06cd f43d
00000020: 2e06 593e 2be9 ec3d 2ff9 a23e 6ada 553e
00000030: 4804 033e 685c 5b3e ab82 933d 7f7f 0e3e
00000040: 74ed 303e 1aca d43d 65bc d93d 39c5 1d3e
00000050: d320 d63d 2125 8f3e a311 b63d d172 5f3e
00000060: 2cb4 013e c9bf d03d 4a4b aa3e 4c62 3a3e
00000070: 30ce a43d 75fa 203e 5512 303e d10c 903e
0.35149387 0.1745674 0.049597774 0.2783149 0.105445825 0.17566203 0.2536298 0.119531676
0.21193764 0.11567911 0.31830737 0.208841 0.12794602 0.21421969 0.07202657 0.13915823
0.17278081 0.1039011 0.106316365 0.15407266 0.104554795 0.27958015 0.08890083 0.21821143
0.12666386 0.1019283 0.33260566 0.1820156 0.0804714 0.15720542 0.17194493 0.28134778

weight f4 [48, 32, 3, 3]
00000000: 2b02 d5bc 5a1e ebbc b6d1 7ebd 1d7c 8e3c
00000010: 6b23 88bc a462 d43b 8f29 ed3c a8ac 653c
00000020: 9853 ddbc c418 debb f517 4dbd ff99 523d
00000030: f347 65bd 4471 8abd 3d13 623d 1e5a 61bd
00000040: d149 7f3d 7f0b 8cbc 10c3 b1bc 79a9 8fbc
00000050: 483c c13b 15b4 d2bc 1938 283b 5b6c 293d
00000060: ddc7 c5bc 6556 653c 510f 063d 4a96 f3bd
00000070: 26d4 65bd 583d 24bd b5bd 54bd fbc0 2abd
00000080: 6606 bb3b aafe fcbc 42a9 2b3d 10dd ac3d
00000090: 6219 dabc c2fe 06bd ca8e 273d 4140 b5bd
000000a0: 6c0a 3dbc 3ece 273d 7eda 7bbc f2a3 023d
000000b0: a0b8 a63c 9f95 283b b36d aabc 63fe 983b
000000c0: 195b 8fbc c120 76bb ef1f bc3c 3422 823b
000000d0: e229 023d 40a1 e63c a181 ab3c 2f3a 52bd
000000e0: be26 36bd 2fab b33b 27a3 12bd d2bc 8f3c
000000f0: 8451 3dbd 3f0e 5c3d 4c1d d03c f7a4 63bc
00000100: ba56 553d c31a 24bd c439 a53d 58e9 2c3d
00000110: 1330 73bd 7dbf 6f3d cb40 763c 1303 aebc
00000120: 9b37 a1bc b52f 4d3d 5cd9 f6ba f1a6 1dbc
00000130: ed9f 8abc 368e 2cbd 937d 4abc 9d1d 04bd
00000140: 12d8 08bc 0ece 9a3c d498 f03b 6a27 c9bc
00000150: c770 84bc b56f f8bd d67c 11be d018 3abd
00000160: a915 00be 8127 a4bd cad7 853d b9fe e2bb
00000170: f9f9 e3bd 9ab8 953d 981e da3c 1e39 9fbd
00000180: d572 453d 363a 8dbd 57d6 2ebd 3bb2 363d
00000190: 04e6 bb3c bbc9 40bd ff28 363d 7b31 2cbd
000001a0: c6d1 99bc 4b40 443a 53f9 a4bb 8bba 673d
000001b0: 86b2 8abc b56e 0ebc 5eca 7ebc 2c27 0abc
000001c0: d182 2a3d c8f2 173d e6c7 7fbd 59a1 ad3c
000001d0: 27c4 263d cdc0 243d 387b 99bc 5c0a bbbc
000001e0: 171a 303d b033 86bd 9d63 ba3c 8e6b 7cbd
000001f0: 585f 10bc eb1d 893c 6321 f33b 0436 573c
00000200: 874d 38bc aca4 1b3d 1a70 7fbc bb3b 3cbb
00000210: dbad cebb f90b f2bb 3c2d 13bc ea22 e2bc
00000220: b27f b73c df59 82bc 270e 983d 8910 893b
00000230: 803b 85bd de9d 50bc 56f8 a5bc 390f cabc
00000240: 44a7 b13d 37c4 a43c d068 1bbe 7e5c 243e
00000250: 4b90 42bd a43c 01be d7ab b03d b45b eabd
00000260: 9c66 7dbc df31 f93c adaa f3bb 1a1f a1bc
00000270: eef3 05bd 798e dcbc 65f7 333d 21e8 0bbd
00000280: 39e1 313d 9fce a63c f8e1 683c a449 7bbd
00000290: 1198 07bd 6158 b93c f541 02bd 5891 ca3c
000002a0: d5f7 023b 6215 273c 44d9 983c 1a0e b93d
000002b0: c181 b9bd b57f 82bd 8cd1 6c3d c505 08be
000002c0: ff9e bb3c 78b6 4ebd 1052 92bd 6f0e 8bbc
000002d0: d56d 1ebc ab6d de3c 1b3f 64bd a552 273d
000002e0: 4c63 c7bc 6fe9 62bd fa01 1f3d 3d15 d0ba
000002f0: a1d5 1fbd 1b81 91ba 425f 103e 207c a13d
00000300: 1ed1 f93c a118 eb3d df36 223d 73ea 063e
00000310: 4d6f 103d 0f5d 50bb 6d75 c33a 440b 2bbd
00000320: d584 3ebc ead3 2abd 2f1d 3dbd a740 083d
00000330: 3815 47bd b8de 99bc 2749 0e3d f9a3 953d
00000340: f3eb 8bbd d7d2 b9bd 9d5c 273d 9dd9 22be
00000350: a965 ee3d 8b48 babd 4d20 5dbd e326 ea3d
00000360: 029c 4c3d f501 dc3c 199f 55bd 03e0 563d
00000370: e3fd 043d a973 cebd b6f6 413d ca04 a23c
00000380: a5b3 17bd a3f4 043d 02b7 8ebd aeef 3fbd
00000390: 28f1 343c 8a2b aabd b0bf c7bc 6b22 0a3d
000003a0: 7cbf 4abd 6542 d33c 8a56 b3bd 6ab7 81bd
000003b0: fb90 5dbd 3917 e0bd 38f8 99bd 6e4c 0d3d
000003c0: b314 a2bd bde5 1bbc 4b99 263d 4db7 81bc
000003d0: 4337 58bc c699 17bc 90c6 8abc ca1a 5cbc
000003e0: 9f3b 2bbd 390b 88bd ab9d efbc 29ab 7bbd
000003f0: cf2d ddbc 1b36 ce3d a2ee 013d f6af 17bc
-0.02600201 -0.028700996 -0.062211715 0.017393166 -0.016618451 0.0064814854 0.02895048 0.014018215
-0.0270174 -0.0067778546 -0.050071675 0.051416393 -0.05597682 -0.06759885 0.05519413 -0.055017583
0.062326256 -0.017095326 -0.021699458 -0.017536866 0.0058970787 -0.025720635 0.0025668202 0.0413631
-0.024143154 0.013997649 0.03272945 -0.118939 -0.056110524 -0.040097564 -0.05193873 -0.041687947
0.00570755 -0.030883152 0.041909464 0.08440602 -0.026623432 -0.0329578 0.04090766 -0.08850146
-0.011538129 0.040968172 -0.015371917 0.03189463 0.020351708 0.0025723947 -0.020804262 0.004668997
-0.017499493 -0.0037556144 0.022964446 0.0039713625 0.031778224 0.028153062 0.020935835 -0.05132502
-0.04447054 0.005483053 -0.035800125 0.017546091 -0.046220317 0.053724524 0.025404595 -0.013894311
0.052084662 -0.040064584 0.080676585 0.04221472 -0.05937202 0.058532227 0.015030096 -0.0212417
-0.019679835 0.050094325 -0.0018833089 -0.009622321 -0.016921962 -0.04212781 -0.012359041 -0.032254804
-0.008352296 0.018897083 0.0073424373 -0.024554927 -0.016167058 -0.121306814 -0.14207777 -0.04543382
-0.12508263 -0.08015347 0.06535299 -0.006927338 -0.11131663 0.073106006 0.026625916 -0.07774566
0.048205215 -0.068958685 -0.04268488 0.044603568 0.022936828 -0.047067385 0.04447269 -0.042039376
-0.018776786 0.0007486387 -0.0050346046 0.056574386 -0.01693083 -0.008693387 -0.015551178 -0.008432191
0.041628662 0.03709677 -0.062446497 0.0211951 0.04071441 0.04022293 -0.018735513 -0.022832088
0.04299363 -0.06552827 0.022752577 -0.06162601 -0.008811794 0.016737899 0.0074197515 0.013135437
-0.011248953 0.03799884 -0.015590692 -0.0028722126 -0.0063073463 -0.007386681 -0.008982953 -0.027604539
0.022399757 -0.015911995 0.07424574 0.0041828793 -0.06505489 -0.012732951 -0.020260017 -0.024665462
0.086744815 0.020113094 -0.15176702 0.16050908 -0.04750089 -0.12620789 0.08626526 -0.11443272
-0.0154663585 0.030419288 -0.0074361176 -0.01966815 -0.032703333 -0.026923405 0.043937106 -0.034156922
0.04342768 0.020362196 0.014214031 -0.061349526 -0.033104006 0.02262515 -0.031801183 0.024727508
0.0019984145 0.010197969 0.018658288 0.09035893 -0.09057952 -0.063720144 0.057817027 -0.13283451
0.022902964 -0.050466985 -0.071445584 -0.016974656 -0.009669741 0.027151903 -0.055724245 0.0408503
-0.02433934 -0.0553984 0.038820244 -0.001587547 -0.03902209 -0.0011101098 0.14098838 0.07885003
0.030495223 0.11479307 0.03960311 0.13175373 0.035262395 -0.0031793748 0.0014912315 -0.04175879
-0.011628349 -0.041706003 -0.04617041 0.033264782 -0.04860422 -0.018782958 0.034737732 0.07306666
-0.06832113 -0.09073418 0.040859807 -0.15903325 0.11640484 -0.09095868 -0.053985883 0.11433198
0.04995347 0.026856402 -0.05215368 0.052459728 0.032468688 -0.10080654 0.047354423 0.019777674
-0.037036557 0.032459866 -0.069685 -0.046859436 0.011043824 -0.08309086 -0.024383396 0.03372423
-0.04949902 0.025788495 -0.087567404 -0.063338116 -0.054093342 -0.10941929 -0.07518047 0.034496717
-0.07914104 -0.009515223 0.040673535 -0.015834475 -0.013196769 -0.009252971 -0.016940385 -0.013434121
-0.041804906 -0.066427656 -0.029249987 -0.061442528 -0.026999382 0.100689135 0.03172172 -0.009258261

bias f4 [48]
00000000: 1f63 e137 4183 48b8 4cdf 5339 d81f 76b8
00000010: bc49 51b7 65d4 edb7 29e9 e037 1a48 3637
00000020: a23b 2db8 b431 ce36 1129 e637 9436 3235
00000030: 407d 4738 2369 3f37 5ae1 2138 701a 9fb7
00000040: 6f14 b237 7c45 10b8 e687 0fb9 5404 0000
00000050: 3301 0080 ff51 6038 890e 30b9 b278 27b8
00000060: e233 28b8 1d00 0000 3e30 4c37 9af7 ce38
00000070: 6836 3c38 f203 0000 7623 eb37 c4c6 eb37
00000080: 0f84 bdb8 5076 ce38 b38a 82b7 bc70 fc36
00000090: 3315 04b8 6643 7939 5d64 dcb8 3659 8238
000000a0: ee92 0c38 7bcf 85b9 e469 f1b8 5ca5 1e37
000000b0: b43c f838 332b d7b5 6bb8 38b9 a04d bc37
2.6868247e-05 -4.7805956e-05 0.00020205713 -5.8680627e-05 -1.2474538e-05 -2.8351506e-05 2.6811455e-05 1.0864833e-05
-4.130195e-05 6.1450646e-06 2.743726e-05 6.638959e-07 4.7561945e-05 1.1408966e-05 3.8595266e-05 -1.8966588e-05
2.1228769e-05 -3.4396988e-05 -0.00013688169 1.553e-42 -4.3e-43 5.3482127e-05 -0.00016790083 -3.992831e-05
-4.010264e-05 4e-44 1.217058e-05 9.868965e-05 4.4873363e-05 1.415e-42 2.8030696e-05 2.810674e-05
-9.03682e-05 9.844883e-05 -1.5561794e-05 7.5233093e-06 -3.1490996e-05 0.00023771598 -0.000105091116 6.2155e-05
3.351544e-05 -0.00025522322 -0.00011511499 9.456035e-06 0.00011836868 -1.6031321e-06 -0.00017616308 2.2447493e-05

weight f4 [48]
00000000: 30d2 8c3e 15fc ca3e 5b6f 883e aaa4 b13e
00000010: b944 403f 3177 2c3e 353a 153f f31a b53e
00000020: da9b 193f a56b eb3e 4d36 c23e 5a3e 023f
00000030: 3210 a03e b88b 983e babd 573f 67ad 103f
00000040: 5dcc 033f dfea 1f3e f68c ee3e d041 083b
00000050: 0a58 803a dc30 963e f622 e03e dd6e 9f3e
00000060: 0fec 183f 6708 07b7 226c 153f 7289 cb3e
00000070: edd9 173f b090 9f3a 4fe2 2a3f 9f6d 293f
00000080: 4771 943e fbef f03e b436 e43e 24c6 423c
00000090: ce45 8b3e c78e 413f 88a1 163e 6f05 c33e
000000a0: b789 1f3f ee18 373f 1b51 123f b257 0b3e
000000b0: 8236 253f e8c8 013f cad1 b83e ec1f 403f
0.2750411 0.39645448 0.26647457 0.3469594 0.7510486 0.16842343 0.5829194 0.35372123
0.60003436 0.45980564 0.37932053 0.5087639 0.31262356 0.29794097 0.84273875 0.5651459
0.5148371 0.1561694 0.4659192 0.002079118 0.0009791863 0.29334152 0.43776673 0.3113927
0.59735197 -8.048583e-06 0.5836812 0.397533 0.59316903 0.0012173858 0.6675157 0.66182894
0.28992674 0.4705809 0.44572985 0.011888061 0.27201694 0.75608486 0.14710057 0.38090083
0.6231951 0.71522415 0.5715501 0.13607672 0.645363 0.50697184 0.36097556 0.7504871

bias f4 [48]
00000000: d054 22bd c29f 5fbe 1f9e 44be 3d0d 16be
00000010: 92e8 8dbe add7 5dbd 7494 70bd 4252 a0bd
00000020: 1869 7cbe 0e75 47be 7324 55bd ac7f 91be
00000030: de9d 73bd 4024 4fbe 4b54 1fbe dbcf 78be
00000040: 01c0 5fbd 36ff e5bd 87aa 39be 337f 4cbb
00000050: 6c05 1fba e8a6 0cbe 61af 04be d968 e5bd
00000060: 95fb 16be b36d aab3 2398 b9bd 33ae f7bd
00000070: 9b5c 1fbe b95c 27bb a49f 95be 6513 6abe
00000080: d67e 3bbd 9f01 32be 49d1 3fbe 6826 39bd
00000090: 6837 2ebe 0509 47be d235 01be 59ab 56be
000000a0: 4b31 2ebe bcde e4bd 84b3 23bd 3428 09be
000000b0: 36e0 0fbe 88e3 16be f66e 37be b956 5cbe
-0.039631665 -0.21838287 -0.19200943 -0.14653488 -0.277165 -0.054160763 -0.058735326 -0.078281894
-0.24649465 -0.19478247 -0.052036714 -0.28417718 -0.059476726 -0.20228672 -0.15559499 -0.2429804
-0.05462647 -0.11230318 -0.18131457 -0.0031203746 -0.00060661766 -0.13735545 -0.12957527 -0.11201639
-0.14744408 -7.936196e-08 -0.09062221 -0.12093773 -0.1556267 -0.0025537445 -0.2922336 -0.22858961
-0.045775257 -0.17383431 -0.1873218 -0.045202643 -0.17013323 -0.19437034 -0.12618187 -0.20963801
-0.17010991 -0.11175296 -0.03996612 -0.13394243 -0.14050373 -0.14735234 -0.17913422 -0.21517457

running_mean f4 [48]
00000000: 443b 35bf cd3b 87bf 4fac 02bf 8549 cebf
00000010: 24d0 18bf 3ad9 613e cd8b 8dbe ca0d c8bf
00000020: 6331 153d 848d c7be 3355 043e 7c0a 7cbf
00000030: ab8c 143e a5b4 b6bf 338c 85bf 0a96 bc3e
00000040: 2a7d c7bf 40a0 8c3c eefc 86bf 0400 0000
00000050: 6a23 7b29 1aeb 91be d46a 41bf 9e64 27bf
00000060: e3b0 6dbf 3ffb 0032 3a46 6fbf 8ff7 7b3e
00000070: dafa 32bf 157f 0730 0ab9 3fbf 8259 1dbf
00000080: 3aa8 87bf 9ff4 043e 14ed ca3e b72e 243d
00000090: 21e1 9cbf d5c1 25bf 6e6c d1be ebdd 89bf
000000a0: 2fab 9fbe 1e85 b3be d58b 7fbf 7cde a9bd
000000b0: de63 67bf 3df0 5d3e a690 43bf 1d34 3dbf
-0.7079356 -1.0565125 -0.5104417 -1.6116186 -0.596926 0.22055522 -0.27645722 -1.5629208
0.036424052 -0.38975155 0.12923126 -0.984535 0.14506786 -1.4273878 -1.043341 0.3683322
-1.5585072 0.017166257 -1.0545938 6e-45 5.5763913e-14 -0.2849968 -0.7555363 -0.65387905
-0.9284803 7.507707e-09 -0.9346653 0.24606155 -0.6991402 4.929331e-10 -0.7489172 -0.61464703
-1.0598214 0.1298394 0.39634 0.040083613 -1.2256204 -0.6474889 -0.40903038 -1.0770849
-0.3118529 -0.35062498 -0.9982274 -0.08294389 -0.9038676 0.21673675 -0.7639259 -0.73907644

running_var f4 [48]
00000000: fab0 af3e f966 363f 6e45 6b3e c61e 1e3f
00000010: ec0b 833f 95d5 d43d fd56 ef3e 8742 cd3e
00000020: 35e9 7f3e 50f3 9a3e 4179 bb3e 0eb7 2d3f
00000030: 4d94 8f3e 5bc6 dd3e d45a 1d3f 1e75 f33e
00000040: 642e 9a3f 3e81 1e3e fe74 a83e 0400 0000
00000050: 0400 0000 5006 863e 17fc f73e a076 9a3e
00000060: 1017 013f cdaa 0027 4deb 6f3f 4a26 8c3e
00000070: 7ebd 0d3f 220e af1d b732 df3e 80df 163f
00000080: c9e7 343f d700 183f 491b 1b3f 5641 bd3a
00000090: d483 f43e 4a8b c03e 979d cf3d 1638 7c3e
000000a0: de2a d63e 39d4 0b3f 9418 663f 77f5 c23d
000000b0: 6063 0f3f 1c26 0a3f f3c0 a73e 448c 373f
0.3431471 0.71250874 0.22975704 0.61765707 1.0238013 0.103923 0.46746054 0.4008982
0.24991305 0.30263758 0.36615947 0.67857444 0.28042832 0.43315396 0.6146672 0.4755029
1.2045407 0.1547899 0.32901758 6e-45 6e-45 0.2617669 0.48434517 0.3016863
0.50425816 1.785616e-15 0.93718415 0.27372962 0.5536727 4.6336727e-21 0.4359338 0.58934784
0.70666176 0.5937628 0.6058851 0.0014439027 0.47756827 0.3760627 0.1013748 0.2463077
0.4182958 0.546207 0.89881253 0.09519475 0.5601101 0.539644 0.32764396 0.71698403

weight f4 [64, 48, 3, 3]
00000000: 38fe 26bc 299f 563c 4a9a 8c3c 3acf 4fbc
00000010: a14e 383d 06fc 093d 31ff 4e3c 738c 46bb
00000020: 9548 c23c d8b9 74bd e287 25bd 1cb5 353d
00000030: 0f4f 91bd c5c4 92bd 2d5a acbc efeb 2ebc
00000040: f4af 16bd 080e bb3b 064b 2b3d d662 043d
00000050: 5f6e 593c d741 e6bc 6aeb 85bd f2e7 08bd
00000060: 611e 95bd abdc c6bd 0c33 24bd 679c 1fbb
00000070: 35d2 ad3b a80f 1c3d 77ba 82bc 50c6 30bc
00000080: 2d25 093c 069e 2e3d 7c82 f53b 1fc6 583d
00000090: 01c4 b93d 5d8a 9f3d 71d3 da3c 38c1 ff3d
000000a0: 7837 643d 43d8 003d 77ef a93d 8986 9b3c
000000b0: cafb b5bb 887b e63c 8d10 103d 0c51 4abd
000000c0: b3c1 3d3c 93df 7a3c 6f29 a1bc f2d5 cabc
000000d0: 92f4 15bd 6eb8 44bd cd59 d6bb 3c10 6fbc
000000e0: 57e9 5dbb 5a6e a8bc 905b cabd 6412 13bd
000000f0: 52db da3a d7f5 76bd a202 b5bd b579 dfbc
00000100: 5709 d5bc b617 fd3c eb14 28bd 40a5 93bc
00000110: 316f 023d fd68 dcbb 50b8 e2ba 97db 403d
00000120: 92d2 823d 3a32 7ebb e699 fcbc 8835 7f3d
00000130: 9256 c83c b437 06bd 76aa 6abb 66e8 07bd
00000140: ec05 01be 4fd5 b03b 2d3d b3bd 9f43 e3bc
00000150: a5c3 873d f608 22bd 52a5 b8bd 8eb6 4cbd
00000160: 124e 00bd 67cf 0abe 75dd afbb 4119 ae3c
00000170: 37da 4e3d 679f b93c 86cf a53c f79c a23d
00000180: da46 3b3c 8a88 f83c 5ad7 143d abf1 a1bb
00000190: e357 da3c 030d 2b3d 15bf 09bd 0429 20bd
000001a0: ad73 3bbc 9162 15bd e7b5 75bd 4b23 71bc
000001b0: 124f 153e ac97 203d 5edf 05bd 870b 293e
000001c0: e576 a83d 460d ecbb 9e3c 663d 1ef0 ec3c
000001d0: a117 03bc 3818 c13c 0653 a5bc b42c ca3b
000001e0: 2a56 e5bc a53f a93b cc8b 283b 5aea 83bc
000001f0: 29a4 103c 352c 1d3c 01dc 6d3d 15af 2c3d
00000200: 8470 bcbc 099a 8a3d aa83 883d 6481 d03c
00000210: c67a a33d 79a9 343d 9242 80bc bb00 043e
00000220: 9ad5 773d df89 013d caeb 193e 1a0e 563d
00000230: 0f40 8c3c 298b 723d 16e5 e53c a81c 823c
00000240: fcee c73d 7e8b 0b3d 4003 da3c 0387 a73d
00000250: 4607 053d 4946 823d 4e30 fe3c 773d f93c
00000260: f29c 733d 0f10 2ebd 52a3 cdbb 5e42 06bd
00000270: e947 663d e8ef 1e3d 82ae 12bd 1f1e c83c
00000280: 3039 1e3d 871a 49bd e3f5 7cbb dc65 e5bc
00000290: 5daa b23c a0fd 4b3d 6f77 c53c cd91 453c
000002a0: a8b1 9abb 1921 303c 37c2 14bd 9400 0080
000002b0: 3700 0080 9b00 0000 6900 0000 1c00 0000
000002c0: 8500 0080 9a00 0080 2000 0000 5000 0000
000002d0: 4800 0080 8700 0000 8600 0080 6600 0000
000002e0: 5d00 0080 5c00 0000 5100 0000 6c00 0000
000002f0: 3b00 0080 8bab 1a3d 11bd 7fbc af2a 5abd
00000300: 73e0 d33d 95ae d63c 3e1e bbbd 36af f93d
00000310: 89f1 9d3c 12da d8bd d1bb d83d f2fe fe3b
00000320: 22ed e3bb 3013 b13d ce34 58bd d599 c9bd
00000330: 95e0 953d dc96 51bd 50e4 e4bd e9df 9fbc
00000340: 3b0f 12bc c4a9 5fbd 16ca d1bc 744f 11bc
00000350: c9b3 75bd e406 b73c 9dae c93b fcea ccbd
00000360: 7fd5 a03d 19cf f33d 7260 853d 3da2 d23d
00000370: 4925 7e3d 66f2 903d 6951 443c 9278 5d3d
00000380: c3d9 f43c 9001 0000 3800 0000 6201 0080
00000390: 8c01 0080 3401 0000 7601 0000 cb01 0000
000003a0: 4901 0000 5101 0000 fb51 653d b4b5 41bd
000003b0: e473 67bc 71c9 9e3d cced f93b 0b55 7ebd
000003c0: 4fea eabd 6f79 dfbd cbcc 81bd 844a 8fbd
000003d0: 158e 81bd e35c 86bd 0742 c03c dc83 db3c
000003e0: 57c5 36bd 319a 353d b4e4 1abc 4ef3 97bc
000003f0: e15f c53d b8e7 dabc dc3a 82bd bac7 f03d
-0.010192446 0.01309947 0.017163415 -0.012683684 0.04499686 0.033687614 0.012634085 -0.0030296117
0.02371625 -0.059747547 -0.04041279 0.044362172 -0.07095157 -0.07166437 -0.021039093 -0.010676368
-0.036788896 0.0057084598 0.041819595 0.03232082 0.013270943 -0.028107567 -0.06539042 -0.033424325
-0.07281185 -0.09710058 -0.040087745 -0.0024354698 0.0053045996 0.03810087 -0.015958054 -0.010789469
0.00837068 0.04263117 0.0074923616 0.052923318 0.09070588 0.077900626 0.026712151 0.124880254
0.05571696 0.031456243 0.082976274 0.01898505 -0.0055536972 0.028135076 0.035172034 -0.0493937
0.011581826 0.015312093 -0.019673077 -0.02476022 -0.036610194 -0.04802745 -0.006541467 -0.014591273
-0.0033861005 -0.020560432 -0.098807454 -0.03590621 0.0016697443 -0.060293045 -0.08838393 -0.027279714
-0.02600543 0.030895095 -0.041035574 -0.018023133 0.03184432 -0.0067263828 -0.0017297361 0.047084417
0.06387819 -0.0038787262 -0.030835103 0.06230691 0.024455342 -0.032767966 -0.003580717 -0.033180617
-0.12599915 0.005396522 -0.08751903 -0.027742205 0.06629113 -0.039559327 -0.09015907 -0.049978785
-0.031324454 -0.1355568 -0.005366976 0.021252276 0.050501075 0.022659017 0.020240556 0.07940095
0.011430467 0.030338544 0.036338188 -0.004942139 0.026653236 0.041760456 -0.033629496 -0.039101616
-0.0114411535 -0.036470953 -0.05998793 -0.014717887 0.14580944 0.039207146 -0.032683723 0.16508304
0.08225802 -0.0072037308 0.056210153 0.02892309 -0.008001239 0.023571119 -0.02018119 0.00616988
-0.027995188 0.0051650577 0.002571809 -0.016102958 0.008828201 0.009593059 0.05807114 0.04215916
-0.02300287 0.06767661 0.06665738 0.025452323 0.079824015 0.044106934 -0.015656743 0.12890904
0.06050644 0.031625625 0.15031353 0.052259542 0.01712039 0.059214745 0.028063338 0.015882805
0.097623795 0.034068577 0.026612878 0.08180048 0.03247764 0.06361062 0.031028893 0.030424817
0.059475847 -0.042495783 -0.006275573 -0.032778136 0.056220923 0.03880301 -0.035810955 0.024428425
0.038628757 -0.049097564 -0.0038598708 -0.028002672 0.021809751 0.049802423 0.024104802 0.012058687
-0.0047208853 0.010750079 -0.03631803 -2.07e-43 -7.7e-44 2.17e-43 1.47e-43 3.9e-44
-1.86e-43 -2.16e-43 4.5e-44 1.12e-43 -1.01e-43 1.89e-43 -1.88e-43 1.43e-43
-1.3e-43 1.29e-43 1.14e-43 1.51e-43 -8.3e-44 0.037761252 -0.015609042 -0.053263362
0.10345545 0.026206294 -0.091366276 0.12191622 0.019280212 -0.105884686 0.10582698 0.0077818567
-0.0069557587 0.08646238 -0.052784733 -0.09843794 0.07318226 -0.05116926 -0.1117636 -0.019515948
-0.008914764 -0.05460526 -0.025609057 -0.008869041 -0.05998591 0.022342153 0.0061548487 -0.10005757
0.07853221 0.11904735 0.06512536 0.10284851 0.062047277 0.07077484 0.0119823 0.054070063
0.029888993 5.6e-43 7.8e-44 -4.96e-43 -5.55e-43 4.32e-43 5.24e-43 6.43e-43
4.61e-43 4.72e-43 0.055986386 -0.047292426 -0.014126752 0.07753266 0.0076272245 -0.062092822
-0.11470472 -0.109118335 -0.06337889 -0.069966346 -0.06325928 -0.065606855 0.023468984 0.026796274
-0.04462179 0.0443365 -0.009453941 -0.018548634 0.09637428 -0.02672182 -0.06358883 0.11756845

bias f4 [64]
00000000: 31a0 43b7 5cb2 3e37 5867 9637 e502 0080
00000010: b138 1338 b838 8338 15b5 ae37 00ef b5b5
00000020: faf4 8ab6 6e65 cab8 49ca ac38 1e57 25b8
00000030: f8bd 5cb8 0903 0080 f4c8 f537 fde8 a2b8
00000040: 61e3 d437 e47f 14b8 fdce dcb6 c374 0bb8
00000050: b0ff 07b7 0b0f 05b8 f8b0 4537 1802 4638
00000060: c0e7 7538 4af5 6736 764b 5e37 4550 3e37
00000070: 22fd 5033 7d67 6f37 378d 8a37 35e2 9cb7
00000080: e25a 3c36 a577 3b38 ef31 2138 369e 8ab7
00000090: 9fdc f737 62ab 0437 ec5e cbb7 4730 3db8
000000a0: fc01 0000 2800 0000 d7da 2eb8 8ea1 f3b6
000000b0: 64de 1a37 2ad7 f0b6 841f 65b8 8050 9f35
000000c0: e108 33b7 c003 f4b8 81e6 0338 42ec b5b8
000000d0: 8318 f137 0546 1d38 62f5 c637 11c5 84b7
000000e0: f312 5db8 e1c1 a0b8 d6fd 9ab7 d3fc 7d36
000000f0: 0c48 76b8 ed92 9238 f7b6 6737 35e9 1138
-1.1660203e-05 1.136641e-05 1.7929517e-05 -1.038e-42 3.510033e-05 6.2571315e-05 2.082674e-05 -1.3555109e-06
-4.1412395e-06 -9.651003e-05 8.239278e-05 -3.94202e-05 -5.262901e-05 -1.089e-42 2.9299852e-05 -7.7681594e-05
2.5378251e-05 -3.5405057e-05 -6.5806075e-06 -3.3248925e-05 -8.106159e-06 -3.172368e-05 1.1783319e-05 4.720883e-05
5.8628386e-05 3.456446e-06 1.3249801e-05 1.1343572e-05 4.8658997e-08 1.4269605e-05 1.651664e-05 -1.8701985e-05
2.8067084e-06 4.4695702e-05 3.8431896e-05 -1.6524555e-05 2.954743e-05 7.907716e-06 -2.4243687e-05 -4.5106073e-05
7.12e-43 5.6e-44 -4.1688643e-05 -7.260772e-06 9.230895e-06 -7.1776058e-06 -5.4627206e-05 1.1869852e-06
-1.0671299e-05 -0.00011635525 3.1447507e-05 -8.674759e-05 2.8740853e-05 3.7496928e-05 2.3717705e-05 -1.5827392e-05
-5.2708154e-05 -7.665507e-05 -1.8476432e-05 3.78471e-06 -5.871807e-05 6.9891896e-05 1.3811273e-05 3.4787885e-05

weight f4 [64]
00000000: 1ab3 ff3e 4688 c63e e36e 5f3e 98e2 0035
00000010: 116c c13e 2e5b 003f b095 213f 3d7a 3b3f
00000020: d9d7 013e 7f51 9e3e 4a9d 603e dba2 233f
00000030: d4a2 213f 413b 1a3a ca3c 6b3e 674f f53e
00000040: 436f ce3e 9e24 353f ccf5 8d3d dfdf 883e
00000050: 84e3 e93d 41a5 673e d3b6 2e3f d1e6 283f
00000060: 7d2a 3e3f 18b5 873e a142 293f b6b3 2d3e
00000070: ca3b 243f 90fa 3f3f bfa8 c13e 406d 373e
00000080: 4568 9e3e 1daa 053f da43 913e 3f6e 9b3e
00000090: 941b 253f af1c 333f d9a3 483e de55 573f
000000a0: 7630 e82d 1536 9339 c434 953e e22b 233f
000000b0: e67f c93e 043d 0a3e 7763 dd3e 8299 083f
000000c0: 1fbc ab3e c307 e53e 1184 c73e 6d0c 133f
000000d0: e4ac c53e ae5a b13e e456 a03e 6527 053f
000000e0: 3a67 053f 24a8 fe3d 9332 223f 7eea 4c3c
000000f0: 8fba 2c3f bba3 123f 9d85 113e 8744 de3e
0.4994133 0.38775843 0.21819644 4.8013453e-07 0.3777776 0.5013913 0.6311903 0.73233396
0.12679996 0.30921552 0.21935001 0.6392037 0.6313908 0.00058834633 0.22972408 0.47912142
0.4031926 0.70759 0.06931648 0.267333 0.11420348 0.22621633 0.6824772 0.659772
0.7428358 0.2650535 0.6611729 0.16963086 0.6415373 0.74991703 0.37824056 0.1791277
0.30938926 0.522127 0.2837208 0.3035755 0.64495206 0.6996564 0.19593753 0.841154
2.6396867e-11 0.0002807832 0.2914182 0.63738835 0.3935539 0.13499838 0.43239948 0.53359234
0.33541963 0.44732484 0.38967946 0.57440835 0.38608468 0.34639496 0.31316292 0.52013236
0.52110636 0.12434414 0.6335842 0.012507079 0.67472166 0.5728108 0.14211126 0.43411657

bias f4 [64]
00000000: 8511 0abe 5495 96be a4bd 27be 988f 86b2
00000010: 562d 7ebe 9776 6bbe 1ec6 f1be 015e 68be
00000020: 696e 75be afd0 7cbe 5c93 46be 794f a3be
00000030: 0546 e9bd bd7a 71b8 55bb 0cbe 7d37 d7be
00000040: 5279 13be f419 babd 6949 d7bd dcac 0ebe
00000050: 4906 16be cd8c 4fbe c5b8 99be ff15 5bbe
00000060: 435d 38be a06c 59be 9d14 b5bd 0cb1 14be
00000070: 5668 4fbe 4f68 65bd d1a7 14be 697b 19be
00000080: f07e babe 9b4d ccbe 8a77 46be 8ddb a6be
00000090: 930a 80be 3120 7ebe c3e2 8bbe 8139 29be
000000a0: 7af4 979f 6d68 21b8 470b 9ebe a371 41be
000000b0: 8b6d 8cbe 82a0 00be ccdc c9be 5e82 90be
000000c0: 2a17 55be 19c4 83be 6b64 83be e44f 94be
000000d0: 40ad 6ebe 5d2d c1be e6e7 0cbe a1f2 c4be
000000e0: b42b b6be 839f 7cbe 3c39 91be 6877 31bd
000000f0: d36b 71be 4988 58be 58d9 35be 2ba2 94be
-0.13483246 -0.29410803 -0.16380936 -1.5664952e-08 -0.24821982 -0.22994457 -0.47221464 -0.2269211
-0.239679 -0.24688981 -0.1939215 -0.3189657 -0.11390308 -5.7573186e-05 -0.13743336 -0.42034522
-0.14401749 -0.090869814 -0.10512049 -0.13933128 -0.14650835 -0.20268555 -0.3002378 -0.2139511
-0.18004327 -0.21232843 -0.08841822 -0.14520663 -0.20254645 -0.05600768 -0.14517142 -0.14988483
-0.3642497 -0.39902958 -0.19381538 -0.3258938 -0.25008067 -0.24816968 -0.27321443 -0.16525842
-6.435544e-20 -3.8482645e-05 -0.3086798 -0.18891005 -0.27427325 -0.12561229 -0.39426267 -0.28224462
-0.20809618 -0.25735548 -0.2566255 -0.28967202 -0.23308277 -0.37729922 -0.13760337 -0.3846636
-0.35580218 -0.24670224 -0.2836398 -0.043326765 -0.23576288 -0.21145739 -0.17758691 -0.29029974

running_mean f4 [64]
00000000: d698 cd3e dadb 3bbe fb59 853e cc52 dd2f
00000010: 705c a13f 4d25 2dbf 979d ffbe f033 83bf
00000020: b9ac 133d fd7c 47be 9ce6 c5bd a523 62bf
00000030: 935c 3cbf abd9 5c26 89a0 96be ec90 3fbe
00000040: 8fa4 11bf 3658 ccbf 37e8 e93d 60b0 b8be
00000050: 21e5 07be bf5c d63e c79d f6be 38e0 89bf
00000060: 07d0 4ebe 2f9c a33d 75dd 05bf 4aa1 f0bd
00000070: f8af a5bf ed4c 3bbf b64d 11bf 4b41 103e
00000080: 91a4 c1be ded7 a5be 133c 61be dc4d 153f
00000090: 9b29 7e3c 9971 543d a6f7 8d3e 7117 933e
000000a0: 96e3 2531 43d8 9106 4532 36be 1aab 423f
000000b0: 01f4 d13d 1067 19bf 53af c8be 3628 043f
000000c0: f2dd 3f3d 40c7 bdbe c9e0 59bf 451a a3bd
000000d0: b5b4 3a3f 46a4 38be 8ae9 03be 6779 c2be
000000e0: 660c 53bf 3b4c 1dbe a180 7abf b656 883b
000000f0: acbd aabd 818e c6be b34d 02bf c7d1 8bbe
0.40155667 -0.18345585 0.26045212 4.0258497e-10 1.2606335 -0.6763504 -0.4992492 -1.0250225
0.036053393 -0.19481273 -0.09663126 -0.8833564 -0.7357876 7.662283e-16 -0.29419354 -0.18707627
-0.5689172 -1.596442 0.114212446 -0.36072063 -0.13271 0.41867635 -0.4816725 -1.0771551
-0.20196544 0.07988774 -0.5229104 -0.117495134 -1.2944326 -0.73164254 -0.567592 0.14087407
-0.37820867 -0.32391256 -0.21995573 0.5832193 0.015512849 0.051866148 0.27728003 0.28728822
2.4140028e-09 5.4860706e-35 -0.17792614 0.7604233 0.10251618 -0.59922886 -0.39196262 0.5162386
0.046842523 -0.37066078 -0.8510862 -0.07963995 0.7293199 -0.18031415 -0.12882057 -0.37983248
-0.82440794 -0.15361111 -0.9785252 0.0041607274 -0.08336958 -0.38780597 -0.5089981 -0.27308485

running_var f4 [64]
00000000: e7ee a03e fb04 293e c6f3 183e 546f 5d23
00000010: e324 a53e 4013 4d3e 30a1 643e 810b 103f
00000020: 5a68 ea3c 2841 ac3d 9fa7 d43d 274a 6a3e
00000030: 22ee 863e 0400 0000 38c1 bb3d e99e 123e
00000040: eb82 5b3e dfd1 093f 6791 d63c 9595 c13d
00000050: 5435 d23c 1f7e aa3d ee9c 513e 29c3 f53e
00000060: 5fc2 f03e 12a0 9f3d 6105 df3e d27e 523d
00000070: aab3 0a3f 3699 cc3e 1453 663e 497e 8b3d
00000080: 52f9 ef3d a2e7 3e3e 2058 a73d b021 b63d
00000090: b26f 663e 5930 db3e 3b25 783d 9465 d23e
000000a0: f9f8 a524 1f09 0000 f465 f53d 4bc2 833e
000000b0: 2f4a 283e 3626 063d f63e 733e f073 853e
000000c0: 8c11 4d3e 80d5 793e ded8 7c3e 7747 573e
000000d0: 87b2 783e 3921 f53d 5c74 0b3e a822 423e
000000e0: 7fe4 523e e6f9 5e3d 95fb d63e a2c1 a239
000000f0: a5c5 b73e d9a4 4b3e 4eea 803d 233c 283e
0.31432268 0.16505806 0.14936742 1.2004009e-17 0.32254705 0.20026875 0.22327113 0.56267554
0.028614212 0.08410865 0.10383534 0.2287985 0.26353556 6e-45 0.09167713 0.14318432
0.2143666 0.5383586 0.02619238 0.09452359 0.025660194 0.08324837 0.2047002 0.48000458
0.47023293 0.07794203 0.4355879 0.051390477 0.54180396 0.3996064 0.2249263 0.06811196
0.11717476 0.18643048 0.081711054 0.08893144 0.22503546 0.42810324 0.06058238 0.41093123
7.197912e-17 3.272e-42 0.11982337 0.2573417 0.16434549 0.032751285 0.23754486 0.26065016
0.20026225 0.2439785 0.24692103 0.21023355 0.24286853 0.11969227 0.13618606 0.18958533
0.20594977 0.05443754 0.41988817 0.00031043316 0.35892978 0.19887103 0.0629469 0.1642919
