models/model_all_fold_0_thresholding_5_l2.pkl (torch_old, 711428 bytes, 38 tensors)

weight f4 [16, 3, 3, 3]
0	0x39264ab6	0.00015858826
1	0x3d0e6044	0.034759775
2	0x3dd573ee	0.104225025
3	0xbccf78ec	-0.025326215
4	0xbca5453a	-0.020174611
5	0xbd6c5c29	-0.05770508
6	0x3da4d4b7	0.08048385
7	0x3d05eab6	0.03269454
8	0x3dfdb40a	0.12387855
9	0xbd998918	-0.07496852
10	0x3d150ba8	0.03638807
11	0xbe2c1100	-0.1680336
12	0xbdb785d0	-0.089610696
13	0xbd112e36	-0.03544446
14	0x3c839c68	0.016065791
15	0xbda75fac	-0.08172545
16	0x3ccd15f5	0.025034884
17	0xbded2450	-0.11579192
18	0x3e0c8ff3	0.13726787
19	0xbd1db012	-0.03849799
20	0xbd47b980	-0.04876089
21	0x3e4543ee	0.19264194
22	0x3dbe31d2	0.09286846
23	0x3e16524c	0.14679831
24	0x3d8da1bb	0.06915613
25	0x3bb38a9d	0.0054791705
26	0xbdf10085	-0.11767677
27	0x3de5b202	0.11215593
28	0x3e34d9ec	0.17661256
29	0x3e164470	0.14674544
30	0xbe248f68	-0.1607033
31	0x3db98a76	0.090596125
32	0xbe035dec	-0.12828797
33	0xbd8bbf7e	-0.068236336
34	0xbd3406ef	-0.043951925
35	0xbe215561	-0.15755226
36	0x3c8dd96c	0.017315589
37	0x3e1dc6c7	0.15407859
38	0x3e5cd385	0.21565063
39	0x3bda4c76	0.006661947
40	0x3d92f170	0.07174957
41	0x3d607f4d	0.054808903
42	0xbe242347	-0.16029082
43	0xbe373ac4	-0.17893511
44	0x3cb2133d	0.02173769
45	0xbbeb9fb5	-0.0071906694
46	0xbdcbde44	-0.09954503
47	0x3cd6e9cc	0.02623453
48	0x3e2fcf26	0.17168865
49	0xbd4508c6	-0.04810407
50	0x3df37215	0.11886994
51	0x3d5d60f8	0.054047555
52	0xbe5a501f	-0.21319626
53	0xbdab0c2f	-0.08351933
54	0xbd5ec7a1	-0.0543896
55	0x3e18a635	0.14907153
56	0x3d793872	0.060844846
57	0xbe651d9b	-0.22374575
58	0xbe334db8	-0.17510116
59	0x3d836a5c	0.06416771
60	0xbe1e80f3	-0.15478878
61	0x3e085f9e	0.13317725
62	0x3e201022	0.15631154
63	0xbbe197b0	-0.0068845376
64	0x3b8b7f8a	0.004257147
65	0x3dd26c5b	0.102745734
66	0xbdcfe36b	-0.101507984
67	0xbd6dd997	-0.058068838
68	0x3e3b3c17	0.18284641
69	0xbd92cc61	-0.071678884
70	0x3e09800c	0.13427752
71	0x3e08da90	0.13364625
72	0xbe5297d5	-0.20565732
73	0x3dc80674	0.09766856
74	0x3d41eb80	0.04734373
75	0xbd35db14	-0.044398382
76	0xbd49b561	-0.049245242
77	0x3d98dfa3	0.0746453
78	0xbe2b5e63	-0.16735224
79	0x3dbc5730	0.09196317
80	0xbd36807d	-0.04455613
81	0xbd5e08b3	-0.054207515
82	0xbcd1fdae	-0.02563366
83	0xbe3371b7	-0.17523848
84	0xbcac4d83	-0.021033054
85	0x3e069577	0.13142954
86	0xbcebdb07	-0.028790964
87	0xbc5dd675	-0.0135399
88	0xbd536e33	-0.051618766
89	0xbddfc200	-0.109256744
90	0xbe485190	-0.19562364
91	0x3d87fe47	0.066402964
92	0xbe2e9908	-0.17050564
93	0x3e28cb51	0.16483809
94	0x3de93f25	0.11388997
95	0x3c81c27f	0.015839813
96	0x3cebbb31	0.028775783
97	0xbd30095b	-0.042977672
98	0xbcba56de	-0.0227465
99	0x3d2bcc7a	0.04194305
100	0x3d3b1b3f	0.04568028
101	0x3b5279f5	0.003211615
102	0xbd08e230	-0.033418834
103	0x3e45da02	0.19321445
104	0xbdfe73f6	-0.124244615
105	0x3d9d3a1b	0.07677098
106	0x3e3d9cbc	0.1851682
107	0x3e2beb6e	0.16789028
108	0x3de76af0	0.112996936
109	0x3d9c5305	0.07633022
110	0xbe1a3087	-0.15057574
111	0x3dfee983	0.124468826
112	0x3d8af342	0.06784679
113	0xbe1297ee	-0.14315769
114	0xbdca0b91	-0.09865487
115	0x3da886c1	0.08228827
116	0xbe494332	-0.19654539
117	0x3de84593	0.11341395
118	0x3df80a26	0.12111311
119	0xbe45ae00	-0.19304657
120	0x3e291637	0.1651238
121	0x3d1d1bea	0.0383567
122	0xbd76096a	-0.06006757
123	0x3e3ba503	0.18324666
124	0xbdd32dce	-0.10311471
125	0xbe004326	-0.12525615
126	0x3e0e46d0	0.138942
127	0xbe249912	-0.16074017
128	0x3cb66848	0.022266522
129	0xbd718dbd	-0.058973063
130	0x3c262a1c	0.010141876
131	0x3dba91e7	0.0910986
132	0x3e448658	0.19191873
133	0x3d13a300	0.03604412
134	0xbe0c1421	-0.13679554
135	0xbdaf9150	-0.08572638
136	0x3dc87254	0.09787431
137	0xbd24ba5c	-0.04021679
138	0xbe20c7bd	-0.15701194
139	0xbe084b0a	-0.13309875
140	0xbd3f2de1	-0.046674613
141	0x3d9aaa68	0.07552034
142	0x3df10934	0.117693335
143	0x3d04db31	0.0324356
144	0x3d42a1db	0.04751764
145	0xbced12fb	-0.028939715
146	0x3d9e263d	0.07722137
147	0xbe5dbaa9	-0.21653236
148	0xbe02cb3f	-0.12772845
149	0x3d94c509	0.07264144
150	0x3dbe1e25	0.09283093
151	0x3e34d783	0.17660336
152	0x3cbfce82	0.0234139
153	0xbc19d1af	-0.009388371
154	0x3cd697dd	0.02619546
155	0xbdbec897	-0.09315603
156	0xbe25fdd5	-0.1621011
157	0x3d8108ae	0.06300484
158	0xbd6159b1	-0.055017177
159	0x3d544f15	0.05183323
160	0x3dfaf733	0.12254181
161	0xbd21cd05	-0.039502162
162	0x3e023f14	0.12719375
163	0x3de83de2	0.11339928
164	0x3df056de	0.117353186
165	0xbbba1839	-0.005679157
166	0xbdddca57	-0.10829609
167	0xbe1e4722	-0.15456823
168	0x3db87469	0.090065785
169	0x3d4c07c2	0.049812086
170	0xbe151373	-0.145582
171	0x3e4c94af	0.19978593
172	0xbdf57e57	-0.11986988
173	0xbe2e2a23	-0.17008261
174	0x3df87ef1	0.12133587
175	0xbdc78f2c	-0.09744105
176	0xbd85e638	-0.06538051
177	0x3e391feb	0.18078582
178	0x3ce3ccc6	0.027807605
179	0xbdba39ba	-0.09093042
180	0x3dcfd3b1	0.10147799
181	0x3de7ed90	0.11324608
182	0xbe23ff95	-0.16015466
183	0x3e172127	0.1475874
184	0xbd76276e	-0.060096197
185	0xbde29a75	-0.110646166
186	0x3de10968	0.10988122
187	0xbe138dac	-0.14409512
188	0xbe3056e3	-0.17220645
189	0xbdc568d3	-0.09639134
190	0x3db42d31	0.08797682
191	0x3d6fd812	0.05855567
192	0x3df0a2f9	0.117498346
193	0xbd8b3c61	-0.06798626
194	0x3e2d4564	0.16921002
195	0xbd22bc9d	-0.039730657
196	0xbdfd50a2	-0.12368895
197	0x3e02c968	0.12772143
198	0x3e5b3248	0.214059
199	0xbb87476a	-0.0041283863
200	0x3d415123	0.04719652
201	0x3dda9cb5	0.10674421
202	0x3e1db5a7	0.15401326
203	0xbc33b133	-0.010967541
204	0x3de016a6	0.1094182
205	0xbd25a061	-0.040436152
206	0x3cdba33a	0.02681123
207	0xbe182679	-0.14858426
208	0xbe25dde1	-0.16197921
209	0xbe4092e0	-0.18806028
210	0xbe4535a4	-0.19258744
211	0xbe356626	-0.17714748
212	0xbe4fbefe	-0.20287701
213	0xbe130f4f	-0.14361309
214	0x3d4399b5	0.04775401
215	0xbe79b547	-0.24385558
216	0xbe04d379	-0.12971295
217	0xbcee7b1f	-0.029111443
218	0xbd8b1a63	-0.06792142
219	0x3d100adc	0.035166606
220	0xbe1fe85f	-0.15615986
221	0xbe3da801	-0.1852112
222	0xbe4b7b43	-0.1987124
223	0xbe0d69ca	-0.13809887
224	0xbe5f3805	-0.21798714
225	0x3e6219f8	0.22080219
226	0xbc03e67c	-0.008050557
227	0xbda8bd57	-0.08239239
228	0x3e0382b3	0.12842827
229	0x3db2661f	0.08710884
230	0x3e1293c6	0.14314184
231	0x3dd08838	0.10182232
232	0x3d6a4780	0.057197094
233	0x3cf29211	0.029610666
234	0x3b97275c	0.0046128463
235	0xbde0911f	-0.1096518
236	0x3dd04b7e	0.10170649
237	0x3de0b7cd	0.10972557
238	0x3e15dee6	0.1463581
239	0xbdbf40ac	-0.09338507
240	0xbce33904	-0.027737148
241	0x3e0e5d37	0.13902746
242	0x3e1070f8	0.14105594
243	0x3b02e5fb	0.0019973505
244	0xbc0fff07	-0.008788831
245	0xbdcaba75	-0.09898845
246	0xbd2c5c50	-0.042080224
247	0xbddf7e4b	-0.1091276
248	0x3d53999e	0.051660173
249	0x3d256ee6	0.040388964
250	0xbd9104cc	-0.07080993
251	0x3e44af97	0.19207607
252	0xbca45041	-0.0200578
253	0xbd65b0af	-0.0560767
254	0xbe1e8529	-0.15480484
255	0xbe42fdb6	-0.19042096

bias f4 [16]
0	0xb7fffe0c	-3.0516669e-05
1	0xb9a073bc	-0.00030603807
2	0x394d9d17	0.00019608844
3	0x3a6afdf3	0.0008964233
4	0x38bdf15d	9.05718e-05
5	0xb8e5a129	-0.00010949589
6	0xba13f594	-0.0005644199
7	0x3a629dd0	0.0008644732
8	0x38664a26	5.490533e-05
9	0xb9aca3f5	-0.00032928554
10	0x397e7f68	0.0002427079
11	0x39db3eb2	0.00041817647
12	0x3a33369a	0.00068364444
13	0xba27f49c	-0.0006406994
14	0x3a0c7d5d	0.0005359257
15	0x384b2b3c	4.8439237e-05

weight f4 [16]
0	0x3e714ebd	0.23565193
1	0x3f25426c	0.64554477
2	0x3f0a069c	0.53916335
3	0x3ed781ae	0.42091125
4	0x3e61acd1	0.2203858
5	0x3d93b12b	0.072115265
6	0x3e591e8e	0.21203062
7	0x3ed0d695	0.40788713
8	0x3ecd0334	0.40041506
9	0x3e8c67d3	0.27422962
10	0x3f16b767	0.588736
11	0x3e539daa	0.20665613
12	0x3f059394	0.5217831
13	0x3f02af56	0.5104879
14	0x3f184f38	0.5949588
15	0x3e867ad0	0.26265574

bias f4 [16]
0	0x3b9a2510	0.004704125
1	0x3e219662	0.15780023
2	0x3e3e8d1e	0.1860852
3	0x3e195a50	0.14975858
4	0x3e144bb5	0.14482005
5	0x3d0076ff	0.031363484
6	0xbdc9b65c	-0.098492354
7	0xbd820607	-0.06348806
8	0xbd24e912	-0.040261336
9	0xbd3e4ce2	-0.04646004
10	0x3e62b37b	0.22138779
11	0xbc83ed2c	-0.016104303
12	0x3dce2820	0.10066247
13	0x3e496939	0.19669046
14	0xbd2524de	-0.040318362
15	0x3d6ad3eb	0.057331007

running_mean f4 [16]
0	0xbea02b8e	-0.3128323
1	0xbd8ed548	-0.06974274
2	0xbd323219	-0.043504808
3	0xbdb1bc6a	-0.08678515
4	0xbde4f719	-0.11179943
5	0x3e26a052	0.16272095
6	0x3daf676d	0.08564649
7	0x3f073ba3	0.52825373
8	0x3e9fbcf5	0.3119885
9	0x3eba4ef3	0.36388358
10	0x3beb7ea7	0.007186729
11	0xbe9b4304	-0.30324566
12	0xbf15745e	-0.5838069
13	0xbed851b8	-0.42249846
14	0xbcef5a64	-0.029217906
15	0xbe7c775d	-0.24654908

running_var f4 [16]
0	0x3ed03a60	0.40669537
1	0x3f031686	0.51206243
2	0x3f1f3a31	0.6219817
3	0x3e8a163f	0.26970097
4	0x3f1b2707	0.60606426
5	0x3ea2c62d	0.3179182
6	0x3f3845f1	0.7198172
7	0x3fa6ad49	1.3021632
8	0x3f374867	0.7159485
9	0x3f55e44c	0.8355148
10	0x3e8f4b08	0.27986932
11	0x3ee93c58	0.4555385
12	0x3fe68b50	1.8011265
13	0x3f823535	1.0172487
14	0x3eb493fb	0.3526915
15	0x3ef71e8b	0.4826549

weight f4 [32, 16, 3, 3]
0	0xba34c7fc	-0.0006896255
1	0x3d0432e0	0.03227508
2	0x3d7b254e	0.061314873
3	0xbc926f16	-0.017875236
4	0x3c4c3931	0.012464807
5	0x3c67f84b	0.014158319
6	0xbd1734e0	-0.03691566
7	0xbd4dd60c	-0.05025296
8	0x3c9a0cae	0.018804874
9	0x3cbc9f2e	0.023025122
10	0x3d8b9db9	0.068171926
11	0xbda31c4a	-0.0796438
12	0xbc3bded7	-0.011466703
13	0x3dcfd4aa	0.10147984
14	0x3aef8390	0.0018273462
15	0xbd0ee81b	-0.03488932
16	0x3c720468	0.014771558
17	0x3d9e9332	0.07742919
18	0x3d5f9db7	0.054593768
19	0x3db9a94d	0.09065495
20	0xbdea108c	-0.11428937
21	0xbbcbe112	-0.006221899
22	0xb8815bad	-6.168275e-05
23	0x3ca83222	0.020531718
24	0x3c94e4c1	0.018175485
25	0x3d28a688	0.04117444
26	0x3c9cb3bf	0.019128678
27	0x3db0a76c	0.08625683
28	0x3d9dcb1b	0.07704755
29	0x3d96368c	0.07334623
30	0xbce00b87	-0.027349247
31	0xba12c3d7	-0.00055986404
32	0xbd65654d	-0.05600481
33	0x3c5d6ecc	0.013515186
34	0xbdb169d1	-0.08662761
35	0xbcc057b1	-0.023479315
36	0x3d27fe5c	0.04101406
37	0x3d44a3d0	0.048007786
38	0x3daf2b42	0.08553173
39	0x3ca4d167	0.020119382
40	0xbd4192dd	-0.0472592
41	0xbd045a77	-0.032312836
42	0xb985a3cc	-0.00025489775
43	0xbc843665	-0.016139219
44	0xbcd6f2d9	-0.026238846
45	0xbc96d154	-0.018410362
46	0xbb83d4b5	-0.0040231594
47	0x3c81132e	0.015756216
48	0xbb43e9ac	-0.0029893918
49	0xbcc32762	-0.02382249
50	0xbd19ae35	-0.037519652
51	0xbc713ba9	-0.014723697
52	0xbb96dd76	-0.004604037
53	0xbcb08afc	-0.021550648
54	0xbccd24a4	-0.025041886
55	0xbcdd8590	-0.027041227
56	0x3d99992a	0.07499917
57	0xbcaf82bb	-0.021424642
58	0xbd1a92d1	-0.03773767
59	0xbd594648	-0.05304554
60	0xbcddeb3d	-0.02708971
61	0x3cf00604	0.029299743
62	0x3cfdf528	0.031000689
63	0x397e67a0	0.00024261931
64	0xbddd941b	-0.108192645
65	0xbd263e27	-0.040586617
66	0xbd54f8e2	-0.051995166
67	0xbd9194ba	-0.071084455
68	0x3b2ef3e6	0.0026695668
69	0x3db60ebd	0.0888953
70	0x3ba0fd45	0.0049130046
71	0xbbce829c	-0.006302191
72	0xbd054d73	-0.032544564
73	0xbd8efdc1	-0.069819935
74	0xbd9f3371	-0.077734835
75	0xbdfab994	-0.122424275
76	0xbd8cfc0d	-0.06884012
77	0xbe0ffe32	-0.14061812
78	0xbde379e8	-0.11107236
79	0xbdf9481e	-0.121719584
80	0xbdf7646d	-0.120797016
81	0xbd2bb1c8	-0.041917592
82	0x3c2541b4	0.010086466
83	0x3d8c6572	0.06855287
84	0x3b5e3826	0.0033907979
85	0xbd442c4d	-0.04789381
86	0x3cf12edf	0.029441295
87	0x3d5b71aa	0.053575195
88	0x3daa67d9	0.083205886
89	0xbc9cb73a	-0.019130338
90	0xbda174d1	-0.07883609
91	0x3d5a8e51	0.05335838
92	0x3cb00ee8	0.021491483
93	0xbd5ef41b	-0.054432016
94	0xbe2a2328	-0.16614974
95	0x3cbaa59e	0.02278405
96	0x3d9ce539	0.07660908
97	0xbc792669	-0.015206912
98	0xbddc5a5f	-0.107594244
99	0x3d0fcc93	0.035107207
100	0xbc136624	-0.00899652
101	0xbd34f436	-0.04417821
102	0x3cac8326	0.02105863
103	0xbd1c62f2	-0.0381803
104	0x3c945e22	0.018111292
105	0x3cac33d1	0.021020802
106	0x3ce80992	0.028324876
107	0x3c303224	0.010754142
108	0x3d8090f8	0.062776506
109	0x3d97c5b3	0.07410755
110	0xbd5e7bd6	-0.054317318
111	0xbd20d2e7	-0.039263632
112	0x3cc18f38	0.023627862
113	0x3b98eec5	0.0046671354
114	0xba0f3c04	-0.000546396
115	0xbd8006a5	-0.06251267
116	0xbd7b27e4	-0.06131734
117	0xba757247	-0.0009363037
118	0xbb653c2c	-0.0034978492
119	0x3a89e2b5	0.0010519834
120	0xbda01843	-0.078171276
121	0x3d15151f	0.036397096
122	0x3d6b77d8	0.05748734
123	0xbd281761	-0.04103792
124	0xbc8eee4f	-0.017447619
125	0x3d5a1229	0.053239975
126	0xbd7a1506	-0.061055206
127	0xbcff83d9	-0.0311908
128	0x3d132534	0.03592415
129	0xbb914758	-0.0044335537
130	0xbd0db26f	-0.034593996
131	0xbdef2734	-0.11677399
132	0xbdb0ae2f	-0.08626973
133	0xbda071e5	-0.07834224
134	0xbdc7552d	-0.09733043
135	0x3c98ca73	0.018651223
136	0x3a956e0d	0.0011400596
137	0x3d61ec97	0.05515727
138	0x3d1085a4	0.0352837
139	0x3d076bc0	0.033061743
140	0x3cd43211	0.02590278
141	0xbd0b6f1f	-0.03404152
142	0x3d0a1a34	0.033716395
143	0x3d1b04d6	0.03784641
144	0x3c8ea9bc	0.01741492
145	0x3c947f9f	0.01812726
146	0xbd2fb5f6	-0.04289814
147	0x3dba97ee	0.091110095
148	0x3d439cdb	0.04775701
149	0x3c86bffd	0.016448969
150	0x3d9dcce7	0.07705098
151	0xbc887cc1	-0.01666105
152	0x3c44f4da	0.012021268
153	0xbd8f1953	-0.06987252
154	0xbdb4a211	-0.08819974
155	0x3c78fdb2	0.015197204
156	0xbd27faf2	-0.041010804
157	0xbd91ca17	-0.07118624
158	0xbd3004ed	-0.042973448
159	0x3bc3ef3f	0.005979448
160	0xbcd3b279	-0.025841938
161	0xbc7a2a67	-0.015268899
162	0xbdb48517	-0.088144474
163	0xbde1a394	-0.11017528
164	0xbcf604c5	-0.030031571
165	0xbd2445b6	-0.040105544
166	0xbdb7e948	-0.08980042
167	0xbd95a623	-0.07307079
168	0xbcc8a79b	-0.024493983
169	0xbd0ddbd5	-0.034633476
170	0xbd4b73dc	-0.04967104
171	0x3d0d6e13	0.034528803
172	0x3b082398	0.0020773169
173	0xbdbb4e8a	-0.091458395
174	0x3cae79c8	0.021298304
175	0x3bf83bc8	0.007575486
176	0x3c90e025	0.017685005
177	0xbc3baca9	-0.01145474
178	0x3cd0a222	0.025467936
179	0x3cd0ccd7	0.0254883
180	0x3ddbd968	0.10734826
181	0x3d45857d	0.048223007
182	0x3a96dbf9	0.0011509649
183	0x3d757379	0.059924576
184	0x3d9cf4b2	0.076638594
185	0x3d1fc37e	0.039004795
186	0x3d2b24bb	0.041783076
187	0x3c4edf49	0.0126264775
188	0x3d3e0973	0.04639573
189	0xbcc8fca2	-0.024534527
190	0xb9a8e89a	-0.0003221676
191	0x3d70232f	0.058627304
192	0xbd6ff309	-0.058581386
193	0xbc554068	-0.013015844
194	0x3b27b214	0.002558832
195	0xbcad2e66	-0.021140289
196	0x3b5b148e	0.0033429
197	0xbb005792	-0.0019583446
198	0x3dad03f9	0.08448023
199	0x3d77b3fc	0.06047438
200	0x3acfe4df	0.0015861056
201	0x3d5e4686	0.054266475
202	0x3cd9948d	0.026560092
203	0x3d535d55	0.05160268
204	0xbc0c1197	-0.008549116
205	0xbc0a18fb	-0.008428807
206	0x3d7b740c	0.061389968
207	0x3cde1e7b	0.027114144
208	0x3d4c4747	0.049872663
209	0xbcaf3882	-0.02138925
210	0xbda4671f	-0.08027481
211	0xbd2581bf	-0.04040694
212	0x3d8a51d8	0.06753892
213	0xbd0855b5	-0.03328486
214	0xbc01442a	-0.007889787
215	0x3bcda5c5	0.006275865
216	0xbc9586ac	-0.018252693
217	0x3ce9ec61	0.028555097
218	0xbd143a35	-0.036188323
219	0xbd82008f	-0.06347763
220	0xbda285c6	-0.079356715
221	0xbcbf526e	-0.023354735
222	0xbdcb3b90	-0.0992347
223	0xbda7153f	-0.08158349
224	0xb95f9e23	-0.00021325848
225	0xbd7cd534	-0.061726764
226	0x3bed12cc	0.007234907
227	0xbc13e4e2	-0.009026738
228	0xbd824ab8	-0.06361908
229	0xbcfae4cd	-0.030626679
230	0xbcd00c63	-0.025396531
231	0xbd809da8	-0.062800705
232	0x3cb2bf0f	0.02181962
233	0xbba0103a	-0.004884747
234	0xbc1d1cec	-0.009589415
235	0x3d40495b	0.046944957
236	0x3d814406	0.063118026
237	0xbcadbb14	-0.02120737
238	0x3d3a65fc	0.045507416
239	0x3d64efeb	0.055892866
240	0xbd71935e	-0.05897843
241	0xbbcf6b62	-0.0063299397
242	0x3d9b5e18	0.07586306
243	0xbda3a7c4	-0.07990983
244	0xbddcecc3	-0.10787346
245	0xbda3f0c8	-0.0800491
246	0x3ba862a9	0.0051387143
247	0xbba7016f	-0.0050966064
248	0xbda50e77	-0.080593996
249	0x3d2d30e9	0.042282972
250	0x3c44fce3	0.0120231835
251	0xbd5a94c7	-0.05336454
252	0x3ca230a0	0.019798577
253	0xbc0724d2	-0.008248525
254	0xbddd14eb	-0.107950054
255	0x3ded213f	0.11578607

bias f4 [32]
0	0x378386fb	1.5679272e-05
1	0xb8f315e7	-0.000115912226
2	0xb61774cb	-2.2568736e-06
3	0x391ccd64	0.00014953833
4	0xb868866f	-5.543831e-05
5	0xb8c98720	-9.609596e-05
6	0x38ad9a82	8.278062e-05
7	0xb788a2a9	-1.6288208e-05
8	0xb8aa518a	-8.1214195e-05
9	0xb817b315	-3.616799e-05
10	0x39750586	0.00023367078
11	0x38b83eb8	8.785486e-05
12	0x37cce4ff	2.442533e-05
13	0xb90b9917	-0.00013313103
14	0x38d2bb44	0.00010048461
15	0x38a402e8	7.820671e-05
16	0xb8e2fd58	-0.00010823709
17	0xb74793ae	-1.1895709e-05
18	0xb7522e45	-1.2527748e-05
19	0xb89a5b91	-7.360348e-05
20	0xb8401e6c	-4.58047e-05
21	0xb92c1b96	-0.00016413475
22	0x3881cef0	6.1897445e-05
23	0xb89f1b86	-7.5868375e-05
24	0xb9f52546	-0.00046757812
25	0x38b4617f	8.601229e-05
26	0xb9238b5c	-0.00015596807
27	0xb89fca78	-7.6194236e-05
28	0xb7a30064	-1.9431296e-05
29	0x374f9343	1.23724485e-05
30	0x36c54136	5.878649e-06
31	0x3922513e	0.00015479789

weight f4 [32]
0	0x3ecda4b1	0.40164712
1	0x3eff2844	0.49835408
2	0x3e91896c	0.28425157
3	0x3f2c9e86	0.6742939
4	0x3e90fdc4	0.28318608
5	0x3e8c2a18	0.27375865
6	0x3f6d8dbb	0.9279439
7	0x3ecdb11d	0.4017419
8	0x3ef08d9b	0.46983036
9	0x3e8719cc	0.2638687
10	0x3f096322	0.5366689
11	0x3f630e28	0.88693476
12	0x3f17e2db	0.5933053
13	0x3ec4f9f2	0.38471943
14	0x3eceaddf	0.40367028
15	0x3e61b556	0.2204183
16	0x3f1fcd54	0.6242268
17	0x3e31edee	0.17375919
18	0x3e63f1a5	0.22260149
19	0x3f107d79	0.56441456
20	0x3f2857f0	0.6575918
21	0x3f1b97c1	0.60778433
22	0x3e1da790	0.15395951
23	0x3f136bca	0.5758635
24	0x3f11478b	0.5674979
25	0x3eb12b3f	0.34603307
26	0x3ec496b5	0.3839623
27	0x3f3315e0	0.69955254
28	0x3dcdcbc5	0.100486316
29	0x3eea1ea6	0.45726508
30	0x3e841f11	0.25804952
31	0x3f0a17c9	0.53942543

bias f4 [32]
0	0x3c557483	0.013028267
1	0xbcbb7698	-0.022883698
2	0x3b9ebf9f	0.0048446204
3	0x3b5b7a97	0.0033489817
4	0xbe0c159b	-0.13680117
5	0x3a93bb97	0.0011271116
6	0xbe23a540	-0.15981007
7	0x3d9cd259	0.07657308
8	0xbdfba61a	-0.12287541
9	0x3cd94fa8	0.02652724
10	0xbbd459ba	-0.006480423
11	0xb9d03a95	-0.000397165
12	0xbdb446e7	-0.08802586
13	0x3d1fedee	0.039045267
14	0x3cf83a85	0.030301342
15	0xbc88267f	-0.016619919
16	0x3c9dec99	0.019277858
17	0x3d0c9ea0	0.034330964
18	0x3d6bd92f	0.05758017
19	0x3c21a022	0.009864839
20	0xbdbff62e	-0.09373127
21	0x3d3c85a4	0.046025887
22	0x3dad7c71	0.08471001
23	0xbd66fc0b	-0.05639271
24	0x3ced5f6e	0.028976168
25	0xbd148643	-0.036260854
26	0xbde902a2	-0.11377455
27	0x3c94c5c9	0.018160718
28	0x3ccf9f4d	0.025344515
29	0xbd6f60e5	-0.058442015
30	0xbca8ee51	-0.02062145
31	0x3c09711f	0.008388787

running_mean f4 [32]
0	0xbe49cc44	-0.19706827
1	0xbe962ad8	-0.29329562
2	0xbf3434a7	-0.7039284
3	0xbe5163ed	-0.20448275
4	0x3f365174	0.7121804
5	0xbe36b156	-0.17841086
6	0xbf508377	-0.814506
7	0xbee6e216	-0.45094365
8	0xbf74d1ee	-0.9563283
9	0x3e0f6eef	0.14007162
10	0xbd68c5d5	-0.056829292
11	0x3d2a2f32	0.041548915
12	0x3f237bc1	0.6386071
13	0x3da53ce9	0.08068258
14	0xbd82ede1	-0.06393028
15	0xbe69350c	-0.22774142
16	0xbc62cad0	-0.0138423
17	0xbe238129	-0.1596724
18	0xbe328ba5	-0.17436083
19	0xbea8d8d0	-0.32977915
20	0xbe592071	-0.21203782
21	0xbe79c7f1	-0.24392678
22	0xbe2c0d95	-0.16802056
23	0xbecbb24a	-0.3978446
24	0xbedc50c8	-0.4303038
25	0xbb1c1ac5	-0.0023819667
26	0xbef40f7e	-0.4766807
27	0x3e03a415	0.12855561
28	0xbe4fa637	-0.2027825
29	0xbd8e4c2c	-0.069481224
30	0xbe9fc4b6	-0.31204766
31	0xbcecd8dc	-0.028912

running_var f4 [32]
0	0x3e08a16c	0.13342828
1	0x3e40bf22	0.18822911
2	0x3da6c739	0.081434675
3	0x3e31c703	0.17361073
4	0x3dc87ac1	0.097890384
5	0x3d8d9a99	0.06914253
6	0x3e9acc48	0.3023398
7	0x3e0d6cb3	0.13810997
8	0x3e5e85a7	0.21730672
9	0x3d9c93dd	0.0764539
10	0x3df56455	0.119820274
11	0x3e6bc73a	0.23025218
12	0x3e86462e	0.26225418
13	0x3e0b09cc	0.13577956
14	0x3dbc5191	0.09195245
15	0x3d6015e0	0.05470836
16	0x3e06a82f	0.13150094
17	0x3cdeeddb	0.027213028
18	0x3d80eb58	0.06294888
19	0x3e20b8f2	0.15695551
20	0x3e0d67ca	0.13809124
21	0x3e204ad5	0.15653546
22	0x3d8b4419	0.06800098
23	0x3e0c8eaf	0.13726304
24	0x3ded93a2	0.11600424
25	0x3e0936f2	0.13399866
26	0x3dda6ffb	0.1066589
27	0x3e4f43b6	0.20240673
28	0x3cf9320d	0.030419374
29	0x3e2aa285	0.16663559
30	0x3d8af610	0.06785214
31	0x3e08244e	0.13295099

weight f4 [48, 32, 3, 3]
0	0xbb0977f4	-0.0020976039
1	0xbbfc0d9e	-0.007692053
2	0x3cc470e6	0.023979615
3	0xbb0759b5	-0.0020652835
4	0xbb5fdb4d	-0.0034157813
5	0x3cb48636	0.022036653
6	0x3b6ca2ee	0.0036107856
7	0xba475f17	-0.0007605417
8	0x3cc80891	0.024418147
9	0x3d2e9a34	0.04262753
10	0xbb9ca941	-0.004780919
11	0xbcac58a0	-0.021038353
12	0x3d287199	0.04112396
13	0x3c070791	0.00824155
14	0xbca39f8e	-0.019973543
15	0x3d138ea2	0.036024697
16	0x3c593792	0.013257878
17	0xbc5960fa	-0.01326775
18	0x3c8c4b82	0.017125849
19	0xbc91a4d2	-0.017778788
20	0xbc4738c3	-0.012159529
21	0x3cad6281	0.021165134
22	0xbc85fc44	-0.016355641
23	0xbc4b09a5	-0.012392436
24	0x3cd34ad9	0.025792526
25	0x3ae30c62	0.0017322416
26	0xba4084fc	-0.0007344035
27	0xbc02a67d	-0.007974264
28	0xbcf08b8d	-0.029363418
29	0x3d042e1a	0.03227053
30	0xbc3a75a5	-0.011380588
31	0xbd2cceb6	-0.042189322
32	0x3c0e9865	0.008703326
33	0x3bf51d32	0.007480287
34	0x3b2afbff	0.0026090143
35	0x3bb70a01	0.0055859094
36	0xbbae9b70	-0.005328588
37	0xbc62293a	-0.0138037745
38	0xbcaf9727	-0.02143438
39	0xbb804665	-0.0039146417
40	0xbc1f9e77	-0.009742371
41	0xbc7cbc77	-0.015425793
42	0xbbc2d9e5	-0.005946385
43	0xbc3a0e09	-0.011355885
44	0xbc8974db	-0.016779354
45	0x3bdadf43	0.006679447
46	0x3ca99230	0.02069959
47	0xbc1801a7	-0.009277738
48	0x3c58e0f0	0.013237223
49	0x3cc74084	0.024322756
50	0x3bb36874	0.0054750983
51	0x3c175c13	0.009238261
52	0x3c3dedbd	0.011592326
53	0xbad047c3	-0.0015890527
54	0x3d8f7b12	0.07005896
55	0xbcd4a297	-0.025956435
56	0xbda62600	-0.08112717
57	0x3da33dbb	0.079707585
58	0x3ca26c3b	0.019826999
59	0xbd42e004	-0.04757692
60	0x3baa009d	0.0051880614
61	0x3d0dd02f	0.034622367
62	0x3c9173c2	0.017755393
63	0xbcbf771c	-0.023372225
64	0xbc4a71dc	-0.012356248
65	0xbced8718	-0.028995082
66	0xbd0f4ad7	-0.034983482
67	0xbcdd4190	-0.027008802
68	0x3bb1f854	0.0054312143
69	0xbc5c6d4b	-0.013453792
70	0x3b37c4c3	0.0028040863
71	0x3cb39234	0.021920301
72	0xbbee7951	-0.0072776456
73	0x3b9c1b10	0.0047639683
74	0xbc3a10ba	-0.011356527
75	0xbad647a0	-0.001634825
76	0xbc72aef0	-0.014812216
77	0xbc82599c	-0.01591187
78	0xba3d8328	-0.00072293216
79	0xbc484bda	-0.012225116
80	0xba4fd0ad	-0.00079275185
81	0xbcc76f84	-0.024345167
82	0xbc6c8591	-0.014436142
83	0x3b341f02	0.0027484302
84	0xbc4ab1e9	-0.012371519
85	0xbc814096	-0.015777867
86	0xbbdcf2c0	-0.0067428052
87	0xbc2f5355	-0.01070102
88	0xbbb06ecd	-0.005384302
89	0xbca42257	-0.020035906
90	0x3ad30f7d	0.0016102638
91	0xbc8164a4	-0.01579506
92	0x3a51a2cd	0.00079969765
93	0xbbf44798	-0.0074548237
94	0xb8f02fff	-0.00011453032
95	0xbc5842a0	-0.013199478
96	0xbb4d7c7e	-0.003135472
97	0xbc368971	-0.011141167
98	0xbb68eb57	-0.0035540664
99	0x3d1b2fea	0.03788749
100	0x3c49c82d	0.012315792
101	0xbb6973be	-0.0035621966
102	0x3cb18924	0.021671839
103	0x3b4d9e4f	0.0031374877
104	0xbd1dab4c	-0.03849344
105	0xbc9202dc	-0.01782363
106	0x3d1cd091	0.038284842
107	0x3c9b1f68	0.018935874
108	0x3c3f76fc	0.011686083
109	0x3d0682a2	0.032839425
110	0x3c4303e5	0.011902784
111	0x3b8dd9b7	0.004328932
112	0x3c64d2ad	0.013966245
113	0x3ca324e4	0.019915052
114	0xbb2843b3	-0.0025675118
115	0xbc28953e	-0.010289488
116	0xba86ca6a	-0.0010283713
117	0xbd0d9592	-0.03456647
118	0xbcbffee9	-0.02343698
119	0xbcb1d46e	-0.02170774
120	0xbcba4294	-0.022736825
121	0xbcbee60a	-0.02330305
122	0xbc93d917	-0.018047852
123	0xba819884	-0.0009887372
124	0xb99b5eab	-0.00029634437
125	0xbc7c54ae	-0.015401049
126	0xbc186fb2	-0.009303974
127	0xbd28ffd9	-0.04125962
128	0xbc913b30	-0.017728418
129	0xbb82cb8a	-0.003991549
130	0xbd09e31d	-0.033663858
131	0xbc89dd41	-0.016829135
132	0xbb4b50a0	-0.0031023398
133	0xbce45f9b	-0.02787762
134	0xbc761ab5	-0.015021016
135	0xbc345371	-0.011006222
136	0xbc2947b9	-0.010332041
137	0xbc40bbf7	-0.011763564
138	0xbc1f878f	-0.0097369095
139	0xbc49b587	-0.012311346
140	0xbbdd7bf1	-0.0067591597
141	0xbc2aa2dc	-0.010414805
142	0xbc175638	-0.009236865
143	0xbc033c1d	-0.008009938
144	0xbbfb4328	-0.0076679178
145	0xbb31763f	-0.0027078537
146	0xbc468084	-0.012115601
147	0xbc23d1c2	-0.009998741
148	0x3c1a117f	0.009403585
149	0x3bd56df7	0.006513353
150	0xbc552e6d	-0.013011557
151	0x390874b6	0.00013013449
152	0xbbd3d9a5	-0.0064651542
153	0x3b764e83	0.0037583418
154	0x3c2b5a3a	0.010458523
155	0x3baa3df3	0.005195373
156	0x3b2e94b4	0.0026638927
157	0x3b430af3	0.0029761165
158	0x3b09fb8d	0.0021054477
159	0x3a31829a	0.00067714753
160	0xbb057cb5	-0.002036852
161	0x3bc8a252	0.0061228657
162	0xbb6cdc3e	-0.0036142017
163	0xba053c5c	-0.00050825416
164	0x3a11bdd1	0.0005559596
165	0x3bbad276	0.0057013584
166	0x3c0675a9	0.008206763
167	0xba8318c6	-0.001000189
168	0xbbfdd66d	-0.007746509
169	0xbc00c9d7	-0.007860622
170	0xbc25abd1	-0.010111765
171	0xbcf361dc	-0.029709749
172	0xbd036a28	-0.03208366
173	0xbb203cd3	-0.0024450317
174	0xbc86b0aa	-0.016441662
175	0xbcd1a67c	-0.025592081
176	0xbbd6f317	-0.0065597403
177	0xbc7df9eb	-0.01550148
178	0xbcb72464	-0.02235622
179	0xbc08c1da	-0.008346999
180	0x3c2db636	0.0106025245
181	0xbaa8f9ae	-0.0012891793
182	0xbd17201d	-0.03689586
183	0x3cbf8490	0.02337864
184	0xbcdea282	-0.0271771
185	0xbcdba7de	-0.026813444
186	0x3bb443f1	0.0055012633
187	0xbc7243d1	-0.0147866765
188	0x3a99ee62	0.0011744017
189	0x3d1eb103	0.03874303
190	0x3be147c1	0.006875009
191	0x3a16dccc	0.0005754947
192	0x3c96c9f5	0.018406847
193	0xbc9853cc	-0.018594645
194	0x3c5555d2	0.013020949
195	0x3cccdc98	0.025007531
196	0xbbf597ac	-0.0074948873
197	0x3a22902e	0.0006201294
198	0x3b462064	0.0030231709
199	0x3be3d2dc	0.0069526266
200	0x3be3992b	0.0069457493
201	0xbb62a745	-0.0034584564
202	0x3b58ea8d	0.0033098788
203	0x3b5f15c3	0.003404007
204	0xbbd1d2dd	-0.0064033107
205	0x3a84b6ed	0.0010125317
206	0x3ab91328	0.0014120089
207	0x3bb02b8b	0.0053762845
208	0x3cb5a7c8	0.02217473
209	0xbc6191e7	-0.013767696
210	0x3c8bd852	0.017070923
211	0x3cb95a4f	0.02262607
212	0xbbad3a06	-0.005286458
213	0xbcbcc473	-0.023042893
214	0xbc4e7204	-0.012600426
215	0xbc0767a4	-0.008264456
216	0x3d3c3645	0.045950193
217	0xbd0e46af	-0.034735378
218	0xbd8e91fa	-0.069614366
219	0x3b8aa986	0.0042316345
220	0xbcc39d6e	-0.02387878
221	0xbd160b70	-0.036632
222	0x3c1ead5a	0.009684885
223	0xbc37be1c	-0.011214759
224	0xbc41e677	-0.011834732
225	0xbbb80e71	-0.005616956
226	0x3bd1165b	0.006380839
227	0x3c3a92bc	0.011387523
228	0xbc891a8d	-0.016736293
229	0x3c313057	0.010814748
230	0x397ed233	0.00024301633
231	0xbc6fe7c2	-0.014642658
232	0x3c1873e2	0.009304972
233	0x3c2a07ad	0.010377807
234	0xbc10dc7d	-0.008841631
235	0xbbd05923	-0.006358282
236	0xbcd4c6b9	-0.025973665
237	0xbc50f0a7	-0.0127526885
238	0xbba73a0d	-0.0051033557
239	0xbb83bc80	-0.0040202737
240	0xbc99e7cf	-0.018787293
241	0xbc36dbfa	-0.011160845
242	0xbbee9351	-0.007280745
243	0xbc1323dc	-0.0089807175
244	0xbc7c31ab	-0.015392701
245	0xbce40e70	-0.027838916
246	0xbc80e531	-0.015734287
247	0xbc400983	-0.011721018
248	0xbcee3f51	-0.029082926
249	0xbc645b75	-0.013937821
250	0xbc98aab3	-0.018636083
251	0xbce26c5d	-0.027639562
252	0xbbb4a0cf	-0.005512334
253	0xbc0e3644	-0.00867993
254	0xbbed788e	-0.0072470373
255	0x3809e8bc	3.2880096e-05

bias f4 [48]
0	0xb82ee040	-4.1693682e-05
1	0xb7c32c30	-2.3266388e-05
2	0xb6e592f2	-6.8418385e-06
3	0xb69116a8	-4.3239743e-06
4	0x37b29fd4	2.129368e-05
5	0x3705fea2	7.986704e-06
6	0x37b66a2a	2.1745527e-05
7	0x36b480f8	5.379432e-06
8	0xb71eb58c	-9.459804e-06
9	0x36fb0641	7.481111e-06
10	0x37c18a0e	2.307168e-05
11	0xb772e6f9	-1.4478102e-05
12	0x38454884	4.7035996e-05
13	0xb868fbf2	-5.5547753e-05
14	0x3765213a	1.36572e-05
15	0xb7593460	-1.2946402e-05
16	0x37834cc1	1.5652158e-05
17	0x3832cac2	4.262734e-05
18	0x380880dd	3.254494e-05
19	0x000007dd	2.821e-42
20	0x0000096f	3.384e-42
21	0xb7ce34c9	-2.4581694e-05
22	0x379e4e96	1.8871662e-05
23	0xa7820c21	-3.60954e-15
24	0x3a0d4597	0.0005389093
25	0xb16b6353	-3.425346e-09
26	0x3687f8b0	4.0522646e-06
27	0xb847767a	-4.7555637e-05
28	0x383849a4	4.39376e-05
29	0x80000009	-1.3e-44
30	0x37ddcd84	2.6440954e-05
31	0x38459606	4.710818e-05
32	0x3874f847	5.840536e-05
33	0xb84d3ff6	-4.8935377e-05
34	0xb765d91e	-1.3700015e-05
35	0x80000167	-5.03e-43
36	0x37237f2f	9.745169e-06
37	0x384b3830	4.84513e-05
38	0x3859dace	5.194061e-05
39	0xb78a3375	-1.6474844e-05
40	0xb82ec99a	-4.167259e-05
41	0xb707789f	-8.074711e-06
42	0x3881ad45	6.183473e-05
43	0x37dbfa18	2.6223293e-05
44	0x3729d351	1.0122386e-05
45	0x3848b560	4.7852634e-05
46	0xb75f4ca2	-1.3309678e-05
47	0xb855120f	-5.0799976e-05

weight f4 [48]
0	0x3dee49e2	0.11635186
1	0x3ee14fdb	0.44006237
2	0x3ea3e2f2	0.32009083
3	0x3e9c9d70	0.30588865
4	0x3f5c3410	0.8601694
5	0x3e254a1d	0.16141553
6	0x3ed65b98	0.41866755
7	0x3f09b747	0.53795284
8	0x3f0cda88	0.5502095
9	0x3ea36fd2	0.3192125
10	0x3ebae8ed	0.36505833
11	0x3f1a3ae5	0.60246116
12	0x3e8ca325	0.2746822
13	0x3eb1ac2b	0.34701666
14	0x3f4646e5	0.77451926
15	0x3f14e939	0.5816837
16	0x3f034ef3	0.5129234
17	0x3e56b3a3	0.20966963
18	0x3ef929cc	0.486647
19	0x3b076a62	0.0020662774
20	0x3777f286	1.4778814e-05
21	0x3e89c0e3	0.26904973
22	0x3e894922	0.26813608
23	0x3cbba54c	0.022905968
24	0x3f05c807	0.5225834
25	0xb80c3719	-3.3429915e-05
26	0x3f2446dc	0.6417062
27	0x3ecbd8cb	0.39813837
28	0x3f186a56	0.59537256
29	0x3c450d8d	0.012027157
30	0x3f2d5bca	0.67718184
31	0x3f27aafd	0.6549528
32	0x3e613171	0.21991517
33	0x3ed5df95	0.41772142
34	0x3efa3ebd	0.4887599
35	0x3946a0b6	0.00018942621
36	0x3ec2567b	0.37956604
37	0x3f26bd39	0.6513248
38	0x3e680bd7	0.22660767
39	0x3e9a5e4b	0.30150065
40	0x3f147684	0.5799334
41	0x3f4e374d	0.8055313
42	0x3f279cca	0.65473616
43	0x3e7259eb	0.23667113
44	0x3f189568	0.59602976
45	0x3f0738ff	0.52821344
46	0x3e9ecc08	0.31015038
47	0x3f3c79bb	0.73623246

bias f4 [48]
0	0xbdcbf28b	-0.09958371
1	0xbe1c8822	-0.15286306
2	0xba687b3e	-0.0008868462
3	0xbdd7d125	-0.10537938
4	0xbe4279e2	-0.18991807
5	0xbe0ca1b1	-0.13733555
6	0xbd8cce33	-0.06875267
7	0xbb21e0f7	-0.002470074
8	0xbe6aa4a6	-0.22914371
9	0xbced6e9d	-0.028983409
10	0xbdc598f7	-0.09648316
11	0xbe0a6793	-0.13516073
12	0x3c48bcac	0.012252014
13	0xbd510f99	-0.051040266
14	0xbdea90bf	-0.114533894
15	0xbe481cf3	-0.19542293
16	0xbd003880	-0.031303883
17	0xbd7377c3	-0.059440386
18	0xbe3b44a7	-0.18287908
19	0xba97c4e7	-0.0011579067
20	0xb77270a7	-1.4450553e-05
21	0xbd890dd9	-0.06692094
22	0xbd2913d4	-0.041278675
23	0xbccb63b0	-0.024827808
24	0xbd827063	-0.06369092
25	0xb2678bcc	-1.3477756e-08
26	0xbd29cdbb	-0.041455965
27	0xbe1d537f	-0.15363882
28	0xbe017365	-0.12641676
29	0xbbb0a00b	-0.0053901724
30	0xbe24b6e6	-0.16085395
31	0xbd481698	-0.048849672
32	0xbdd12281	-0.10211659
33	0xbe20fe8a	-0.15722099
34	0xbd99cf3c	-0.0751023
35	0xb9c96f7e	-0.00038420776
36	0xbe2d42a8	-0.16919959
37	0xbe67b577	-0.22627817
38	0xbe314082	-0.17309764
39	0xbd247f4e	-0.04016047
40	0xbdfcebad	-0.12349639
41	0xbd907a23	-0.07054546
42	0xbe31cc90	-0.1736319
43	0xbe16045e	-0.14650103
44	0xbd8132fc	-0.063085526
45	0xbdf1f1c0	-0.11813688
46	0xbe04e644	-0.12978464
47	0xbe239c1c	-0.1597752

running_mean f4 [48]
0	0xbe9f2d49	-0.31089237
1	0xbf1f346a	-0.6218935
2	0xbe8d4d1d	-0.27597895
3	0xbf867828	-1.0505419
4	0xbf147c71	-0.5800238
5	0xbc95101b	-0.018196156
6	0xbf3057af	-0.68883795
7	0xbf887fcd	-1.0664002
8	0xbefe6289	-0.4968455
9	0xbf4961c7	-0.7866482
10	0xbe3f094f	-0.18655895
11	0xbee139b9	-0.4398935
12	0xbef3ce33	-0.47618255
13	0xbf2bed84	-0.67159295
14	0xbec0ea5e	-0.37678808
15	0xbf6e5737	-0.9310183
16	0xbf3c7ed1	-0.73631006
17	0xbe1841b4	-0.14868814
18	0xbf4e2973	-0.80531996
19	0x2c2e2df8	2.4752405e-12
20	0x00000004	6e-45
21	0x3ec39da2	0.38206202
22	0xbb829e2b	-0.0039861402
23	0xbbb3202e	-0.0054664826
24	0xbf5374de	-0.826002
25	0x32efb2c4	2.7904555e-08
26	0xbec57b16	-0.3857047
27	0x3d0c3d8c	0.034238383
28	0xbef673d7	-0.48135254
29	0x8066affc	-9.430352e-39
30	0xbea3ec09	-0.32016018
31	0xbf0d2551	-0.55135065
32	0x3d05ce3d	0.032667387
33	0x3ebad5ac	0.36491144
34	0x3e73514e	0.23761484
35	0x0000013b	4.41e-43
36	0xbe81565f	-0.25261208
37	0xbf47ddce	-0.7807282
38	0x3e1d7e2a	0.15380159
39	0x3f841e3b	1.0321726
40	0xbf5d8416	-0.8652967
41	0xbf4265e9	-0.7593675
42	0x3e511b06	0.20420465
43	0xbe0500e0	-0.12988615
44	0xbf472f2c	-0.77806354
45	0xbf2df9fd	-0.67959577
46	0xbf25d197	-0.64772934
47	0x3e734e2b	0.23760287

running_var f4 [48]
0	0x3d637c08	0.055538207
1	0x3e675f4a	0.22594944
2	0x3ebd4e79	0.36973932
3	0x3e47f4ba	0.1952695
4	0x3ec6468f	0.38725707
5	0x3d89ef18	0.06735057
6	0x3eeaa35f	0.45827767
7	0x3ea7b317	0.32753822
8	0x3eb1e938	0.34748244
9	0x3e56bb0c	0.2096979
10	0x3e24b9ca	0.16086498
11	0x3f727aff	0.9471893
12	0x3e1494ea	0.14509931
13	0x3e832685	0.25615326
14	0x3ee42da6	0.44566077
15	0x3eea6d94	0.45786726
16	0x3e2f46e3	0.17116885
17	0x3de23e7c	0.11047074
18	0x3e87632e	0.26442856
19	0x2085d65a	2.2672922e-19
20	0x00000004	6e-45
21	0x3e473350	0.19453168
22	0x3e54472f	0.2073028
23	0x38270741	3.982266e-05
24	0x3e881f43	0.2658635
25	0x2831c98e	9.869179e-15
26	0x3f0c2430	0.5474272
27	0x3e99ca2e	0.30037063
28	0x3ee09fa3	0.43871793
29	0x272a1bc7	2.3607297e-15
30	0x3efcb51e	0.4935693
31	0x3ec0ee20	0.37681675
32	0x3dee1bca	0.11626394
33	0x3e8e255f	0.27762887
34	0x3e22d53a	0.15901652
35	0x00000004	6e-45
36	0x3e2eeb90	0.17082047
37	0x3e58d820	0.21176195
38	0x3d74d739	0.059775565
39	0x3ef8ff16	0.48632115
40	0x3f076a3b	0.5289647
41	0x3f65c9ff	0.89761347
42	0x3edf268e	0.43584102
43	0x3dd959f9	0.10612864
44	0x3ef86a87	0.48518774
45	0x3eae6a97	0.34065697
46	0x3e48ae8c	0.19597834
47	0x3e9a1b5c	0.30099

weight f4 [64, 48, 3, 3]
0	0x3bc8bd62	0.006126092
1	0x3b4ed825	0.0031561938
2	0xbbdfbf86	-0.0068282513
3	0x3c5668c0	0.013086498
4	0x3d1834f2	0.037159868
5	0x3c6b6890	0.014368191
6	0x3a1a818a	0.00058939366
7	0xbc04f855	-0.008115848
8	0xbca54680	-0.020175219
9	0x3bde0780	0.0067757964
10	0x3ce6a74e	0.028155949
11	0x3defe608	0.11713797
12	0x3d1b61e8	0.037935168
13	0x3c33727f	0.010952591
14	0x3b94ff03	0.0045470013
15	0xbcf542af	-0.029939024
16	0xbce36286	-0.02775694
17	0xbc829edd	-0.015944893
18	0xbd4c5985	-0.04989006
19	0xbd9d408b	-0.07678326
20	0xbb85ef33	-0.0040873527
21	0xbae1fc3e	-0.0017241312
22	0xbb4750c2	-0.0030413126
23	0x3d04ff0b	0.03246979
24	0xbd5a32c2	-0.053271063
25	0xbd2fcc2f	-0.042919334
26	0x3d2f0bd0	0.042735875
27	0x3c2ede00	0.010673046
28	0x3cb831c5	0.02248467
29	0x3da548d2	0.0807053
30	0x3c27379a	0.010206128
31	0x3d51e144	0.05124022
32	0x3d7d87db	0.06189714
33	0x3d1a52e4	0.037676707
34	0x3cbda641	0.023150565
35	0x3d1f666f	0.038916048
36	0x39f9d632	0.0004765257
37	0x3d72a78a	0.05924181
38	0x3c3c833d	0.011505899
39	0x3dac2299	0.084050365
40	0x3da330b2	0.07968272
41	0x3cf06455	0.029344717
42	0xbb0ebef8	-0.0021781307
43	0x3bc89e05	0.006122353
44	0x3b8d9733	0.004321003
45	0x3c1a2ddb	0.009410347
46	0x3cb7cfbd	0.022437925
47	0x3d75d96a	0.060021795
48	0x3cc32cc0	0.02382505
49	0x3c13ed09	0.009028682
50	0x3c89a4c6	0.016802203
51	0x3b8c876b	0.004288604
52	0xbaaed69f	-0.0013339109
53	0xbd15c91b	-0.036568742
54	0xbd733138	-0.05937311
55	0xbd145766	-0.036216162
56	0xbc6b3fb7	-0.0143584525
57	0xbd100b1e	-0.035166852
58	0xbcf80292	-0.030274663
59	0x395e99a8	0.00021228811
60	0x3d265177	0.040605035
61	0x3cec38f0	0.028835744
62	0x3c37344d	0.011181903
63	0xbbd41938	-0.006472733
64	0x3c65a929	0.014017382
65	0x3ca8850c	0.020571254
66	0x3b814889	0.0039454144
67	0x3d297224	0.04136862
68	0x3d46d5a0	0.048543572
69	0xbd7831a3	-0.060594212
70	0x3cdc7332	0.026910398
71	0x3d8f7c2d	0.070061065
72	0x3d5cbc78	0.053890675
73	0x3cf52bf4	0.029928185
74	0x3d5bacfc	0.053631768
75	0x3cec007c	0.028808825
76	0x3d81e8a8	0.06343204
77	0xbce06b39	-0.027394878
78	0x3d4d3ebb	0.050108653
79	0x3d105e61	0.035246257
80	0xbc5be5bb	-0.013421471
81	0x3ca84462	0.02054042
82	0x3c382040	0.011238158
83	0xbd617888	-0.05504659
84	0x3a9cb2ab	0.0011955103
85	0x3c0af774	0.008481849
86	0x3c317844	0.010831896
87	0xbc4aa409	-0.012368211
88	0x3d5315c2	0.05153442
89	0x3d2b0aba	0.041758277
90	0xbd0cf64c	-0.034414575
91	0x3d322484	0.043491855
92	0x3c9e1633	0.019297695
93	0x3b355cba	0.0027673678
94	0x3d2a957f	0.041646477
95	0x3d590dfe	0.05299186
96	0xbc968b4c	-0.018376969
97	0x36e21fe1	6.739036e-06
98	0xbc13bc5d	-0.009017077
99	0x3c08604e	0.008323742
100	0xb9c1dad3	-0.00036974865
101	0xbcfbc070	-0.03073141
102	0x3ca2b4ed	0.019861663
103	0xbc204a9b	-0.009783412
104	0xbcebbf46	-0.02877773
105	0xbd4736f6	-0.0486364
106	0xbd89b1a7	-0.067233376
107	0xbd135495	-0.035969336
108	0x3c80a597	0.01570396
109	0x3c9ec2c1	0.019379975
110	0xbd5108e0	-0.051033854
111	0x38b5193e	8.635454e-05
112	0x3d66b4dd	0.05632483
113	0xbbb25542	-0.0054422924
114	0xbcb9d317	-0.022683663
115	0xbb595e0c	-0.0033167629
116	0xbc952bc5	-0.018209348
117	0x3cd40608	0.025881782
118	0x3d5b3c85	0.053524513
119	0x3d7fe529	0.062474404
120	0x3c19140c	0.009343158
121	0x3d8e6250	0.06952345
122	0x3d57cafb	0.05268381
123	0xbcef2c5e	-0.02919596
124	0x3c6aa8ed	0.014322502
125	0x39a23cc6	0.00030944328
126	0xbd957bd3	-0.07299008
127	0x3d4a655e	0.049413078
128	0xbd53d77d	-0.051719178
129	0xbc806ccd	-0.01567688
130	0x3dd15edd	0.10223172
131	0x3bbad101	0.0057011847
132	0xbc4590bb	-0.012058432
133	0x3cf57ff0	0.029968232
134	0xbd537226	-0.051622532
135	0x3dd9b9be	0.10631131
136	0x3d8820c1	0.06646872
137	0x3ccdc72a	0.025119383
138	0x3cafc2bc	0.021455161
139	0x39b2aecc	0.0003408104
140	0x3cc7c43e	0.024385568
141	0xbc553142	-0.013012232
142	0x3c447d79	0.011992806
143	0x3d09e35c	0.033664092
144	0xbb268309	-0.0025407693
145	0x3cb92422	0.022600237
146	0x3d25e40a	0.040500678
147	0xbd4820e3	-0.04885949
148	0xbd31e797	-0.043433752
149	0xbb81307e	-0.0039425483
150	0xbd63cb05	-0.055613536
151	0xbc888d46	-0.016668927
152	0xbd0e5697	-0.034750547
153	0xbd3291e3	-0.04359616
154	0xbd9a917f	-0.075472824
155	0xbcdb7c82	-0.026792768
156	0xbc8d122b	-0.017220577
157	0xbcf08fcf	-0.029365448
158	0xbc9cb02b	-0.019126972
159	0xbd7c2cdd	-0.061566222
160	0xbd50bf44	-0.050963655
161	0xbd10b9f9	-0.035333607
162	0x3cfd6157	0.030930204
163	0x3c1aa0d3	0.009437758
164	0x3ad81281	0.0016485007
165	0x3c9ee3c1	0.01939571
166	0xbc2444f1	-0.010026203
167	0x3c034310	0.008011594
168	0xbd966506	-0.073434874
169	0xbd602450	-0.05472213
170	0xbc8052e9	-0.015664535
171	0x80000013	-2.7e-44
172	0x8000009c	-2.19e-43
173	0x80000043	-9.4e-44
174	0x0000004f	1.11e-43
175	0x800008ec	-3.2e-42
176	0x8000008e	-1.99e-43
177	0x00000046	9.8e-44
178	0x80000071	-1.58e-43
179	0x8000006b	-1.5e-43
180	0x8000006c	-1.51e-43
181	0x00000052	1.15e-43
182	0x0000006c	1.51e-43
183	0x0000002a	5.9e-44
184	0x80000004	-6e-45
185	0x8000001b	-3.8e-44
186	0x80000003	-4e-45
187	0x8000009d	-2.2e-43
188	0x000000a1	2.26e-43
189	0xbcc161ca	-0.0236062
190	0xbdab85b2	-0.0837511
191	0xbd8e0470	-0.0693444
192	0xbc8cb506	-0.017176162
193	0xbd3e5dc2	-0.046476133
194	0xbd92f9e6	-0.071765706
195	0xbcb8f1bf	-0.022576211
196	0xbd8cd5e6	-0.068767354
197	0xbd8dea2d	-0.06929431
198	0xbd1a1ab1	-0.03762311
199	0xbd3dd53e	-0.04634594
200	0xbcecfb90	-0.028928548
201	0xbd114857	-0.03546938
202	0xbd04a633	-0.032385062
203	0xbbbe3b39	-0.0058053997
204	0xbcded0ae	-0.027199116
205	0xbc8885d8	-0.016665384
206	0xbc4b9e83	-0.012427929
207	0x365446ca	3.1631666e-06
208	0xb876ac47	-5.8811416e-05
209	0x384127c2	4.6051813e-05
210	0xb86b45e8	-5.609347e-05
211	0x367ad205	3.737515e-06
212	0xb6848569	-3.9494375e-06
213	0xb909de2a	-0.000131481
214	0xb8c5b997	-9.428261e-05
215	0xb5f98ab9	-1.8592319e-06
216	0x3d795495	0.06087168
217	0x3da60eec	0.08108315
218	0x3bbe20b7	0.0058022398
219	0xbd4f7c85	-0.05065586
220	0xbcd394b2	-0.02582774
221	0xbb942bfa	-0.004521844
222	0xbd88fbc5	-0.06688646
223	0xbd3f1468	-0.04665032
224	0xbbfa23cb	-0.0076336614
225	0xa9f00c38	-1.06602607e-13
226	0x299352c0	6.542466e-14
227	0xab8d5146	-1.004121e-12
228	0x2a91de73	2.591153e-13
229	0xaa84202c	-2.3470234e-13
230	0xabc9d3fc	-1.4340746e-12
231	0xacb2b297	-5.0788917e-12
232	0x2ac6bda6	3.530346e-13
233	0xac601173	-3.1842e-12
234	0x3b873a1a	0.0041267993
235	0x3c12a9eb	0.008951644
236	0x3d42ef9d	0.047591794
237	0x3d79e187	0.061006095
238	0x3cb05d90	0.02152899
239	0xbb809b10	-0.003924735
240	0x3d15f0e6	0.03660669
241	0xbc87aac9	-0.016560929
242	0xbce6ea47	-0.028187884
243	0x3d5ee79d	0.054420102
244	0x3c32c417	0.010911009
245	0xbd756629	-0.05991188
246	0x3b065637	0.0020498165
247	0xbd61d119	-0.05513105
248	0xbd9eb0d3	-0.0774857
249	0xbd55d788	-0.0522075
250	0xbd9cbee7	-0.07653599
251	0x3bbf0c31	0.0058303108
252	0x3dcd187e	0.10014437
253	0x3dae912e	0.085237846
254	0xbd063e5a	-0.032774307
255	0x3d92c792	0.07166971

bias f4 [64]
0	0xb7bd2b78	-2.2550797e-05
1	0x3766d736	1.3759176e-05
2	0xb7a3a510	-1.9507977e-05
3	0x377188f6	1.4396608e-05
4	0xb806acfb	-3.210919e-05
5	0x373b25bd	1.1154855e-05
6	0x37d2b56e	2.5118436e-05
7	0xb69b21ae	-4.623281e-06
8	0x8000004b	-1.05e-43
9	0x3835cf65	4.3346914e-05
10	0xb8484546	-4.774823e-05
11	0x37faf03d	2.9914192e-05
12	0xb70c1ffc	-8.352097e-06
13	0x380f9a2c	3.423744e-05
14	0xb7048c5b	-7.900492e-06
15	0x378a8efa	1.651746e-05
16	0xb73191f9	-1.0584009e-05
17	0x3696a43d	4.489468e-06
18	0xb7404340	-1.145975e-05
19	0x37391488	1.103164e-05
20	0xb71919d5	-9.125525e-06
21	0xb7f2a9ee	-2.8927778e-05
22	0x3654e882	3.17258e-06
23	0xb70537a4	-7.940373e-06
24	0x37307f3f	1.0520044e-05
25	0x379011f1	1.7174492e-05
26	0x36cf073e	6.169924e-06
27	0x36abaf96	5.116638e-06
28	0x36a100c0	4.798261e-06
29	0x374b56c1	1.2119942e-05
30	0x3725d453	9.884202e-06
31	0xb6f3c6af	-7.265094e-06
32	0x37453edc	1.1756751e-05
33	0x378e43d9	1.6959313e-05
34	0x3736342f	1.0860195e-05
35	0x36adc405	5.1786214e-06
36	0x358195a7	9.654804e-07
37	0xb786f5a7	-1.6088436e-05
38	0x37d30536	2.5155587e-05
39	0xb72ce8c5	-1.0306195e-05
40	0x341c96a7	1.4583439e-07
41	0xb7116ee5	-8.668493e-06
42	0x36538335	3.1517823e-06
43	0x37e975d0	2.7830625e-05
44	0x3786156b	1.5984018e-05
45	0x372b1b15	1.01987e-05
46	0xb6986af6	-4.542405e-06
47	0xb7adff11	-2.0741982e-05
48	0xb76d6684	-1.415017e-05
49	0xb6f7d4c4	-7.385943e-06
50	0x3688f625	4.081771e-06
51	0xb73cdfcb	-1.1257779e-05
52	0x3842a09a	4.6402776e-05
53	0x37ae1035	2.0749963e-05
54	0x373f7497	1.1411633e-05
55	0x378efd38	1.7045633e-05
56	0x380634a1	3.1997104e-05
57	0x36c95424	6.000062e-06
58	0xb7408467	-1.1474919e-05
59	0x000004bb	1.697e-42
60	0xb7aae5b7	-2.0372549e-05
61	0x3534465b	6.7157606e-07
62	0x37d6bf9b	2.5600011e-05
63	0xb6924a5b	-4.359795e-06

weight f4 [64]
0	0x3ef107ac	0.47076166
1	0x3f04c428	0.5186181
2	0x3e989f9c	0.29809272
3	0x3e221a1a	0.1583027
4	0x3ebdb943	0.37055406
5	0x3ebf6d7a	0.3738821
6	0x3f2dee92	0.67942154
7	0x3f3b09ec	0.73062015
8	0x3c0d0970	0.008608207
9	0x3ea195e6	0.31559676
10	0x3e8440c3	0.2583066
11	0x3f0f13de	0.5588969
12	0x3f3aa2ea	0.7290484
13	0x3e96f687	0.2948496
14	0x3e5405e9	0.2070538
15	0x3ef20be5	0.472747
16	0x3ee75369	0.45180824
17	0x3eed62ce	0.46364444
18	0x3e090465	0.13380583
19	0x3e5e4273	0.21705036
20	0x3e9c3968	0.30512547
21	0x3e9b1b19	0.3029411
22	0x3f23b147	0.6394238
23	0x3f2301c0	0.63674545
24	0x3f0a85db	0.541105
25	0x3e95db9a	0.29269105
26	0x3f1c351c	0.6101854
27	0x3ebd458f	0.36967131
28	0x3ecff565	0.4061691
29	0x3f1da000	0.61572266
30	0x3ee3208d	0.44360772
31	0x3dfed4e0	0.124429464
32	0x3e836116	0.25660008
33	0x3f0926bd	0.53574735
34	0x3e3aa944	0.18228632
35	0x3e64dd35	0.22350009
36	0x3f1a5323	0.60283107
37	0x3f0c2640	0.54745865
38	0x3e226327	0.15858136
39	0x3f428764	0.7598784
40	0x3df089e1	0.11745048
41	0x3e568f5a	0.20953122
42	0x3e667e4a	0.22509113
43	0x3ebdee0c	0.37095678
44	0x3e9fef9e	0.312375
45	0x3ea88ec8	0.32921433
46	0x3ec8af84	0.39196408
47	0x3f245e2a	0.6420618
48	0x3ec8d67d	0.39226142
49	0x3ed51e50	0.4162469
50	0x3ed10469	0.40823677
51	0x3ee7172e	0.45134872
52	0x3f01b6e2	0.5066968
53	0x3ec5c4f2	0.3862682
54	0x3e752213	0.2393878
55	0x3f279b6a	0.6547152
56	0x3f031c93	0.51215476
57	0x3dced92a	0.101000145
58	0x3f15a559	0.58455426
59	0x3988bc7e	0.0002608038
60	0x3f19b0f4	0.60035634
61	0x3ef4ea50	0.47835016
62	0x3dfe2a9b	0.1241047
63	0x3ed41a7d	0.4142646

bias f4 [64]
0	0xbe0ef736	-0.13961491
1	0xbe50112f	-0.20319055
2	0xbdf37ce7	-0.118890576
3	0xbe18c49c	-0.1491875
4	0xbe100905	-0.1406594
5	0xbe9a2e03	-0.3011323
6	0xbed522f5	-0.41628233
7	0xbe9a153a	-0.3009432
8	0xbb8747cb	-0.0041284314
9	0xbe6a578e	-0.22884962
10	0xbe6d003d	-0.23144622
11	0xbe0b0f88	-0.13580143
12	0xbe0aadaf	-0.13542818
13	0xbe285067	-0.16436921
14	0xbe0e75ab	-0.13912074
15	0xbe707ba1	-0.2348466
16	0xbe18f889	-0.14938559
17	0xbdf162b8	-0.11786407
18	0xbe12d074	-0.14337331
19	0xbe02d4d2	-0.12776497
20	0xbdf69445	-0.12039999
21	0xbe826f00	-0.2547531
22	0xbe6ab0a2	-0.22918943
23	0xbe05e189	-0.13074316
24	0xbe378671	-0.17922379
25	0xbe48e0e9	-0.19617046
26	0xbdca4ee6	-0.0987833
27	0xbe362532	-0.17787626
28	0xbe475532	-0.19466093
29	0xbe5e2b58	-0.21696222
30	0xbdd697af	-0.1047815
31	0xbe088878	-0.13333309
32	0xbe5510a4	-0.20807129
33	0xbecbf68e	-0.39836544
34	0xbe340632	-0.17580488
35	0xbe8db35f	-0.27675912
36	0xbe1aefbb	-0.15130512
37	0xbe8c3c46	-0.27389735
38	0xbe144c55	-0.14482243
39	0xbea7fff9	-0.3281248
40	0xbdec6c00	-0.11544037
41	0xbe80020e	-0.25001568
42	0xbe090019	-0.13378944
43	0xbdc8b082	-0.09799291
44	0xbe018746	-0.12649259
45	0xbe626f21	-0.22112705
46	0xbea5e732	-0.3240295
47	0xbe09bd30	-0.13451076
48	0xbe89d839	-0.26922777
49	0xbd48ceb9	-0.04902527
50	0xbe69bd27	-0.22826062
51	0xbead9b70	-0.33907652
52	0xbe8c4c5c	-0.27402008
53	0xbea28fab	-0.31750235
54	0xbe182911	-0.14859416
55	0xbe871be1	-0.26388457
56	0xbeb23092	-0.3480268
57	0xbdf93350	-0.1216799
58	0xbedec46a	-0.43509227
59	0xb8c1b070	-9.235821e-05
60	0xbe88bd23	-0.267068
61	0xbe4c8de4	-0.19976002
62	0xbe0c023a	-0.13672724
63	0xbe2b9412	-0.16755703

running_mean f4 [64]
0	0x3d8d6347	0.06903701
1	0xbfa1eedb	-1.2651018
2	0xbf02ae30	-0.5104704
3	0xbb17a436	-0.0023138649
4	0xbf997972	-1.1990187
5	0xbf06547b	-0.52472657
6	0x3cf751f9	0.030190455
7	0xbf5f2184	-0.87160516
8	0x2ab1f91b	3.1614368e-13
9	0xbdd58d7e	-0.10427378
10	0xbd46d44a	-0.0485423
11	0xbf7f39c4	-0.9969752
12	0xbdc5476e	-0.09632765
13	0xbe72bb38	-0.23704231
14	0x3f67cbfd	0.90545636
15	0xbe4ffc70	-0.20311141
16	0x3d4412de	0.047869556
17	0xbe99da71	-0.3004947
18	0x3e45161a	0.19246712
19	0x3f03ec44	0.5153239
20	0x3af589e7	0.0018733115
21	0xbf12b07a	-0.5730053
22	0x3ed4032c	0.4140867
23	0xbf254476	-0.6455759
24	0x3e8ecf61	0.27892593
25	0xbeaa00f6	-0.33203858
26	0x3df9f0eb	0.122041546
27	0x3f7ee021	0.99560744
28	0xbec12efc	-0.3773116
29	0x3f5e084b	0.86731404
30	0x3d176729	0.036963616
31	0x3d2e5ca8	0.042568833
32	0x3c1353d8	0.008992158
33	0xbf81c27c	-1.0137477
34	0x3efa8255	0.4892756
35	0x3d934e03	0.07192614
36	0xbf58ee9c	-0.8473909
37	0x3e73a6ca	0.23794094
38	0x3f1e51f3	0.61843795
39	0x3d323dcc	0.043515965
40	0xbdd67ef0	-0.1047343
41	0xbe97c540	-0.29642677
42	0x3da75151	0.08169807
43	0xbee00db3	-0.43760452
44	0xbe5c8d00	-0.21538162
45	0xbe397845	-0.18112285
46	0xbe5238fb	-0.20529549
47	0xbf4690b9	-0.7756458
48	0xbedd8871	-0.4326816
49	0xbf0c0eb8	-0.5470996
50	0xbe9f158c	-0.31071126
51	0x3e636351	0.22205855
52	0xbeb73767	-0.35784456
53	0xbc857ef8	-0.016295895
54	0x3f010b20	0.504076
55	0xbdb32798	-0.08747786
56	0x3d6648ea	0.05622188
57	0x3c1855e0	0.009297818
58	0x3d47f480	0.048817158
59	0x00000004	6e-45
60	0x3e974277	0.29542896
61	0xbde73043	-0.11288502
62	0x3e7a4112	0.24438885
63	0xbf603e55	-0.8759511

running_var f4 [64]
0	0x3e38d137	0.18048559
1	0x3e8a64f5	0.2703015
2	0x3e13b15b	0.14423124
3	0x3d0535a8	0.032521874
4	0x3dcd267c	0.10017106
5	0x3dbd285c	0.092362136
6	0x3e520113	0.20508222
7	0x3ea79903	0.32733926
8	0x00000004	6e-45
9	0x3daf0c02	0.08547212
10	0x3dce80b2	0.100831404
11	0x3e6f38ec	0.23361558
12	0x3e8eb723	0.27874097
13	0x3da6d07d	0.08145235
14	0x3dbbda58	0.09172505
15	0x3deaa9be	0.11458157
16	0x3e023ef8	0.12719333
17	0x3e0ff9dd	0.14060159
18	0x3c9b5aec	0.018964253
19	0x3d8d5889	0.06901652
20	0x3da8cd8e	0.082423314
21	0x3da22386	0.07916932
22	0x3e71426e	0.23560497
23	0x3e64bccb	0.22337644
24	0x3e2db63b	0.16964047
25	0x3d99d6f4	0.07511702
26	0x3e5c6d88	0.21526158
27	0x3e13df9b	0.14440767
28	0x3dae5569	0.085123844
29	0x3e563fa3	0.20922713
30	0x3e3f1875	0.18661673
31	0x3ca46569	0.020067887
32	0x3d965515	0.07340447
33	0x3e306464	0.17225796
34	0x3d0b0316	0.03393849
35	0x3cf8658a	0.030321855
36	0x3e69e5e3	0.22841601
37	0x3e02a47f	0.12758063
38	0x3d68eade	0.05686461
39	0x3e69c646	0.22829542
40	0x3cddb9af	0.02706608
41	0x3d83de86	0.06438927
42	0x3d4449b0	0.047921836
43	0x3d8c7868	0.06858903
44	0x3dd984a8	0.10621005
45	0x3dfc98b3	0.123338126
46	0x3dd15beb	0.1022261
47	0x3e97d368	0.29653478
48	0x3e181224	0.1485067
49	0x3dcb02c7	0.09912639
50	0x3db687f0	0.08912647
51	0x3e124a67	0.14286195
52	0x3e1929c1	0.14957334
53	0x3dac400f	0.08410656
54	0x3d8e4a8a	0.06947811
55	0x3e038c96	0.12846598
56	0x3e062fb6	0.13104138
57	0x3bdbd9b0	0.0067093
58	0x3e3b58ed	0.18295641
59	0x00000004	6e-45
60	0x3dd3ab16	0.103353664
61	0x3e0fdc9d	0.14049001
62	0x3c7e7647	0.015531129
63	0x3deeecf3	0.11666288
