models/model_NP5_fold_2_l2.pkl (torch_old, 701959 bytes, 38 tensors)

weight f4 [16, 3, 3, 3]
00000000: c59c 2dbd 5e72 183d 81b3 803d 2783 48bd
00000010: 4f0f 2abc 9af5 67bd b52a 8b3d c37e 583d
00000020: 1ef3 013e 7f0f 91bd a233 773d 216f 4cbe
00000030: 3be2 94bd c260 4ebb c983 3a3d 9f1e 83bd
00000040: 9753 8f3d 4128 dabd fa18 033e b722 34bd
00000050: db2e c9bd 416f 4c3e 3fd9 ca3d da83 163e
00000060: 6b6a 7d3d ca57 213c 9f28 17be ade3 c43d
00000070: 739c 2e3e 6706 173e 1d2f 2ebe 7c2e c63d
00000080: 81dd f5bd 09e8 0dbd 1e75 80bc 2d37 fbbd
00000090: 86a6 993b 6af5 1a3e 2518 673e ae7a 5f3c
000000a0: 2c6e a83d ece7 923d cac6 e4bd f9c9 0ebe
000000b0: 3e04 883d a827 5dbd 49b4 0fbe 5133 e4bb
000000c0: caaa 063e 99ea c3bd 6890 a73d 8d62 183d
000000d0: 323a 80be 152b ecbd 0535 bc3b 8f57 393e
000000e0: d703 933d d0cc 30be e2c5 0abe f1fe 3c3d
000000f0: 519e c1bd cfa6 0d3e c765 0d3e ff3d 703c
00000100: feee 513c 6d2a df3d 6e7e 67bd 8dd8 81bc
00000110: 9a41 473e cd6a 74bc 0157 223e 45ec 1b3e
00000120: 85fd 8abe bc02 063d 5189 b0bb 4bbe aabd
00000130: 3325 a5bd b811 033d b013 41be b5da 523d
00000140: 40ad a2bd c101 3dbd f79f 8fbc 8e43 24be
00000150: 6af7 13bd f6c8 f93d 0c9b f0bc b60f 0abd
00000160: a6a9 93bd 1abf e0bd 9f0f 60be 4924 5a3d
00000170: b3e4 35be e60b ee3d 81fd ab3d 4360 b8ba
00000180: 8a41 0abd 035d c5bd 48b0 25bd 154e 893d
00000190: 40d8 9e3d a12f 243d e1fc eabc fb52 5d3e
000001a0: e6be c2bd 040c 9c3d db10 473e 0fdf 523e
000001b0: 374f 8f3d b41e 923d 639f 9fbd f7f4 853d
000001c0: 177c 403d a35f e1bd 1e3e 13be c3b8 503d
000001d0: 9862 0fbe 6875 8e3d 1e3a 113e fb41 f1bb
000001e0: f232 eb3d 894d 9c3d 932e 423d 4b3b e53d
000001f0: 2280 a0bc b6d7 233d b036 a63d 54e7 9abd
00000200: d9ba c13d c88b f5bc 0382 bb3c 8d73 d33d
00000210: 8a34 e63d 6f26 223d c8f3 27bd ec18 02bd
00000220: 6b8a 9f3c fe86 d1bc d947 26bd 380e 3fbd
00000230: 40b7 b5bc f529 7b3c ceb8 a63c c12a f53b
00000240: c99d be3c b675 afbb b6a6 cc3c c495 24bd
00000250: 1d36 d6bc e6e1 b23c 2c7f 9b3c a1ce fb3c
00000260: 652f 9d3b a47e 013c 1183 1f3c 224f a2bc
00000270: ac70 d4bc f87b b33c 49fe 1bbc 2a3a 503c
00000280: 219e c23c 0fa6 9cbb 575d bb3d 3555 d73d
00000290: 2564 fb3d 71d7 03bd 1246 19be 2338 32be
000002a0: 94ed 593d ef76 b83c 3c3f 30be 2aae 4a3e
000002b0: 611b fbbd 3389 2fbe ac46 0a3e e5e6 dbbd
000002c0: b6c0 06bd aac9 363e 274f 103d ce9f 7abd
000002d0: 1e48 183e babc 293e b039 10be 08a8 643e
000002e0: 90bc 08bd 22ca 8bbd 5f47 2b3e da69 e5bd
000002f0: 2510 0bbe f9e3 febd c248 953d eefb 1d3d
00000300: dcc3 bd3d ea12 a9bd c1bc 133e 0700 6dbd
00000310: 5bf7 14be 2d73 cd3d 04e2 673e 2e43 6bbc
00000320: 909e aa3c a8f4 193e a5bc 333e 5ff0 25bd
00000330: b4b2 353e ec72 0bbd a8e1 d2bb eb40 fbbd
00000340: 107b 1dbe 09cd 44be 9410 f1bd 1ccd 05be
00000350: 26cb 4cbe 2e80 24bd 295c bc3d 8e7b 81be
00000360: 11ff 1cbe 3ac4 09bd 7c52 8fbd 5fad 9b3c
00000370: 4f72 35be 7f1a 43be d588 3ebe 213d 14be
00000380: 783e 56be a466 273e d78e 60bd cdc1 f8bd
00000390: 63e2 973d 67fe 153d 9e2a f23d 0f0a a53d
000003a0: 6898 cf3c d550 993c 1dc9 873c 2d21 abbd
000003b0: 7839 133e 49b9 ff3d 8df1 2c3e 61f1 6abd
000003c0: 5547 3e3c a70e 313e 5f63 4a3e 6b67 a6bc
000003d0: 0e96 3bbc 5943 56bd f451 2bbd e649 c5bd
000003e0: cce2 783d 558b 9a3c ae43 d9bd f543 1f3e
000003f0: fd17 76bd 050c 08be 03ab 3bbe 6ec9 6cbe
-0.042385835 0.037218444 0.06284238 -0.0489532 -0.010379626 -0.05663071 0.06795255 0.052855264
0.12690398 -0.07083034 0.060351975 -0.19964267 -0.072697125 -0.0031490778 0.045535836 -0.06402325
0.06998365 -0.10652209 0.12802497 -0.04397842 -0.0982339 0.19964315 0.09904718 0.14698735
0.061869066 0.009847591 -0.1476159 0.09613738 0.17051868 0.14748536 -0.1701016 0.09676835
-0.12005139 -0.034645114 -0.015680846 -0.12266383 0.0046890406 0.1513268 0.22567804 0.013640089
0.082241386 0.07173142 -0.111707285 -0.13944234 0.06641434 -0.053992897 -0.14033617 -0.006964125
0.13151088 -0.0956623 0.0818184 0.03720336 -0.250444 -0.11531655 0.005743625 0.18099807
0.07178467 -0.1726563 -0.13552049 0.04614157 -0.094540246 0.13833164 0.13808356 0.0146632185
0.012813328 0.10896764 -0.056517057 -0.01585033 0.19458619 -0.014918041 0.15853502 0.15226848
-0.27146545 0.03271745 -0.005387463 -0.08337077 -0.08063736 0.03199932 -0.18855166 0.051478107
-0.07943201 -0.04614425 -0.017532332 -0.16041395 -0.036124624 0.121965334 -0.029370807 -0.03370639
-0.07210092 -0.1097395 -0.21880959 0.05325726 -0.17763023 0.11623363 0.083979614 -0.0014066774
-0.03375391 -0.09636881 -0.040451318 0.06704346 0.0775609 0.040084485 -0.028685035 0.21613686
-0.09509067 0.07619479 0.19440024 0.20592903 0.06997531 0.071347624 -0.077940725 0.06540864
0.04699334 -0.110045694 -0.14379165 0.050957453 -0.14002454 0.06955987 0.14182326 -0.007362602
0.114843264 0.07631976 0.047407698 0.1119295 -0.019592348 0.04000064 0.081158996 -0.075636536
0.094594665 -0.02997388 0.022889143 0.10324774 0.1124049 0.039587434 -0.041003972 -0.03176205
0.019475183 -0.025577065 -0.040595863 -0.04664442 -0.022182107 0.015329828 0.020351794 0.0074819033
0.023268597 -0.0053546084 0.024981838 -0.04018189 -0.02614885 0.021836232 0.018981539 0.030738177
0.0047969096 0.007903729 0.0097358385 -0.019813124 -0.025932632 0.021909699 -0.0095210755 0.01270918
0.023757042 -0.004780538 0.091486625 0.10514299 0.122749604 -0.032187883 -0.14968136 -0.17404227
0.053205088 0.02251765 -0.17211622 0.19793001 -0.122610815 -0.17142181 0.13503522 -0.10737399
-0.032898627 0.17850366 0.035231736 -0.061187558 0.1487126 0.165759 -0.14084506 0.22329724
-0.033382952 -0.06825663 0.16726445 -0.1120183 -0.13580377 -0.12445826 0.07289268 0.038570337
0.09265873 -0.08255561 0.14427473 -0.057861354 -0.14547484 0.10031734 0.22644812 -0.014359279
0.020827562 0.15034735 0.17552431 -0.04051244 0.17743951 -0.034045145 -0.0064355917 -0.122682415
-0.15378976 -0.1921884 -0.1177074 -0.13066524 -0.1999937 -0.040161304 0.09197266 -0.25289577
-0.15331675 -0.0336344 -0.069981545 0.019003568 -0.17719387 -0.19053076 -0.18606885 -0.14476444
-0.20922267 0.16347748 -0.054823723 -0.121463396 0.07416227 0.03661957 0.11824535 0.08058559
0.025341228 0.018715302 0.01657539 -0.08355937 0.14377391 0.12486512 0.1688902 -0.057359103
0.011613687 0.17290746 0.1976447 -0.020312985 -0.01144935 -0.05231032 -0.041826203 -0.09633236
0.060763165 0.018865267 -0.10608612 0.15553267 -0.06008147 -0.13285835 -0.18326955 -0.23123714

bias f4 [16]
00000000: 7cdf 74b8 67e4 e13a 209a 653a 8f7d 3239
00000010: 5901 fb39 b001 0080 307f 02bb a50d 2f3b
00000020: 437d af3a a121 313a f1b0 07bb 18e9 b63a
00000030: 71f1 203b 8e96 4cbb 077e 413b 84bf 07ba
-5.838227e-05 0.0017234207 0.0008758623 0.00017022177 0.00047875455 -6.05e-43 -0.0019912235 0.0026711014
0.0013388771 0.0006757025 -0.002070483 0.0013954965 0.0024557973 -0.0031217667 0.002952458 -0.00051783794

weight f4 [16]
00000000: 451b 843e 89c8 473f d1d5 f63e bd56 d23e
00000010: b7b9 c33d 286b e639 3fc1 9c3e 5ff5 c13e
00000020: 583b d43e 82c9 963e 4d90 0e3f 3c94 aa3e
00000030: 3b10 033f 1d54 063f 65a4 233f 1140 953e
0.25802055 0.7804037 0.48210004 0.410818 0.09556907 0.00043948856 0.30616185 0.37882516
0.41451526 0.29450613 0.55688936 0.3331622 0.5119664 0.52472097 0.6392272 0.2915044

bias f4 [16]
00000000: 76d9 5d3c de65 7b3e 4f10 033e 9454 1f3e
00000010: 1c1c 93bc e85d 74bc 9311 6d3e a980 72bd
00000020: 5774 16bd 0119 a1bd 8b31 093e ba2d 1e3e
00000030: 9458 acbc 6abb 043e 90f5 c53c 5dd0 4f3d
0.013540616 0.24550578 0.1279919 0.15559608 -0.01795774 -0.014914967 0.23151235 -0.05920473
-0.036732044 -0.07866097 0.13397805 0.15447131 -0.021038331 0.12962118 0.024164945 0.05073582

running_mean f4 [16]
00000000: 89ce 76be cbbf 9bbc f73e 23be 68f8 853c
00000010: bd4e 0fbf 9e34 7a3d 944a b6bd 8b39 d63e
00000020: b431 c43e 6191 cb3e 6747 3abd 89eb 14bc
00000030: 7ac9 74be d72f b9be 6083 a1bd b41a d0be
-0.24102224 -0.019012352 -0.15941988 0.0163538 -0.5597952 0.061085336 -0.089009434 0.41840777
0.3831917 0.39759353 -0.04547825 -0.009089359 -0.23904982 -0.3616931 -0.07886386 -0.40645373

running_var f4 [16]
00000000: 66bb a53e da31 ab3e 3b26 163f 700e 313e
00000010: 9d68 fa3f d43c ed3c 9889 323f 1d99 6e3f
00000020: b3a8 8d3f c832 903f 2c87 8b3e ba96 ed3e
00000030: 6f45 333f f619 8e3f a7fd aa3e 864f 943f
0.32369536 0.3343647 0.58652085 0.17290664 1.9563175 0.02895967 0.697412 0.9320238
1.1067108 1.1265497 0.27251565 0.46404058 0.7002782 1.1101673 0.33396646 1.1586769

weight f4 [32, 16, 3, 3]
00000000: bd67 73bd 24b4 1b3d 6092 143e 65e0 58bd
00000010: b78c 853d b057 0d3e 63af 7fbd 7c52 fcbc
00000020: 63ce 0f3e 7dcc 5bbd 4fcd 1e3d ed02 97bd
00000030: 9f90 6fbc 2467 013c 98ca 2bbd cfdf d53d
00000040: b448 eb3d 63ba 0a3d 7460 873b 7fe7 983d
00000050: d55a 94bd 7bdd 59bd fab6 69bc 4a8d 1cbc
00000060: f151 ad3c de9d e83c a3e3 bdbd ce0c 7fbb
00000070: 23a5 c6bd 9d2e babd 5d7d 3ebd fe08 b2bd
00000080: a051 0fbe 603f 5f3c bb1f 10be 3541 6bbd
00000090: 205d c73b 33af 31bc bce6 92bc 4c54 883c
000000a0: ab39 b5bd 339b 5ebd a6a6 ff3b a2fc 31bc
000000b0: 6342 87bc 15ed 71a8 07e1 fea7 9f98 28a4
000000c0: 620e 6aa6 5ea5 50a6 ac97 c8a7 84a9 e6a9
000000d0: c860 33a7 f8fc 9ea7 a62e 623c 7609 a53d
000000e0: 4ff6 5d3e 730e abb9 010d 373d e22f 3d3e
000000f0: 6872 8dbd cd3f a23d 2c0b 153e 5481 ad3c
00000100: eee8 abbc ddf2 f53d 2b77 fbbd 1340 57bd
00000110: 6903 103e ec74 9f3c f968 96bc ce6c 0c3d
00000120: 5e65 9b3d 499b 04bd fd04 1fbd 7635 f2bc
00000130: 1a01 113d 55ae dfbd 31c2 2abc c3d1 8bbd
00000140: d57f cdbd ac7f 8bbd d952 12bc 0b82 033d
00000150: 083f e7bc 649c dbbc 3db8 983d e6fe 0abb
00000160: 55a1 753d 838b 193d 359d bebd 02ca a5bc
00000170: bd43 8cbd 70a2 323b 109d 97bd ee7d 233d
00000180: b1b0 6d3d fd7c 07be 3e35 87bc aa0f 8f3d
00000190: 87c7 23bd 9837 31be 2d49 ac3d 340a 44bd
000001a0: 8c1c a2bd 63fa f43d 108d 2c3e d371 413d
000001b0: 893c 2a3d ac19 9e3d 6bb0 78bd 8a75 54bd
000001c0: 57c3 823d 8793 1c3d dcf7 94bc 0c4c 21bd
000001d0: cee1 9fbc d538 6c3d 69b3 413d d1ce 1b3d
000001e0: e530 12bd 62bf 9c3d 3cc8 be3d b4c0 9e3c
000001f0: b163 45bc 8e0f 2d3d 1e48 9dbd 73a9 53bd
00000200: 4f68 7abc 384f 5e3d 3647 9c3c ea53 0ebe
00000210: ab36 a4bd 91f4 abbd d77f 01be e3fa 9abd
00000220: 8f80 8ebd a6ac a13d d404 c33d 7262 0f3d
00000230: fcfc 063d e227 d03c 36cb f43d 0bf2 b93d
00000240: e560 50bb 215f ed3c 3b02 f6bc ee0c c33d
00000250: cf6f a03d 70dd 4d3d a1ab 043d 9d32 e6bb
00000260: e3e0 ba3d c129 b7bd 4f62 9fbd 92ce ce3d
00000270: b551 49bc bb17 0abe 387d dcbd d404 923d
00000280: 2d06 39bc 7d32 9bbd d712 08bd 0278 0fbe
00000290: bad5 62bd ba88 6d3d b6f7 21bc a353 aebd
000002a0: 6098 af3d aba8 a93d 4ed7 2abc 7f84 373d
000002b0: 6709 90bd 7df8 febd 55bb 8e3d 8cf5 fd3c
000002c0: 57fe 7239 dc3f 383d 1b08 c43d 518a aa3d
000002d0: 63e8 c9bb d2d9 6cbc c153 b9bc 8ea6 983b
000002e0: 5246 863c 6d11 56bc 7639 a03a e5ce 3d3b
000002f0: 92d4 633c c2b6 b6a8 b600 8ba8 28d1 b4a3
00000300: 310f 8aaa bb03 cf29 33dc 48a8 8f66 0c16
00000310: 0f75 9c8b be90 8c94 f260 113d 37fa 8a3c
00000320: ec12 00be e65d 183d 74d8 683d 2472 683c
00000330: 582d bfbd b8db 74ba b28f 7c3d fcba 003e
00000340: 2209 003e 032a e3b9 e2d5 febc 16c4 ab3c
00000350: 8ba9 d03d dc21 8bbc 8d47 303c 6b0f 5f3c
00000360: ea03 0b3c 56ce 103d 478c 49bd ce50 91bb
00000370: 52a8 2cbd 213d 5bbb 10ba 14bd d50f 573b
00000380: 9ed4 503d ae8d c4bd dd99 81bd d3da a3bd
00000390: dec4 8dbd 94dc 58bd d209 88bd ccde a8bd
000003a0: ca3c aa3a 8967 89bd ea76 453d 1d41 e33c
000003b0: e06d 21bc c3ec 753c 239f df3d 9d7d 783d
000003c0: 53dd 1ebe 19a7 0dbd 02c9 5b3d cfc5 2cbe
000003d0: 62c9 19be b3a8 063d c181 1cbd 73dd c4bd
000003e0: 296e dbbd 271a 7c3d 0862 08bc 94cb 12be
000003f0: aef3 1e3c 6677 d13c d3ca 75bd bdb8 863d
-0.059425104 0.038013592 0.14508963 -0.052948374 0.0652098 0.13802981 -0.06242312 -0.03080105
0.14043574 -0.053661812 0.038770016 -0.07373605 -0.014621883 0.007898126 -0.041941255 0.10443079
0.114884764 0.03386916 0.004131371 0.074660294 -0.07243887 -0.053189736 -0.014264816 -0.00955517
0.021157237 0.02839559 -0.09271934 -0.0038917544 -0.09699466 -0.09090922 -0.046506274 -0.086931214
-0.13995981 0.01362595 -0.14074604 -0.057435233 0.0060840994 -0.010844993 -0.017932288 0.016641758
-0.0884889 -0.05434723 0.0078018485 -0.010863455 -0.016511148 -1.3429596e-14 -7.0743137e-15 -3.6558468e-17
-8.120455e-16 -7.238861e-16 -5.5675594e-15 -1.0243458e-13 -2.4893705e-15 -4.412808e-15 0.013805067 0.08058445
0.2167599 -0.00032626427 0.044690136 0.18475297 -0.06906587 0.07922325 0.14555043 0.021179833
-0.020985093 0.12009213 -0.12278589 -0.05255134 0.14063801 0.019464932 -0.018360602 0.03428345
0.07587694 -0.032374654 -0.038823117 -0.029566508 0.03540144 -0.10921923 -0.010422275 -0.06827118
-0.10034148 -0.06811461 -0.008930885 0.03210644 -0.028228298 -0.026807971 0.07457016 -0.002120906
0.05996831 0.037486564 -0.093073286 -0.020237926 -0.068488576 0.0027257465 -0.07403004 0.039915018
0.058029834 -0.13231273 -0.01650488 0.069854096 -0.039985206 -0.17306364 0.08412395 -0.047861293
-0.07915601 0.1196182 0.16850686 0.04722769 0.041561637 0.0771974 -0.06071512 -0.051869906
0.06384914 0.03822663 -0.018184595 -0.039379165 -0.019516852 0.057671387 0.04729024 0.038039032
-0.03569116 0.07653691 0.093155354 0.019378997 -0.012047694 0.042251162 -0.07679771 -0.05167527
-0.015283658 0.054274768 0.019076925 -0.13899198 -0.080182396 -0.08396257 -0.12646423 -0.07567384
-0.06958114 0.07894258 0.09522405 0.035005994 0.03295611 0.025409643 0.11952822 0.09079369
-0.0031796035 0.028976025 -0.03003036 0.095239505 0.07833826 0.050260007 0.03239024 -0.0070250765
0.09124925 -0.08943511 -0.07782423 0.10097994 -0.012287547 -0.13485615 -0.10766071 0.07129827
-0.011292976 -0.07577989 -0.033221092 -0.14010623 -0.055379607 0.05799172 -0.009885719 -0.08512046
0.08573985 0.08284124 -0.010427309 0.044804092 -0.07033043 -0.12449739 0.069693245 0.031000875
0.00023173667 0.044982776 0.095718585 0.08327163 -0.006161736 -0.014456229 -0.022622945 0.0046585267
0.016390953 -0.013065678 0.0012224156 0.002896243 0.013905661 -2.0285318e-14 -1.5432408e-14 -1.960422e-17
-2.4524266e-13 9.193294e-14 -1.1149978e-14 1.1341472e-25 -6.0265144e-32 -1.4193478e-26 0.035492845 0.016965015
-0.12507218 0.037198924 0.05684705 0.0141873695 -0.093348205 -0.0009340602 0.061660476 0.12571329
0.12503484 -0.00043328115 -0.031107847 0.020967524 0.10188588 -0.016983919 0.010759247 0.013614516
0.00848482 0.035353027 -0.049206045 -0.0044346815 -0.04215271 -0.0033453184 -0.036310256 0.0032815833
0.050984018 -0.09597336 -0.06328175 -0.08000722 -0.06922315 -0.052944735 -0.06642498 -0.0824562
0.0012988087 -0.06709201 0.04820911 0.02774101 -0.009852856 0.015010062 0.10919025 0.06066667
-0.15514116 -0.034583185 0.053658493 -0.16872333 -0.15018228 0.032875728 -0.03820968 -0.096125506
-0.10714371 0.06154838 -0.008324154 -0.14335471 0.009701652 0.025569629 -0.06000788 0.06578205

bias f4 [32]
00000000: 7aff a9b8 f5bf 02b9 441f e838 ad8e fb39
00000010: a725 8639 6f8b 71b9 d82a 1038 eda3 14b9
00000020: 4423 37ba df1a a639 5ab6 14ba dcd3 e939
00000030: c7c6 3a36 f5e9 ca38 4dcb b0b9 f450 033a
00000040: e6ab 473a c596 0239 a4c3 abba bc17 6fba
00000050: f561 b939 d44a 6e3a cbca 5438 681e 26ba
00000060: ba8c 07ba 3ebe 2dba 1b1c e9b8 ec2a 47b9
00000070: 993c 9639 d7f4 1eba 77b3 31ba 4373 8b39
-8.106134e-05 -0.00012469276 0.00011068446 0.00047980752 0.00025586525 -0.00023035494 3.4372177e-05 -0.00014175447
-0.0006986151 0.00031682008 -0.00056729245 0.0004459907 2.7831863e-06 9.6756885e-05 -0.00033720807 0.00050093164
0.00076168624 0.00012453932 -0.001310457 -0.0009120663 0.00035358933 0.000909013 5.0733604e-05 -0.00063369283
-0.0005170811 -0.00066277746 -0.00011115541 -0.00018994109 0.00028655378 -0.00060637057 -0.00067787565 0.00026598023

weight f4 [32]
00000000: b052 f73e 36f1 eb3e cf69 2f3e 8ad0 483f
00000010: c884 b43e e29a 7c3e a115 663f 4b1c c83e
00000020: 2909 f73e c357 a43e a1b0 233f dfc2 553f
00000030: de5f 183f 06ca 833e e21f b53e b474 d33e
00000040: 1b2a 453f 7832 063e 31ef 1a3e 21c8 133f
00000050: be25 213f 318d 2d3f abe6 573e ace1 313f
00000060: 5186 103f 9a8a cd3e c8a3 0e3f f9cd 403f
00000070: 223e 733e 3e39 033f 20c7 ef3e 0966 143f
0.48305273 0.46082467 0.17130207 0.78443205 0.35257554 0.24668458 0.89876753 0.39084086
0.48249176 0.32098207 0.6394139 0.83500475 0.5952128 0.2574007 0.35375887 0.41299975
0.7701737 0.1310519 0.15130307 0.5772725 0.62948215 0.67793566 0.21084087 0.6948497
0.5645495 0.40144807 0.5571866 0.7531429 0.2375417 0.5125922 0.46831608 0.57968193

bias f4 [32]
00000000: e9b3 f4bc cf28 f5bd e16f b9bd 3566 ffbd
00000010: ea2c ddbd d78d 37bd 2569 d5bd 634a 8abc
00000020: 2225 03bd a1ef 803c cc13 50bc 29b1 92bd
00000030: 609c 07be 341a f1bd 6a51 043d 2185 163d
00000040: 61d0 dd3c baf5 423b be9e f0bb c2cb 37bc
00000050: a516 7cbe c58a 9f3d 0049 0bbe 909e 87be
00000060: c7b8 9c3c d9d4 65bd f034 7dbd 36a4 c0bc
00000070: 0c86 96bd 2e9f 2abd 0f40 98bd 4cb9 d43c
-0.029870944 -0.11970674 -0.09054542 -0.12470666 -0.10799582 -0.044813003 -0.10420445 -0.016881173
-0.032017834 0.015739264 -0.012700032 -0.07162697 -0.13243246 -0.11772576 0.032304205 0.036748055
0.027076902 0.0029748515 -0.0073431423 -0.011218013 -0.24618013 0.0779014 -0.13602066 -0.2648816
0.019131077 -0.05611119 -0.061818063 -0.023515802 -0.07349786 -0.04165571 -0.07434093 0.025967263

running_mean f4 [32]
00000000: 99de 293c f50b 91be d1ea e5be b305 babc
00000010: 26af 8dbe 9fd6 cbbe 16f8 0abf 8d2e 9bbe
00000020: 6dbb e6bd 1aa3 aebe c094 45bf c737 2fbe
00000030: 5921 663f 3f8d e83e c899 7d3e 32b4 85bd
00000040: fe10 83be 9423 34be f903 59be a20b bb3d
00000050: def6 9dbf 88ea b0be ede4 e0bd 3166 c0bf
00000060: 1323 dc3d e2ae b2be 4ab3 1a3e 051e 2cbe
00000070: 20a7 29bd 0e78 8e3d 356c e9bd f950 a13e
0.010368013 -0.28329435 -0.44905713 -0.022707796 -0.2767269 -0.3981218 -0.542848 -0.30308953
-0.112662174 -0.34108812 -0.771801 -0.17111121 0.89894634 0.45420262 0.24765694 -0.0652851
-0.25598902 -0.17591697 -0.21192922 0.09133078 -1.2340963 -0.34553933 -0.10981164 -1.5031186
0.107488774 -0.3489905 0.15107456 -0.16808327 -0.04141915 0.06956492 -0.11397592 0.3150709

running_var f4 [32]
00000000: 3ef7 283e bec9 2e3e a2ca fd3d a38f 5e3e
00000010: 9796 103e faa2 063e a41c 703e 693d 283e
00000020: ba84 993d 3eaf bd3d de1e 313e 5516 7e3e
00000030: a7ad 8d3e f808 ba3d 3ab3 003e 05fd f53d
00000040: e5f4 383e 1889 b03d 07ad 933d 4e12 783e
00000050: a9ad 613e 82cd 2b3e de36 d43d 70e2 af3e
00000060: a3dc 013e 1efd 883d 0f63 983e 2838 5e3e
00000070: b4a9 b33d 9a7d ae3d 2824 b03d 1373 353e
0.16500565 0.17069146 0.12392165 0.2173448 0.14119945 0.13148108 0.23448426 0.16429676
0.07496019 0.092619404 0.17296931 0.24813206 0.2767155 0.09083742 0.1256837 0.1201115
0.1806217 0.086198986 0.07210737 0.24225733 0.22038902 0.16777614 0.103620276 0.34352446
0.12681822 0.06688903 0.29763076 0.2170111 0.08772603 0.0852005 0.08600646 0.17719679

weight f4 [48, 32, 3, 3]
00000000: a986 16bd e024 abbd c67e 733b d901 1cbd
00000010: ad94 90bc 6946 9ebc b003 e93c 6134 ee3b
00000020: 55c3 75bc f621 20bd 5b72 163d 135a b03c
00000030: f50a 8fbd d9d4 2dbd f25b 0f3a db92 ba3d
00000040: 32b2 bd3c 0199 82bd 666c 46bd 5925 a0bd
00000050: 1b9e 55bd 823a 37bd 48d3 9ebd 760b b3bd
00000060: 8c6f 72bd 5ebb 90bd 74c7 87bd db1c 42bd
00000070: 42c2 fabc a0d5 a3bd 7e06 c03c 9b06 f2bc
00000080: 981e 5cbd f0a1 c13b cd1d 193d 0bab 4c3d
00000090: 3784 18bc 7e0d 79bd f8f6 033d d20f 02bd
000000a0: eb23 10bd 5d60 393d 82ad 01bd f6b0 95bc
000000b0: e364 163d f83b 1a3c 7d49 12bd cca1 d5bc
000000c0: 2d9a 34bb dcfa 26bd b1cd d73c d49c d23d
000000d0: ca7b 003e cb93 1a3e f5f7 843b 9bad cdbc
000000e0: 3aed 24bd b2a9 803c 666b b73b 444d e139
000000f0: e32f 80bc 364c 573d 4e1e 1dbb dc4d fabb
00000100: 4b58 f33c 3adf 913c 154e 0ebc bea6 553c
00000110: 0816 0dbc 17d5 92bd a2c3 b9bc 3b5f d7bc
00000120: 848e 12bd 407e 3d3d f430 bd3c 7f61 cfbc
00000130: 0063 dabb 4167 69bb 5c4a 99bb db30 d6bc
00000140: 5f90 b63c a7d6 43bd 015d 0fbc e1a2 f4bc
00000150: a328 8bbb 51ce 87bc 9732 33bd 6c94 eebc
00000160: ea13 c4bc 0877 9abc ee9b 433c 6faa 043c
00000170: 9796 503a 5aa5 0fbd 59ff d63c cb1a e4bc
00000180: 4b07 03bc 47d0 11bd 800a 7f3c ea53 a43d
00000190: 21ad 963d 3da1 0e3d d4f1 5f3d a510 e33c
000001a0: ac33 39bc 6585 0a3d a0d0 833d 3a60 f73c
000001b0: 23d7 99bd c402 a1bc e81a 46bd 385c a73c
000001c0: b40e 423d b5e7 9cba 8f8b e33b 106f ac3c
000001d0: cd04 57bc fafa 9bbd 6fa8 a6bd 80ca 99bd
000001e0: ed3c dbbd ff29 1fbe 0a77 cfbd bdec d9bc
000001f0: 38ab 463c 1cc4 ecbc b888 a13c fde2 693d
00000200: c978 703c 686f 843c 3428 40bc 1fa8 e4bc
00000210: ddd3 0abc 56bd d1bc 5fa3 60bd a701 6ebd
00000220: d60c 72bd be74 8fbd 2337 93bd 5bb8 b3bd
00000230: a625 c6bd 5ccf 223d 97ec dfbc 32b7 eabb
00000240: 00cb 2dbd bea7 58bb f883 9c3b c923 043d
00000250: 8278 eebb 66fb 3abd 52da 483d 8666 d73c
00000260: 9d3f 54bc 2d9d 39bd 5b1b abbd a7e9 77bd
00000270: 79e4 67bd 37fc 9bbd c7e7 21bd 1dc6 83bd
00000280: 6d27 99bd af54 59bd d4f1 e8bc c0b2 a5bc
00000290: 0653 de3b b414 b8bc eac2 70bd 19a6 4cba
000002a0: ec2d 0dbd 3006 9c3c dcbd 1abc 5a2d 1b3d
000002b0: 2570 bfbd 6157 8abd 91e9 8fbc b5ed c3bd
000002c0: d17b 28bd 7203 52bb 3aa3 95bd 5d94 95bc
000002d0: 577f 02bd 564b 143d 0817 2abb eee5 43bc
000002e0: 4446 62bd cd98 c939 d754 0e3d e227 1e3d
000002f0: c394 7d3d 643f 9a3d 77a0 87bc f83f ba3c
00000300: ac73 ff3c 8643 0abc b997 d13b cc27 083a
00000310: f264 0ebd 38ea c1bb 3c18 92bc 49d9 51bd
00000320: 9915 d9bb d001 82bc 8513 56bd 72f5 39bc
00000330: 6976 b8bc ef0e 34bd 6dbf 1b3d 279c 6d3d
00000340: 1cf8 ac3d e07a 82bb 72bc ac3d a954 303d
00000350: c0e1 b73d f414 2e3d 9fef 843d 1828 043e
00000360: 56b3 dc3b 89c2 69bd cc06 45bd 7357 b3bd
00000370: 785d c0bd 48ef 83bd 6aef a9bb 9d70 87bc
00000380: ec61 c5bc 5682 4d3d 6e65 ee3b ae86 6ebc
00000390: b596 bf3c 9690 d8ba fc51 cabc 8ffb 723d
000003a0: 9b57 d53c 7bed dd3c b89b efbd 969e f7bd
000003b0: 83c1 dfbd 2cf3 1bbe 27e2 08be f190 4bbc
000003c0: fe29 02be e546 a4bd 65b3 05bd b0e1 d0bb
000003d0: f7c2 abbb 07f3 50bd b449 22bd 45fa 52bd
000003e0: 97fe 3dbd 7459 dfbc e255 14bd 3faf 51bd
000003f0: e41c 10bc 0b2b 88bd 5c75 b13c a5a8 abbc
-0.036749516 -0.08356643 0.003715442 -0.0380877 -0.01764902 -0.019320684 0.028444141 0.0072694276
-0.015000184 -0.039094888 0.03673015 0.021527326 -0.06984512 -0.042439315 0.0005468718 0.09110042
0.02315626 -0.063768394 -0.04844322 -0.078196235 -0.052152734 -0.04473353 -0.077551425 -0.087424204
-0.05918841 -0.070669875 -0.066298395 -0.0473908 -0.030610207 -0.0799973 0.023440596 -0.029544165
-0.053740114 0.005909197 0.037381936 0.049967807 -0.009308866 -0.060803883 0.03221795 -0.03175337
-0.035190504 0.045257915 -0.03165961 -0.018272858 0.036717307 0.009413712 -0.035714615 -0.026078127
-0.0027557716 -0.040766582 0.026343198 0.10283819 0.12547222 0.15095441 0.004057879 -0.025107196
-0.0402653 0.015705917 0.0055975197 0.00042972912 -0.015647834 0.052562915 -0.0023974362 -0.007638676
0.029705187 0.017806638 -0.008685608 0.013040243 -0.00861121 -0.0716955 -0.022676293 -0.026290527
-0.035780445 0.04626298 0.023094632 -0.025315044 -0.0066646338 -0.0035614523 -0.004678054 -0.026146343
0.022285638 -0.04781213 -0.008750201 -0.029862823 -0.0042467876 -0.016577872 -0.043749418 -0.029123507
-0.023935277 -0.018855587 0.011939032 0.008097275 0.000795701 -0.0350698 0.026244806 -0.027844807
-0.007997344 -0.03559902 0.015566468 0.08023818 0.073572405 0.034821738 0.054673985 0.027717898
-0.011303823 0.03381862 0.064362764 0.030197252 -0.07511737 -0.019654639 -0.048365504 0.020429716
0.047377303 -0.001197091 0.006944127 0.021049052 -0.013123703 -0.07616229 -0.08137595 -0.07509327
-0.1070498 -0.15543364 -0.10130127 -0.026602143 0.012125783 -0.028902106 0.019718513 0.05710124
0.014677235 0.016166404 -0.011728335 -0.027912198 -0.008473364 -0.025602978 -0.054843303 -0.058107045
-0.059094273 -0.07004689 -0.07188251 -0.087753974 -0.096751496 0.039748535 -0.027334495 -0.007162952
-0.042429924 -0.0033058967 0.004776474 0.03226069 -0.0072775492 -0.04564991 0.04903633 0.026294004
-0.01295462 -0.04531591 -0.08354827 -0.060525563 -0.056614373 -0.076164655 -0.03952768 -0.064342715
-0.07478223 -0.053059276 -0.028435625 -0.020226836 0.0067847995 -0.02247081 -0.058779635 -0.0007806733
-0.034467623 0.01904592 -0.00944468 0.037885047 -0.09347562 -0.067549475 -0.017567428 -0.095668234
-0.041133706 -0.003204551 -0.073065236 -0.018259222 -0.031859722 0.03620466 -0.002595367 -0.011956675
-0.05524279 0.00038451553 0.03474888 0.038612254 0.06190945 0.07531622 -0.016556008 0.02273558
0.031183086 -0.00843895 0.0063962606 0.00051939185 -0.034764238 -0.0059178136 -0.017833821 -0.05123261
-0.006624889 -0.015870005 -0.05226471 -0.011350023 -0.0225174 -0.043959554 0.038024355 0.058010247
0.084457606 -0.003981933 0.084343806 0.04304949 0.08978605 0.04250045 0.064910166 0.1290592
0.0067352457 -0.05707029 -0.048102185 -0.08756914 -0.09392828 -0.06442124 -0.005186011 -0.01653319
-0.024094544 0.050173126 0.007275275 -0.014558477 0.023387292 -0.0016522582 -0.024697296 0.059321936
0.02604275 0.027090779 -0.11699623 -0.12090795 -0.10925581 -0.15229481 -0.1336752 -0.012424693
-0.12711331 -0.080213346 -0.032641787 -0.0063745603 -0.0052417475 -0.05101302 -0.03962107 -0.051508207
-0.046385374 -0.027264334 -0.036214717 -0.05119252 -0.008795951 -0.06648835 0.021662407 -0.02095444

bias f4 [48]
00000000: edaa 8138 c339 2337 d1bf c2b8 9d14 8338
00000010: 1f46 a2b6 cc74 25a9 75de 0c38 826d 80b6
00000020: 6db7 0139 49a3 e638 5bc6 37b8 d3ef 3038
00000030: ee5d 12b6 b350 4e38 0aea 9f37 aa7c 7a38
00000040: 49d8 2938 a4ad 8bb8 352a 4437 5f9c 11b7
00000050: 154a efb5 0a38 1238 57c0 0b38 1fb0 64b6
00000060: a95a cab8 dd00 0080 8725 9db8 2e83 8e38
00000070: 3559 4c39 746f f326 5e8d 0139 228b 4b39
00000080: 1e57 6ab7 dcd5 71b8 b712 deb6 adaa 82b6
00000090: 4eba 6636 a31b 5838 853c 6436 ae57 3c37
000000a0: f631 c538 7bcb cbb7 9974 b0b8 be23 2936
000000b0: 1e27 c3b8 603f 1fb9 a949 ba37 3455 6cb9
6.183037e-05 9.729006e-06 -9.2863695e-05 6.250406e-05 -4.8361394e-06 -3.6738665e-14 3.358578e-05 -3.8274457e-06
0.0001237073 0.00010997669 -4.3815333e-05 4.2185024e-05 -2.181037e-06 4.9189384e-05 1.906326e-05 5.9720747e-05
4.049417e-05 -6.6603796e-05 1.16923375e-05 -8.6790815e-06 -1.7828448e-06 3.4861303e-05 3.3319313e-05 -3.4077163e-06
-9.6489974e-05 -3.1e-43 -7.4933334e-05 6.795522e-05 0.00019488188 1.6891722e-15 0.00012355062 0.0001941142
-1.396777e-05 -5.765805e-05 -6.6182943e-06 -3.894171e-06 3.4381114e-06 5.152415e-05 3.4009875e-06 1.1226088e-05
9.402998e-05 -2.4294239e-05 -8.414052e-05 2.5203767e-06 -9.305611e-05 -0.0001518703 2.2207229e-05 -0.00022538455

weight f4 [48]
00000000: 12f5 913e 2a38 b03e 8a3b a03e 2721 c03e
00000010: cda4 5d3f 685f c93c 7f3b 0a3f 3272 f53e
00000020: 70a3 0a3f 54e4 d73e 8272 db3e 547a 393f
00000030: 391c 5a3e ae3c 523e 723b 473f fe22 263f
00000040: bb67 183f 7133 7a3e 78dc e53e c777 513d
00000050: 911d 0e3c 987c e93e 5308 983e c64a 373e
00000060: 57ee 273f 7d54 adb9 fae1 293f 78ee a83e
00000070: c1d9 263f e4da 653c c8ba 443f 27e9 2e3f
00000080: 3f12 833e c0d4 0c3f 42fe 113f 6f34 343e
00000090: 588f 953e 57e3 393f 2bad c73d ac26 6d3e
000000a0: 0c20 0c3f 2650 433f aa0a 303f e4c1 a23d
000000b0: 51fd 213f d991 083f df5f 893e 46b0 353f
0.28507286 0.3441785 0.31295425 0.37525293 0.8657959 0.024581626 0.53997034 0.47938687
0.54155636 0.42166388 0.428608 0.7245228 0.21299829 0.2053096 0.7782508 0.64897144
0.5953328 0.24433686 0.44894767 0.05113962 0.008674041 0.4560287 0.2969385 0.17899618
0.6559805 -0.0003306008 0.6636044 0.32994437 0.65176016 0.014029238 0.76847506 0.6832451
0.25599858 0.5501213 0.5702859 0.17598127 0.29210925 0.7261252 0.09749826 0.23159283
0.547364 0.7629417 0.6876627 0.07947138 0.63277155 0.53347546 0.26830956 0.70972097

bias f4 [48]
00000000: a61a 36be b84c f3bd 85a7 54be 0fd5 f4bd
00000010: d6f4 b0bd ff3a f6bc 2ace 3abe 456f 04be
00000020: 282c 9fbe 023a 47be 0f55 48bd 4bca 96be
00000030: 26e2 d6bd 73d2 dfbd b67f 42be 7bc6 afbd
00000040: 80d2 cabd a88d a6bc 6baf 55be f348 a2bd
00000050: a456 21bd 7393 0fbe a410 e7bd 7f16 c7bd
00000060: a493 883c c87e a3b7 c678 3fbe 57d7 37bd
00000070: 583b 28be 39d0 7bbc fd45 72be 7ad7 63be
00000080: 5c54 b7bd baeb 28be 1a7c e6bd a878 e4bd
00000090: 267d 50be f7a6 3fbe fbaa e2bd 5b4d 2dbe
000000a0: 4b42 0cbe 5e1c 24bd 6ac2 4d3d 30c6 babd
000000b0: ba2f 3cbe 215e 55be e60e 36be 5a67 6cbd
-0.17783603 -0.11879867 -0.20767029 -0.119547 -0.08640449 -0.030057428 -0.18242708 -0.12933071
-0.31088376 -0.19455722 -0.048909243 -0.29451212 -0.10492353 -0.10928812 -0.1899403 -0.08582779
-0.09903431 -0.020331219 -0.20867698 -0.0792407 -0.039389268 -0.14021091 -0.11282471 -0.09721088
0.016671963 -1.9490151e-05 -0.18698415 -0.0448831 -0.16428888 -0.015369468 -0.23659511 -0.22250167
-0.08951637 -0.16496173 -0.11254139 -0.11155826 -0.2036024 -0.18716036 -0.11067768 -0.1692404
-0.13697164 -0.040066116 0.050234236 -0.091198325 -0.18377581 -0.20836689 -0.17779121 -0.05771575

running_mean f4 [48]
00000000: 3f1a 91bf 147a 95bf 25f0 02bf e462 f6be
00000010: 890f a2bf a653 13bb b4f6 04bf 32f5 55bf
00000020: ae69 aebe c73c 43bf 7e15 72bf 1cb7 84bf
00000030: 9fd1 0cbf 94fc 75bf c782 38bf dda6 1abf
00000040: c3f9 02bf 5604 5ebe 2355 a4be e764 07be
00000050: 2322 633d 3e3d 50bf 67bf 83bd a0a8 9c3e
00000060: 37b4 60bf 2e16 0e33 b5b7 14bf bfed 98be
00000070: 738e 4abe b088 93b9 7317 823d 64c5 2bbe
00000080: 543b 83bf cf9f 66be 076a 8fbd 6728 9b3f
00000090: ff7b 11bf 5c94 d2bf 0d1c cdbe cc90 863c
000000a0: 19de 8cbf 24af 93be 03dc 92be c63c 91be
000000b0: d582 6cbf d9f0 a1be e2d6 80bf 92db 353e
-1.1336135 -1.167788 -0.5114768 -0.48122323 -1.2660991 -0.0022480278 -0.5193894 -0.83577263
-0.34065002 -0.76264614 -0.94564044 -1.036838 -0.55007356 -0.9608853 -0.7207455 -0.60410863
-0.51162356 -0.21681342 -0.32096204 -0.13222085 0.055452477 -0.8134345 -0.064329915 0.305974
-0.87774986 3.3082124e-08 -0.58092815 -0.29868886 -0.19780903 -0.00028139865 0.06352129 -0.16774517
-1.025248 -0.225219 -0.07002645 1.2121705 -0.5682983 -1.6451526 -0.40060464 0.016426466
-1.1005279 -0.2884456 -0.2868348 -0.2836668 -0.92387134 -0.31629065 -1.0065577 0.1775954

running_var f4 [48]
00000000: 539d 0b3f 9067 1c3f 7e09 923e 55a5 d63e
00000010: 1e39 c63f 31c1 ab36 803d c33e 06e7 f03e
00000020: d652 223f 8474 903e a95c 4b3f c524 4f3f
00000030: 6a18 ac3e bf66 ba3e d616 a83f 751e 083f
00000040: 318a 7b3e f4d1 ac3e 803b 703f 5560 ce3d
00000050: 67c0 bf3a 170c 133f 18a2 cd3e 2754 9f3e
00000060: c5b1 f33e c21a 0e28 9138 1c3f 00ab e33e
00000070: df15 ab3e d34a bf33 7f99 143f 1b75 773e
00000080: 5112 853f 6c07 db3e 27ae 7d3e 4b57 513f
00000090: cee7 ea3e 5c94 693f 918a 383e 930f d33e
000000a0: 7c2f 5c3f f0d1 9c3f 7dac 223f 3980 343e
000000b0: 60b3 f73e 4a19 053f 67da d13e 9193 103f
0.5453693 0.61095524 0.28522867 0.41923013 1.5486181 5.1186876e-06 0.38132858 0.47051257
0.6340765 0.28213894 0.79438263 0.8091548 0.33612376 0.36406514 1.3131969 0.53171474
0.24564435 0.33753932 0.9384079 0.100769676 0.0014629484 0.5744032 0.4016273 0.3111889
0.47596565 7.888386e-15 0.61023813 0.444664 0.33415124 8.907741e-08 0.58046716 0.24165766
1.0396215 0.427791 0.24773465 0.81773823 0.45879978 0.91242003 0.18021609 0.4122282
0.86009955 1.2251568 0.63544446 0.17627038 0.4837904 0.51991713 0.4098694 0.5647517

weight f4 [64, 48, 3, 3]
00000000: e2bd bebc dfe9 f1bc 52bd c2bc 65fa febc
00000010: 0bdc 61bc c03f b6bb 1bdc 8fba aaa2 94bb
00000020: 9c14 b0bb 37f1 c33c c1f9 ba3c 04ad 5a3d
00000030: 3fbe ea3c ec43 cf3c 02c1 3e3d 943b 243d
00000040: c9d6 543d 2235 5a3d 1ede b3bc 2d37 d6bc
00000050: ab96 a2bc 20d9 28bc 6079 2dbc 6854 d1bc
00000060: 554c a3bb 6e77 38bc 8d89 00bb 3f24 edbc
00000070: ac01 f4bb 3722 e1bb 563e 3bbd 6dde 45bd
00000080: 9711 2ebd 4191 6bbd 97bc 86bd eea8 3cbd
00000090: 5161 a13d 33e3 d53d 9ff3 533d e547 2b3d
000000a0: 3f39 e53c c74f 193d cb8e d8bb c517 4bbc
000000b0: 792d ca3c e0c2 3c32 4d4f c2b1 a351 5030
000000c0: 0f0d df31 78b3 feb2 2565 0a32 978a e7b0
000000d0: 1abf bab1 7a76 bcb1 a1a8 303d 0f5d 42bd
000000e0: bca3 14bd ffd1 24bd f3a0 92bd e724 4dbd
000000f0: 2dd8 e2bb cb2a aebc 5cdd 04bb 0f79 30bc
00000100: 1f18 b83c 6034 433d 3f75 f43a ec85 283d
00000110: 34f5 733d e678 a33c 40c2 823d 8b56 9a3d
00000120: b7cc 333c ff5d 7eb8 2aed 0abd e642 19bd
00000130: 0363 22bd 8524 95bd 5d93 72bd b8b2 b3bd
00000140: 49a6 b1bd 1809 a2bd 0abd 92bd 553f 97bd
00000150: 9e51 23bd d291 72bd f068 6fbd ad59 09bd
00000160: 3c31 dc3a 99d8 11bd def7 823d d495 5d3d
00000170: ab29 303d 1e8e 843d 7fc5 863d 1727 8c3d
00000180: 8666 233d 2926 533d 2231 563d 95f7 e7bc
00000190: a7ce b6b9 297f 0bbc 3d94 82bc 296b d7bc
000001a0: 142b 6abc cf27 963c f9d8 12bc 7bef f03b
000001b0: e3b9 41bc 092f 3abb 9149 923b 4094 b339
000001c0: d3ff 333b 2aba 3e3c 0909 223c d37c cd3c
000001d0: 1489 c53c dafc ad3c 8a6f d83b 1ab4 b33c
000001e0: eec9 293c 5c9c bb3c 5775 dd3c 9f45 a03c
000001f0: 93ee 0f3d d4d8 ff3c 1aa2 0f3d c2bc 983d
00000200: 8897 85ba 55b4 30bd 534f a23b 2534 05bd
00000210: 10fe 48bd 7470 11bd a10c 83bd 778b 623c
00000220: 0040 4b3c ebdc 343d 16dd 303d 9216 3f3d
00000230: f9bd 963d ab26 243c 34a1 bb3c bbb9 4a3d
00000240: 1db3 3dbc bd75 21bd 2688 e53b 2242 dc3c
00000250: 976c 1c3d e02d 603d 1358 92bb 4f51 563c
00000260: d08d a2bc 8a64 d1bc 7020 c0bc 5e9b e4bc
00000270: 58be 7dbd f3f9 39bd e9fb 2fbd c507 b7bd
00000280: 7280 b8bd 2b79 75bd 0b59 98bc d46e d6bc
00000290: a4e5 b0bc 613d 6d3c bfa4 a33b 9c8b eb3c
000002a0: 397a ca3b 4426 d8ba 8c13 5b3a c902 883c
000002b0: 8d57 463c a327 673a 7e93 173b 25f3 8fbb
000002c0: 6bc7 53bb 3c87 1dba 3ea3 08bc dc9a 1dbc
000002d0: eab5 b8b8 97e4 a3b7 7f4d f8b6 a1f3 17b7
000002e0: da10 3db7 c09f 42b9 cb97 87b8 c693 35b9
000002f0: bf60 ecb8 e0f6 79bd 4457 20bd 8643 4abb
00000300: 8fc3 5bbb 2c2b 32bc 4a47 893b 26ca bdbc
00000310: 8571 c5bc a64e 3dbd 81cb 333d 4ef3 763c
00000320: cb0d 11bd 8101 3b3d 0b76 d73c c681 09bd
00000330: 7f1b 5ebd 7b7a 68bd 69f7 1abd 8bc3 0ebd
00000340: 024d 29bd 2809 00bd adc9 e0bc 183e cebc
00000350: 3e03 acbc 7b60 c8bc 727a 9dbc 481d bbbc
00000360: 7428 2ebc de49 98b9 d371 a1bc a660 d6bc
00000370: 8b67 59bc fb43 933c 5236 4cbb eb5c ee3c
00000380: 9633 173d 9800 0080 9800 0080 c100 0000
00000390: 3e00 0000 5500 0000 b700 0000 8200 0000
000003a0: 0701 0000 9400 0000 4c45 12bd af56 20bd
000003b0: 7fd5 6e3c 8535 fe3c 4359 0c3c 259d 91bc
000003c0: fbad f63b 71a7 0f3b e8a2 763c 0f70 96bd
000003d0: cc29 86bd 127e ebbc d401 05bd de5e 34bd
000003e0: 1e06 90bc 0b2f 04bc 936b 3fbd 103a c7bc
000003f0: ab26 793c 9085 fbbc bb5a 12bd 858f 90bd
-0.023283903 -0.029530464 -0.023771916 -0.031125257 -0.0137853725 -0.005561799 -0.0010975631 -0.0045359926
-0.0053735506 0.023918731 0.02282417 0.053387657 0.02865517 0.025300942 0.046570785 0.04009588
0.051962648 0.053273328 -0.0219565 -0.026149357 -0.019847235 -0.010305673 -0.01058802 -0.025552943
-0.0049834647 -0.011258943 -0.0019613237 -0.028947948 -0.0074464884 -0.006870534 -0.045713745 -0.048307825
-0.042497244 -0.05751157 -0.065789394 -0.04605954 0.0787989 0.104437254 0.051746007 0.04181661
0.027981399 0.037429597 -0.006608819 -0.012395804 0.024679886 1.098735e-08 -5.6551586e-09 7.578597e-10
6.491639e-09 -2.9651105e-08 8.055655e-09 -1.6846852e-09 -5.435038e-09 -5.4849894e-09 0.043129567 -0.04745203
-0.03628896 -0.04023933 -0.07159605 -0.05008402 -0.006922743 -0.02126064 -0.0020273542 -0.01077105
0.02247244 0.04765737 0.0018650665 0.041143343 0.059560016 0.01995511 0.063847065 0.07536038
0.010974101 -6.064586e-05 -0.033917584 -0.037417315 -0.039645206 -0.07282356 -0.059222568 -0.08774322
-0.086742945 -0.07911891 -0.071649626 -0.073851265 -0.039872758 -0.059221096 -0.058449686 -0.033532787
0.0016799341 -0.035606954 0.06394933 0.054097965 0.043008488 0.06472419 0.06580638 0.06843393
0.039892696 0.051550064 0.05229295 -0.028316298 -0.00034867713 -0.008514204 -0.015939826 -0.026296215
-0.014292497 0.01832953 -0.008962863 0.007352767 -0.011824104 -0.0028409383 0.004464336 0.00034251995
0.0027465716 0.011641065 0.009889849 0.025083935 0.024113216 0.021238733 0.0066050934 0.021936465
0.010363085 0.022901706 0.027033491 0.019564448 0.03513963 0.031231321 0.0350667 0.07457878
-0.0010192255 -0.043140728 0.004953304 -0.032520432 -0.049070418 -0.035507634 -0.06398893 0.013827196
0.0124053955 0.044155996 0.043179594 0.046652384 0.07360453 0.010018985 0.022904016 0.049493533
-0.011578348 -0.039418925 0.0070047555 0.026887003 0.038189497 0.05473125 -0.0044660657 0.013080909
-0.019843012 -0.025560636 -0.023452967 -0.027906116 -0.061949104 -0.045404386 -0.04296485 -0.08937029
-0.09008874 -0.059930008 -0.018597146 -0.026175894 -0.021593876 0.014479966 0.0049940045 0.028753094
0.006179121 -0.0016490896 0.00083571 0.01660289 0.012105835 0.0008817857 0.0023128684 -0.0043929988
-0.0032314907 -0.0006009226 -0.008339701 -0.009619441 -8.807688e-05 -1.953756e-05 -7.3999977e-06 -9.057026e-06
-1.1269201e-05 -0.00018560793 -6.465575e-05 -0.00017316555 -0.00011271377 -0.061026454 -0.039145723 -0.0030863
-0.003353331 -0.010874551 0.0041894065 -0.023167681 -0.024101982 -0.046217583 0.04389525 0.015072657
-0.035413545 0.04565573 0.026301404 -0.033571027 -0.05422544 -0.05675743 -0.037833605 -0.034854453
-0.041333206 -0.031258732 -0.027439917 -0.025176093 -0.02099764 -0.024460068 -0.019223426 -0.02284111
-0.010629762 -0.00029046735 -0.019707596 -0.026169132 -0.0132693155 0.017976752 -0.0031160307 0.029097041
0.03691443 -2.13e-43 -2.13e-43 2.7e-43 8.7e-44 1.19e-43 2.56e-43 1.82e-43
3.69e-43 2.07e-43 -0.035710618 -0.039145168 0.014577269 0.03103138 0.0085662035 -0.017775128
0.0075280643 0.0021919871 0.015053488 -0.07345592 -0.06550941 -0.028746638 -0.032472447 -0.044035785
-0.017581042 -0.008067857 -0.04673345 -0.024319679 0.015206973 -0.030703336 -0.03573106 -0.07058624

bias f4 [64]
00000000: 80c9 13b5 3ba6 b5b6 191f c5b6 a303 0080
00000010: 5dfe b3b7 7f45 6738 b435 fbb7 f1b3 5a37
00000020: 5415 a9b7 753a 7fb7 cdc3 41b8 2527 e5b5
00000030: c71b 88b7 9106 0080 abfd bdb5 b074 69b5
00000040: 9ee4 83b6 1b33 09b5 3fef 0db5 b916 b537
00000050: 733c 9337 e31a 8a36 2f98 0a37 7c06 bd38
00000060: f2b6 6e38 0129 0137 cc87 a5b6 0ed9 2cb6
00000070: ae84 5ab7 d7b0 3f37 6719 2337 bff2 3bb8
00000080: 50f2 81b8 ce50 2137 b1a7 24b7 48eb dcb4
00000090: 8ba3 92b7 6773 9337 b974 7436 4977 cf37
000000a0: 0760 9932 f401 0000 52c3 1eb7 a56c a437
000000b0: 0f02 3637 2a1b abb5 703b 2437 5d4f 7db7
000000c0: 35de 70b6 37cc 9638 3227 2136 5921 c8b6
000000d0: 5399 57b7 db5b 0c38 cf23 d633 131b 0037
000000e0: b1b4 1737 140d 5738 9769 5a38 09f0 6314
000000f0: 2fc2 9cb6 5424 ceb7 3fe1 b6b6 1e5e a636
-5.505499e-07 -5.413572e-06 -5.8746778e-06 -1.305e-42 -2.145691e-05 5.5139415e-05 -2.994654e-05 1.3035708e-05
-2.0156302e-05 -1.5212795e-05 -4.619714e-05 -1.7073222e-06 -1.6225398e-05 -2.356e-42 -1.4155424e-06 -8.6969067e-07
-3.930719e-06 -5.1110845e-07 -5.287474e-07 2.1587462e-05 1.7551914e-05 4.1158505e-06 8.260874e-06 9.01343e-05
5.6914003e-05 7.698546e-06 -4.933192e-06 -2.575634e-06 -1.30247045e-05 1.1425661e-05 9.7214715e-06 -4.481035e-05
-6.1963336e-05 9.615162e-06 -9.814205e-06 -4.1149383e-07 -1.7480712e-05 1.7577504e-05 3.6426775e-06 2.473187e-05
1.7855212e-08 7e-43 -9.46301e-06 1.9600915e-05 1.0848525e-05 -1.2748399e-06 9.789001e-06 -1.5098453e-05
-3.5892128e-06 7.190595e-05 2.4013684e-06 -5.9643467e-06 -1.2850697e-05 3.3464148e-05 9.971665e-08 7.635698e-06
9.042372e-06 5.1272174e-05 5.207359e-05 1.150791e-26 -4.6717682e-06 -2.457403e-05 -5.4502448e-06 4.958142e-06

weight f4 [64]
00000000: 01d8 c23e ffd8 f73e a6d3 923d 77bc 983a
00000010: 5e88 b73e 753e 063f 8148 393f c4b0 543f
00000020: e798 8b3d e44e 5d3e a525 223e 98c2 103f
00000030: 4d3d 403f b4c1 223b ef6e 013d 0f12 1a3f
00000040: e129 9a3e 5b44 363f 51b6 423d b0a4 483e
00000050: fb3c aa3e acd9 1e3e bb9b 303f 54dc 1d3f
00000060: e8ba 293f 4402 893e 8179 213f 3c89 473e
00000070: 410c 0a3f 70b2 233f cf98 fd3e 12c1 953e
00000080: 1862 a73e d1c0 093f 21a5 d63e 2de6 223e
00000090: 86c3 303f ca83 3e3f 6be3 773e 1d39 5c3f
000000a0: 65f0 253c 2110 d139 96c2 7b3e afea 183f
000000b0: 1ada c93e 6c4c 453e 2cf0 e53e f7fc 343f
000000c0: 4426 c83e 91e2 a13e 0f86 d83e 1123 1e3f
000000d0: 4564 093f bd5d 743e 4c06 9a3e 841e 2a3f
000000e0: 92dc 123f 713a 6a3e faa8 4c3f 187b 223c
000000f0: 39b6 323f 1585 1f3f d696 823e 03d8 b63e
0.38055423 0.48407742 0.07169275 0.0011652847 0.35846227 0.5243905 0.7237626 0.8308222
0.06816273 0.21612126 0.15834673 0.56546926 0.7509354 0.0024834694 0.031599935 0.60183805
0.30110076 0.7119805 0.04753715 0.19594073 0.3324965 0.15512723 0.68987626 0.6166432
0.6630082 0.2675954 0.63076025 0.19485945 0.5392495 0.6394415 0.49530646 0.29248863
0.32692027 0.5380984 0.41922858 0.15908118 0.69048345 0.74419844 0.24207847 0.8602465
0.010128115 0.00039875603 0.24585947 0.597331 0.3942421 0.19267434 0.449098 0.70698494
0.39091694 0.3161817 0.4228978 0.6177226 0.53668624 0.23863883 0.3008293 0.66452813
0.57367814 0.22873856 0.7994534 0.009917043 0.698093 0.6231244 0.25505704 0.3571168

bias f4 [64]
00000000: f045 36be 14fb 2bbe 4069 87bd b053 89b9
00000010: 79b0 8fbe 5c2d 7cbe 848f d3be e4aa 9abe
00000020: 9d80 0abe 778e 97be f62d 62be 23e4 42be
00000030: 62b6 1ebe 3531 dcbb 22a5 79bd 23b8 6abe
00000040: a4c3 16be aaac f2bd 4d12 c0bd 9eab 7dbe
00000050: 930b 36be a4a7 2dbe d10a 9bbe 0ccb 92bd
00000060: 973e b4be c651 08be 5386 0abe df76 17be
00000070: f144 94be fd23 86be 7816 5cbe 16bf 88be
00000080: cf48 bebe f0ff b7be f124 4dbe 527c 39be
00000090: ca20 54be f84a ecbe 3271 4cbe fea2 81be
000000a0: c94b 26bd dc8e 80b8 1caa 82be 9867 abbe
000000b0: d0d5 fcbd 37be 03be 0992 68be cf36 cbbe
000000c0: 659a 13be 4069 babe 4f7b 39be f083 6abe
000000d0: 67fe 4dbe 8818 b1be f2f4 61bd e7d1 68be
000000e0: c2aa 76bd 0a23 55be c005 1dbe 19ff 4abc
000000f0: 845f f0be 0cea 72be 7b5b 14be c4b3 73be
-0.17800117 -0.16794997 -0.06611872 -0.00026193028 -0.28064325 -0.24626678 -0.4132043 -0.30208504
-0.13525625 -0.2960088 -0.22087845 -0.1903234 -0.15499261 -0.006719733 -0.0609485 -0.22921805
-0.14723068 -0.11849339 -0.093784906 -0.24772498 -0.17777853 -0.16958481 -0.3028169 -0.07167634
-0.35204002 -0.13312444 -0.13527803 -0.1479144 -0.28958848 -0.26199332 -0.21492946 -0.26708287
-0.37164924 -0.35937452 -0.20033623 -0.1811383 -0.20715633 -0.46150947 -0.19965056 -0.25319666
-0.040599618 -6.130125e-05 -0.25520408 -0.33477473 -0.12345469 -0.1286553 -0.22711958 -0.39690253
-0.14414366 -0.36408424 -0.18113445 -0.22901893 -0.20116578 -0.34589028 -0.05516524 -0.22736321
-0.06022144 -0.20814148 -0.15334225 -0.012389922 -0.46947873 -0.23722094 -0.14488022 -0.23799044

running_mean f4 [64]
00000000: 4923 b5be 2c7f 90be 78e2 edbd f17c 0116
00000010: 1e2f 0c3e b9b1 65bf 5691 e6be e532 d2bf
00000020: c5a3 adbe e94d c7bd d388 72bf 80ee 92bf
00000030: 43e1 cbbf 79c8 4937 1f01 99bd 245e 34bf
00000040: b97a 1cbf a078 31bf 2fd0 c7bc 181f 853f
00000050: f295 073f 2ad2 acbe 6da1 9b3e acc2 9abf
00000060: c9fe 44bf 3b58 1b3e 3742 6ebf 5154 61be
00000070: 65e2 30bf c074 9c3e 9622 bebf aa7e 9abb
00000080: 1f34 b43e bfb7 573f 43d3 58be 8b0b 57bf
00000090: 26d3 b1bf b5d0 673e 1afe 8dbc 1468 8d3e
000000a0: 85c9 c6b9 4490 2022 d854 f03b e5d9 14bf
000000b0: bd87 943e d4aa 51bf f4dc 73bf 705c b43d
000000c0: dfae 623f 3366 acbe 638d 36bf 4fb2 173f
000000d0: dd5a 2b3f c284 8bbd b404 f9be 72f3 c8bd
000000e0: 41cc 1dbf 29dc cebe d022 7abe f9a8 78b8
000000f0: 6a19 df3e 9b42 04bf 419b febf d280 6fbf
-0.35378483 -0.28222024 -0.11615461 1.0459962e-25 0.13689849 -0.8972431 -0.45032758 -1.6421782
-0.3391401 -0.09731657 -0.9474003 -1.1479034 -1.592812 1.202721e-05 -0.07470917 -0.7045615
-0.6112476 -0.69324684 -0.024391262 1.0400114 0.52963173 -0.33754092 0.30396596 -1.2090659
-0.7695127 0.15170376 -0.93069786 -0.2200482 -0.6909545 0.30557823 -1.4854305 -0.0047148066
0.35196015 0.8426475 -0.2117434 -0.8400199 -1.3892562 0.22638209 -0.01733308 0.27618468
-0.00037915647 2.1760417e-18 0.007334333 -0.5814498 0.2900981 -0.8190129 -0.9525902 0.088066936
0.8854808 -0.33671722 -0.7130949 0.5925645 0.6693552 -0.06812431 -0.486364 -0.098120585
-0.6163979 -0.40402344 -0.24427342 -5.9285176e-05 0.43574077 -0.5166413 -1.989113 -0.9355594

running_var f4 [64]
00000000: 8a98 7f3e 78d2 043f d93a 393d 0400 0000
00000010: 9d64 883e 885d 363e ebcf ce3e f206 e93e
00000020: 659b 753d 9a3d bf3d 0b40 093e 68bf e63e
00000030: fd7c 2b3f 484e 1c30 978a ff3c 1f03 fd3e
00000040: 7c13 953e 82f5 883e f507 143b 0ed5 ba3e
00000050: 72df 883e 4282 1b3e 6471 d63e 16b1 d63e
00000060: 37dd 903e f598 1e3e 9cf6 2a3f 596d 303e
00000070: 4f8e c93e 64d4 713e 543a b83e 54ec fe3d
00000080: 1e4f fe3d 34b4 663e b080 763e fd01 593e
00000090: f074 cf3e bdd0 523e d83b 5f3e 12a4 993e
000000a0: 355e b53a 0400 0000 dff7 433e 6ad4 8f3e
000000b0: 57c1 a93e 0d6f 6c3e 93fa a83e f926 e33e
000000c0: 5bbb d13e bfcd 073e b2cc 483f ce76 f83e
000000d0: 073d 8e3e 62de 7f3e 12e0 803e 0681 f73e
000000e0: be8c 483f b0df 0a3e e03f 833e e6cd 4c32
000000f0: 756a 3e3e 76bd bf3e 1296 ef3e 9178 483e
0.24960533 0.5188365 0.045222137 6e-45 0.26639262 0.17809117 0.40393004 0.4551311
0.05996265 0.093379214 0.13403337 0.45067906 0.6698759 5.6863714e-10 0.031194014 0.49416444
0.29116428 0.26749808 0.002258775 0.36490673 0.26732975 0.15186408 0.41883385 0.4193198
0.28293774 0.15488036 0.66782546 0.17229213 0.39366385 0.23616177 0.35982 0.1244742
0.12417434 0.2252968 0.24072528 0.21192165 0.40518904 0.2058744 0.21800172 0.30007988
0.001383728 6e-45 0.19137524 0.28091747 0.3315532 0.23089238 0.33003673 0.4436567
0.40963253 0.1326208 0.7843734 0.4852814 0.27780935 0.24987176 0.25170952 0.48340625
0.78339756 0.13561893 0.2563467 1.1921179e-08 0.18595298 0.37449235 0.46794182 0.19577242
