models/model_random1_fold_3_l2.pkl (torch_old, 708918 bytes, 38 tensors)

weight f4 [16, 3, 3, 3]
0.025718903 0.050482847 0.08140234 0.024771728 0.025832688 0.017204752 0.059996445 0.04474121
0.0897251 -0.02051401 0.03942994 -0.04667912 -0.028667884 0.0026856298 0.031930678 -0.032546807
0.026306884 -0.027989686 0.05002647 -0.018627338 -0.022698484 0.077665195 0.034686092 0.063193224
0.014641963 -0.0069619454 -0.058539696 0.0019506084 0.002151617 0.001078163 -0.011310212 0.0015032853
-0.0034591919 -0.0026246612 -0.00093663356 -0.0053028627 -0.0008095852 0.00073033216 0.0008217602 9.5719275e-05
0.0006544939 0.00037049688 -0.0033962564 -0.0035673582 0.0013139991 -0.0008974267 -0.0014635754 -0.00016939135
0.0054204147 -0.0009556421 0.0008876864 0.0018441733 -0.005070757 -0.001423184 2.7561913e-05 4.563103e-06
6.785155e-07 -0.0001280378 -2.4850962e-05 4.7443075e-07 -1.3132284e-05 3.2698326e-06 1.7732165e-06 9.807661e-06
3.907821e-07 1.274918e-07 1.0855658e-06 -6.465207e-07 2.1417115e-07 7.716002e-06 9.957693e-07 2.7792754e-07
-1.18266735e-05 5.998086e-07 6.7701976e-08 3.5665762e-06 -8.915412e-07 6.891964e-08 -1.3233371e-05 6.2366684e-07
-3.8486565e-08 0.0033929222 0.0066669597 -0.024997555 0.0035179565 0.023088466 0.00721555 0.0013154501
-0.0041198316 -0.012164392 -0.019836707 0.01581335 -0.015657155 0.018844306 0.011252239 0.012148689
0.0049231783 -0.0019015275 0.0042892243 0.008872319 0.0064506102 0.008226836 -0.0016543862 0.0109275915
-0.011128332 0.005788863 0.015126336 0.019734388 1.3274411e-05 7.1172486e-05 -0.00055842474 1.6191996e-05
3.0688294e-05 -0.0001206829 -2.2668162e-05 0.00012233108 -0.00085409 2.3805231e-07 1.3784263e-05 -0.00016632566
3.5403636e-07 1.8213265e-06 4.9471928e-05 8.6860155e-06 -4.562782e-06 3.002474e-05 -8.327578e-08 -3.19016e-06
7.09524e-05 -1.8372366e-07 -2.3219579e-07 4.3479697e-05 5.081169e-07 2.0509092e-06 -4.223834e-05 -0.008385867
0.041764952 -0.007929439 -0.026839085 -0.038509704 -0.002130323 0.040251095 0.03355049 0.028569384
0.0462432 0.0045529017 0.04611044 -0.041980233 -0.02152293 0.03744077 0.029987942 0.027909232
0.017949495 0.02353861 0.01974656 -0.0053118314 -0.010993143 0.038048513 0.0060698413 0.022882957
0.02610962 0.010341055 0.0024972814 0.0031077391 0.0031531046 0.0003375292 0.0006257332 0.00052446825
0.0013924551 0.0013129868 -0.0010086036 0.0006786334 -0.000687071 1.8903786e-05 0.0012471207 0.00044200284
0.0004412435 0.0016854834 0.00085851253 0.00051008124 0.0007642453 0.0013511617 0.0002896768 0.0020256448
0.0007093981 0.0003761375 0.0014430891 -4.9710006e-06 1.5738308e-06 3.5426237e-07 1.7399152e-07 3.4188727e-07
1.0577911e-06 -1.5154903e-07 8.334161e-07 3.6409173e-07 -7.333649e-07 1.210981e-06 4.816101e-10 1.9435857e-10
1.1726417e-09 1.0576732e-09 2.1398902e-11 1.8358909e-09 1.0309701e-09 2.8556624e-10 7.659378e-09 9.058544e-11
4.3130683e-11 3.4061137e-10 2.1911721e-10 2.2957784e-12 7.6307016e-10 6.0165567e-10 1.5412913e-10 5.8186007e-09
-0.002668488 -0.002789268 -0.0009913091 -0.00063181546 -0.0035639703 -0.0027480782 -0.0029035474 -0.00070893246
-0.00093340373 -0.0013528377 -0.002330091 -0.0010046066 -0.00060991215 -0.0019694497 -0.00079613214 -0.0005294295
-0.0002265508 -0.00031712544 -0.00123007 -0.0018020653 -0.00034384412 -0.00031567938 -0.0014106453 -0.0010215836
-0.00070595625 0.00011003722 -2.5756855e-05 -0.00029786123 -0.00019953339 -0.0003621472 -0.00040072817 -0.00029347793
-7.782048e-05 -0.00019338189 -0.0005468292 0.00049216783 -6.4984946e-05 -3.459715e-05 -8.6740234e-05 -0.00019532528
00000000: 73b0 d23c 1ac7 4e3d 45b6 a63d 14ee ca3c
00000010: 139f d33c fbf0 8c3c d5be 753d 8f42 373d
00000020: cbc1 b73d ff0c a8bc 4a81 213d 9b32 3fbd
00000030: e9d8 eabc 6401 303b bec9 023d cd4f 05bd
00000040: 8981 d73c a04a e5bc 8ee8 4c3d 5c98 98bc
00000050: 2cf2 b9bc ee0e 9f3d 0113 0e3d 736b 813d
00000060: d8e4 6f3c 0821 e4bb 52c7 6fbd 8fab ff3a
00000070: 2502 0d3b 2651 8d3a 784e 39bc e209 c53a
00000080: 9cb3 62bb 8202 2cbb 6a88 75ba a3c3 adbb
00000090: 583a 54ba c373 3f3a 656b 573a e5bc c838
000000a0: 5892 2b3a 403f c239 ba93 5ebb 57ca 69bb
000000b0: 7e3a ac3a 4941 6bba 71d5 bfba a59e 31b9
000000c0: bc9d b13b 0e84 7aba a0b3 683a 30b8 f13a
000000d0: 9828 a6bb 218a baba c234 e737 c21c 9936
000000e0: 3b23 3635 e341 06b9 0977 d0b7 44b5 fe34
000000f0: bb52 5cb7 4c6f 5b36 41ff ed35 958b 2437
00000100: afcc d134 aee4 0834 c2b3 9135 908c 2db5
00000110: ebf6 6534 fa73 0137 5fa6 8535 1236 9534
00000120: 2d6b 46b7 8802 2135 8e63 9133 5059 6f36
00000130: 3f52 6fb5 f900 9433 e504 5eb7 0f6a 2735
00000140: 6d4c 25b3 ca5b 5e3b 8376 da3b acc7 ccbc
00000150: 848d 663b 0624 bd3c 6c70 ec3b 2e6b ac3a
00000160: a7ff 86bb 284d 47bc 9780 a2bc 008b 813c
00000170: 6f43 80bc 605f 9a3c 505b 383c 4b0b 473c
00000180: 9d52 a13b ad3c f9ba 9f8c 8c3b 345d 113c
00000190: a45f d33b dac9 063c fdd7 d8ba a409 333c
000001a0: 9b53 36bc 81b0 bd3b 74d4 773c 03aa a13c
000001b0: 29b5 5e37 7042 9538 4063 12ba 0cd4 8737
000001c0: 4eb7 0038 2317 fdb8 8227 beb7 0046 0039
000001d0: 02e5 5fba 529b 7f34 f542 6737 b467 2eb9
000001e0: 6312 be34 4d74 f435 1480 4f38 27ba 1137
000001f0: 001a 99b6 a3dd fb37 58d5 b2b3 8816 56b6
00000200: 48cc 9438 9345 45b4 7e51 79b4 f85d 3638
00000210: 8765 0835 5aa2 0936 1229 31b8 e064 09bc
00000220: ba11 2b3d 7aea 01bc a4dd dbbc 5abc 1dbd
00000230: e49c 0bbb 55de 243d 3d6c 093d 570a ea3c
00000240: 8269 3d3d 8230 953b 4dde 3c3d 77f3 2bbd
00000250: db50 b0bc 7e5b 193d 46a9 f53c e7a1 e43c
00000260: d20a 933c 0bd4 c03c 8ac3 a13c df0e aebb
00000270: 951c 34bc c2d8 1b3d 85e5 c63b 0a75 bb3c
00000280: d8e3 d53c 876d 293c 6ea9 233b 36ab 4b3b
00000290: 51a4 4e3b 67f6 b039 3f08 243a 787c 093a
000002a0: 0a83 b63a 8718 ac3a 1f33 84ba 51e6 313a
000002b0: 8e1c 34ba 9293 9e37 6d76 a33a 9ebc e739
000002c0: b356 e739 70eb dc3a cd0d 613a f9b6 053a
000002d0: a257 483a 7719 b13a c3df 9739 aec0 043b
000002e0: e7f6 393a 5234 c539 0926 bd3a 92cc a6b6
000002f0: 6a3c d335 7331 be34 6dd2 3a34 a18c b734
00000300: 6df9 8d35 7bb9 22b4 ebb7 5f35 6378 c334
00000310: 74dc 44b5 fe88 a235 4c62 0430 13b3 552f
00000320: a92a a130 915d 9130 0b3a bc2d ab52 fc30
00000330: 09b2 8d30 e0fd 9c2f 4d96 0332 1233 c72e
00000340: d5b0 3d2e ca40 bb2f 03ec 702f 118d 212c
00000350: 4ac0 5130 c161 2530 7e77 292f f4ec c731
00000360: cde1 2ebb 27cc 36bb d0ee 81ba 6ba0 25ba
00000370: 8091 69bb 1a19 34bb 7149 3ebb a7d7 39ba
00000380: aaaf 74ba b351 b1ba 71b4 18bb 01ad 83ba
00000390: 83e2 1fba e211 01bb 86b3 50ba 6ac9 0aba
000003a0: 448e 6db9 db43 a6b9 4d3a a1ba 4733 ecba
000003b0: fa45 b4b9 c581 a5b9 67e5 b8ba a8e6 85ba
000003c0: ec0f 39ba c8c3 e638 6d10 d8b7 422a 9cb9
000003d0: d639 51b9 93de bdb9 d318 d2b9 f1dd 99b9
000003e0: 8d33 a3b8 8ec6 4ab9 1659 0fba d304 013a
000003f0: 8748 88b8 681c 11b8 4fe8 b5b8 3bd0 4cb9

bias f4 [16]
-0.00022946978 1.204229e-07 -1.9e-42 -2.6512818e-05 9.12e-43 -3.4467234e-06 5.5270566e-10 -7.48e-43
1.9469583e-25 -4.9543507e-19 0.00029530734 2.4301586e-05 5.8641898e-12 3.0838006e-11 3.0426986e-15 4e-45
00000000: d39d 70b9 984d 0134 4c05 0080 d867 deb7
00000010: 8b02 0000 424e 67b6 34ed 1730 1602 0080
00000020: 9205 7116 043a 12a1 7bd3 9a39 42db cb37
00000030: ed53 ce2c 82a0 072e e23f 5b27 0300 0000

weight f4 [16]
0.13439104 -0.00053282984 2.0009476e-10 0.01901205 -6.8308793e-07 0.0729105 -0.000479738 8.031599e-06
0.00077328825 2.3245679e-05 0.0949155 0.033221185 -0.000819825 -4.819448e-05 2.817844e-06 1.323897e-05
00000000: ce9d 093e 9bad 0bba ab01 5c2f 29bf 9b3c
00000010: 725d 37b5 1a52 953d 5885 fbb9 74bf 0637
00000020: 7fb6 4a3a b7ff c237 0f63 c23d f012 083d
00000030: 86e9 56ba 6e24 4ab8 311a 3d36 f11c 5e37

bias f4 [16]
-0.005384114 0.0008461481 -3.0972578e-07 -0.010442216 -4.7379865e-05 -0.027028553 -0.0016455062 -2.6485943e-06
-0.0022051546 -8.169549e-05 -0.007801408 -0.014754951 -0.0033646566 -0.0006111883 -1.9984995e-05 -3.3412537e-06
00000000: 396d b0bb 0ad0 5d3a 6348 a6b4 d415 2bbc
00000010: beb9 46b8 fc6a ddbc 07ae d7ba 81be 31b6
00000020: 5b84 10bb ef53 abb8 f4a2 ffbb c0be 71bc
00000030: 9281 5cbb 2738 20ba 73a5 a7b7 4d3a 60b6

running_mean f4 [16]
-0.606502 0.02685106 0.00016790621 -0.10186879 0.001633619 -0.33963037 -0.027041132 -4.55117e-06
0.038410332 0.0028039909 -0.5185871 -0.19493513 -0.01559439 -0.0056176963 0.00043067284 6.8637286e-07
00000000: b743 1bbf c1f6 db3c fb0f 3039 96a0 d0bd
00000010: 281f d63a 08e4 adbe 5d85 ddbc 41b6 98b6
00000020: 2754 1d3d 29c3 373b 20c2 04bf 139d 47be
00000030: 9d7f 7fbc a714 b8bb eecb e139 2f3f 3835

running_var f4 [16]
1.6145251 0.003324976 1.323154e-07 0.050042976 1.2484221e-05 0.539008 0.0032974032 9.2636135e-11
0.006652716 3.5807232e-05 1.2048873 0.17273648 0.001251395 0.00014094832 4.7094672e-06 2.19142e-12
00000000: c2a8 ce3f d7e7 593b 9512 0e34 ddf9 4c3d
00000010: 5273 5137 6efc 093f 3f19 583b 82b5 cb2e
00000020: 07ff d93b b92f 1638 bf39 9a3f d5e1 303e
00000030: d905 a43a 87cb 1339 0406 9e36 1d35 1a2c

weight f4 [32, 16, 3, 3]
8.067946e-16 1.8031746e-14 1.985133e-14 1.2558442e-14 2.7873977e-14 3.431437e-15 1.5395139e-15 6.254629e-16
7.983689e-16 -4.924181e-15 -1.2560674e-12 -5.709938e-13 -1.4327503e-13 -1.668871e-15 -1.8367531e-16 -2.0070793e-13
-1.4622804e-14 -1.9363516e-13 -5.9774017e-17 -7.02445e-20 -1.1750243e-18 -3.3834293e-18 -3.9654357e-20 -1.5387737e-22
-1.5009648e-20 -1.9559188e-21 -1.5379051e-21 -6.212974e-21 -1.9508833e-17 -3.8966685e-17 -1.0709089e-17 -6.298851e-20
-2.1944984e-16 -6.1088674e-19 -3.3563092e-20 -1.4644566e-17 -5.312474e-23 -7.841628e-21 -6.770623e-22 -4.4886495e-23
-2.0167747e-23 -2.658536e-21 -2.4259227e-19 -1.2867651e-21 -1.0987523e-18 1.9786775e-11 -7.5666177e-13 -2.5464575e-13
-1.2032833e-20 -1.0992126e-18 -1.1943743e-16 -4.4978934e-12 -3.008636e-11 -1.3318255e-13 -9.079362e-13 -6.81469e-11
-9.772795e-12 -8.937617e-13 -1.606919e-11 -1.3089144e-11 -3.4759734e-12 -7.785159e-11 -1.2199877e-09 -3.0856378e-16
-6.4050494e-17 -1.9014853e-16 -6.136538e-17 -2.1111712e-17 -9.602193e-18 -3.7908897e-17 -1.23914336e-17 -1.0991545e-19
5.1747433e-17 7.0259003e-15 2.7061485e-15 -7.806652e-18 -7.510636e-17 -1.3164104e-16 -3.8704482e-17 -1.0120684e-16
-2.7757288e-16 -1.4482525e-13 -1.3529166e-15 -1.9282188e-14 -2.4392198e-16 -9.986059e-17 -1.2962572e-17 -8.385691e-17
-1.0366074e-17 1.2890885e-19 2.243986e-09 1.8739049e-10 2.1184803e-08 3.7707376e-12 9.749631e-13 1.8296298e-12
-1.4758415e-13 5.9509217e-13 3.2463767e-12 6.655187e-12 -1.7525469e-14 -4.1664748e-14 -4.2704312e-11 -9.230189e-15
-4.4669997e-12 -3.2533626e-12 -3.642882e-14 -1.0487726e-12 -4.1773245e-18 -2.1863327e-19 -2.843055e-20 -1.7071268e-15
-2.5956998e-21 -1.3858e-25 -4.428045e-17 -1.1503754e-21 -4.63764e-27 -3.689765e-18 -3.9930175e-18 -4.1660555e-17
-5.4313407e-18 -2.3723765e-18 -3.9568143e-18 -4.5033433e-18 -3.2512805e-18 -2.9111178e-18 -3.774143e-15 -1.0546039e-14
-6.516198e-15 -6.6761935e-12 -4.612387e-13 -6.0325856e-15 -2.0026405e-14 -9.421625e-15 -1.8510245e-12 -1.5443833e-15
-1.9354508e-15 -8.4127625e-16 -1.0107997e-15 -4.412057e-16 -7.313302e-17 -1.0929266e-15 -5.199568e-16 -9.9876083e-17
6.6880186e-09 1.912111e-08 3.2442035e-08 -7.5620704e-10 -2.090844e-09 -7.395381e-09 -6.336302e-07 -1.336707e-07
-4.776038e-08 6.0182255e-09 2.4281125e-08 -5.940405e-09 -3.7312694e-07 -2.9813019e-09 -1.33587915e-11 -7.887774e-13
-8.029087e-16 -5.1436347e-17 1.4652814e-10 1.5140951e-14 1.0539029e-18 1.8530271e-13 3.0914463e-16 -8.309911e-21
5.127096e-13 -7.7804926e-16 -2.906352e-16 1.6559667e-12 -1.6014222e-10 -3.699821e-13 -1.01621635e-10 2.4441159e-12
1.2641676e-12 2.9168072e-09 2.1120929e-08 -1.2522568e-12 -3.3188224e-12 2.1088182e-09 -1.9319232e-12 -1.4635435e-13
7.2481105e-12 -6.297441e-15 -5.3320195e-12 2.9838028e-11 -6.9822776e-14 -1.2232827e-12 1.1917406e-12 -2.6326761e-14
2.6902512e-08 -7.950168e-10 -4.7031365e-11 6.170972e-08 -3.1610743e-09 -1.9294841e-06 -3.1706796e-10 -6.670097e-11
8.908432e-09 -1.5382666e-09 -9.488593e-08 -4.167851e-12 -1.8724397e-11 -7.320422e-09 -1.9823943e-12 9.4341175e-09
-9.247921e-09 -7.1097983e-10 -7.558186e-09 8.9190483e-10 5.226211e-10 -3.2497647e-09 -1.4510015e-10 -2.39812e-11
-1.4568874e-08 -1.7405029e-12 5.3044354e-11 1.7912234e-09 -3.9119302e-12 -2.0920191e-11 9.124505e-10 4.4152012e-11
3.5465745e-11 -9.306215e-08 -3.0950062e-08 -2.5800386e-09 1.799026e-08 -5.459616e-09 -3.2861895e-09 -1.04808615e-08
-2.6894451e-09 -4.0888287e-10 -5.2801785e-10 1.4237005e-12 2.3079086e-12 1.3610697e-09 3.3614347e-13 1.4834435e-13
2.095552e-09 -2.4725422e-08 -8.8805745e-09 -1.5739039e-08 -6.7209356e-11 -6.3584755e-13 -6.762209e-11 -6.303121e-14
1.3412882e-12 -5.857184e-12 3.5358462e-13 1.5438856e-15 8.334885e-10 5.6210647e-11 1.6399488e-12 2.874784e-09
00000000: ef8a 6826 606a a228 0dce b228 973b 6228
00000010: 0411 fb28 d742 7727 0ade dd26 0447 3426
00000020: 3a1d 6626 8e69 b1a7 99c6 b0ab 70b8 20ab
00000030: 3750 21aa 7982 f0a6 62c3 53a5 1ffa 61aa
00000040: e4b5 83a8 8903 5aaa 5ad4 89a4 32dc a59f
00000050: 2a67 ada1 2ca7 79a2 2d43 3b9f bd06 3a9b
00000060: 1ac3 8d9e f9c8 139d d266 e89c 33b8 ea9d
00000070: eeef b3a3 beb3 33a4 3e8c 45a3 38ba 949f
00000080: 2902 7da5 4c4d 34a1 4a7f 1e9f 8112 87a3
00000090: 9f72 809a c91f 149e 28a1 4c9c ca0e 599a
000000a0: ec0c c399 91df 489d 8233 8fa0 5073 c29c
000000b0: b025 a2a1 db0b ae2d 3afb 54ab 525a 8faa
000000c0: 364b 639e 1437 a2a1 b5b3 09a5 6c41 9eac
000000d0: 3b52 04ae 42f3 15aa b38f 7fab 4bdb 95ae
000000e0: c2ec 2bad 5192 7bab 9958 8dad 4444 66ad
000000f0: 9299 74ac 8d32 abae 80ac a7b0 fadf b1a5
00000100: bdb0 93a4 f139 5ba5 ba7f 8da4 9fb8 c2a3
00000110: 1321 31a3 edd2 2ea4 e494 64a3 e8c3 01a0
00000120: 96a4 6e24 7e22 fd27 a1ff 4227 df01 10a3
00000130: f82e ada4 94c5 17a5 307e 32a4 f95d e9a4
00000140: 8702 a0a5 090f 23aa d0f9 c2a6 b3ad ada8
00000150: 889c 8ca5 4a43 e6a4 041e 6fa3 625c c1a4
00000160: 6738 3fa3 4f30 1820 9f34 1a31 bc09 4e2f
00000170: e0f9 b532 c9ab 842c bf36 892b aebf 002c
00000180: 3c2a 26aa e980 272b 8671 642c 9828 ea2c
00000190: fbda 9da8 2fa4 3ba9 c8d0 3bae bc46 26a8
000001a0: 282b 9dac 5fef 64ac 920f 24a9 049a 93ab
000001b0: b71d 9aa2 ed0e 81a0 6d42 069f dd05 f6a6
000001c0: 2320 449d c18d 2b96 2135 4ca4 fed6 ad9c
000001d0: 42b7 b793 d820 88a2 fc50 93a2 1a20 40a4
000001e0: 9061 c8a2 ed0c 2fa2 0efb 91a2 e024 a6a2
000001f0: f4e6 6fa2 76cd 56a2 53fa 87a7 05fb 3da8
00000200: 52c5 eaa7 cee5 eaac c0d3 01ab c858 d9a7
00000210: bf61 b4a8 94b9 29a8 1841 02ac b091 dea6
00000220: c476 0ba7 3b7b 72a6 edab 91a6 7856 fea5
00000230: 1ea2 a8a4 e081 9da6 0ade 15a6 6f4c e6a4
00000240: 6fcc e531 c43f a432 6556 0b33 57dd 4fb0
00000250: 84ae 0fb1 761a feb1 bc16 2ab5 1f87 0fb4
00000260: 1821 4db3 dfc8 ce31 c292 d032 5b1c ccb1
00000270: 2d52 c8b4 9edf 4cb1 a602 6bad 6705 5eab
00000280: 356c 67a6 5235 6da4 011c 212f a860 8828
00000290: 5387 9b21 dfa1 502a b235 b225 44f8 1c9e
000002a0: 9f50 102b e741 60a6 2f8a a7a5 7d0e e92b
000002b0: 0714 30af 0a48 d0aa e577 dfae 47fd 2b2c
000002c0: 70ea b12b 0471 4831 6a6d b532 4e3d b0ab
000002d0: 978a 69ac b9ea 1031 6ff2 07ac c5c7 24aa
000002e0: 2d05 ff2c a4e3 e2a7 909a bbac a23a 032e
000002f0: 173a 9da9 6729 acab fbb8 a72b 6121 eda8
00000300: 4017 e732 5588 5ab0 9cd8 4eae 4785 8433
00000310: 353a 59b1 497c 01b6 594f aeaf 4fad 92ae
00000320: b30b 1932 f26a d3b0 17c4 cbb3 aaa4 92ac
00000330: 98b3 a4ad 1d87 fbb1 a47f 0bac b013 2232
00000340: c9e0 1eb2 c26e 43b0 41d9 01b2 392a 7530
00000350: 31a8 0f30 7752 5fb1 108a 1faf ddf0 d2ad
00000360: 964a 7ab2 3af4 f4ab a24a 692e 122f f630
00000370: 89a3 89ac 1504 b8ad ffcf 7a30 bf2e 422e
00000380: e1fa 1b2e 75d9 c7b3 f4ed 04b3 854c 31b1
00000390: 0089 9a32 4a97 bbb1 42d3 61b1 510f 34b2
000003a0: 38d1 38b1 26c9 e0af f423 11b0 375e c82b
000003b0: 9667 222c 6210 bb30 613b bd2a 5905 272a
000003c0: 5701 1031 c763 d4b2 2e91 18b2 8332 87b2
000003d0: 81cb 93ae a5f9 32ab dab3 94ae 05ef 8da9
000003e0: 00c5 bc2b d314 ceac ea0c c72a 537f de26
000003f0: 8a1b 6530 9037 772e 62cd e62b bc8d 4531

bias f4 [32]
-2.42e-43 -2.896e-42 -6.01e-43 -2.28e-43 -8.425451e-09 5.09e-43 1.42e-43 -4.2195555e-28
1.4462597e-09 1.431e-42 6.25e-43 -2.5737276e-13 2.8976708e-09 4.2e-43 3.363e-42 -4.3313743e-32
1.443e-42 -1.557e-42 1.617319e-06 -6.261572e-10 0.0010626654 -1.7131508e-09 3.28e-43 -0.00022969779
-5.0708806e-36 5.7e-43 2.165e-42 -2.7632644e-15 -6.33e-43 -7.34e-43 -3.1460353e-12 -0.00012698362
00000000: ad00 0080 1308 0080 ad01 0080 a300 0080
00000010: 86bf 10b2 6b01 0000 6500 0000 1ab9 0592
00000020: bdc5 c630 fd03 0000 be01 0000 53e3 90aa
00000030: 5d20 4731 2c01 0000 6009 0000 d7e5 608b
00000040: 0604 0000 5704 0080 a812 d935 e51d 2cb0
00000050: 2249 8b3a 2374 ebb0 ea00 0000 08db 70b9
00000060: 00b1 d784 9701 0000 0906 0000 3b1d 47a7
00000070: c401 0080 0c02 0080 ef61 5dac e826 05b9

weight f4 [32]
1.3019342e-08 3.339781e-07 1.7138883e-09 4.4217546e-13 0.0038838803 0.00014019282 1.3728891e-06 0.0043210075
3.6769743e-05 1.9099623e-05 2.52188e-10 9.666156e-07 0.002113035 4.6754852e-08 1.5925835e-06 0.0004917169
1.2296011e-13 8.695319e-10 0.004746057 1.7417796e-06 0.15204123 6.324084e-05 4.8165333e-07 0.056620326
2.4549678e-05 1.415082e-09 0.0001343318 4.2154815e-07 4.2196712e-07 2.5524785e-09 0.005752333 0.051477816
00000000: acab 5f32 9a4d b334 158e eb30 33ec f82a
00000010: b388 7e3b b900 1339 1c44 b835 3d97 8d3b
00000020: 3639 1a38 2138 a037 4ea4 8a2f a9bc 8135
00000030: d87a 0a3b 81cf 4833 c1c0 d535 90e6 003a
00000040: d770 0a2a de03 6f30 d084 9b3b 17c7 e935
00000050: b2b0 1b3e 2ba0 8438 f74a 0135 b7ea 673d
00000060: 08f0 cd37 c67c c230 6bdb 0c39 2351 e234
00000070: b88a e234 ad67 2f31 117e bc3b 67da 523d

bias f4 [32]
-2.5792822e-06 -3.3937194e-08 -5.1039745e-10 -2.8691174e-10 -0.00011926876 -0.00013573437 -4.839224e-06 -0.0014201576
7.965677e-05 -5.431457e-05 -3.597905e-15 2.5933244e-07 -0.00013769441 -1.5714201e-13 -0.00010980021 -0.00019373775
-1.6545579e-10 -1.1208858e-14 -4.4417273e-05 -7.9588666e-08 -0.041835345 1.5791795e-05 -6.7045075e-10 -0.016181234
-1.4037165e-05 -2.8678665e-10 -0.0006790571 -1.0320337e-08 -6.0793184e-07 -4.5330936e-10 -0.00038624406 -0.014387991
00000000: bb17 2db6 57c2 11b3 074c 0cb0 3dbb 9daf
00000010: ee1f fab8 eb53 0eb9 9e60 a2b6 9524 baba
00000020: 670d a738 d3cf 63b8 d1a0 81a7 613a 8b34
00000030: 1062 10b9 1aed 30aa 8a44 e6b8 1526 4bb9
00000040: aaeb 35af bceb 49a8 af4c 3ab8 55ea aab3
00000050: 8a5b 2bbd 9f78 8437 c74a 38b0 828e 84bc
00000060: 2a81 6bb7 a2a9 9daf c002 32ba 524d 31b2
00000070: c230 23b5 9f35 f9af cd80 cab9 9cbb 6bbc

running_mean f4 [32]
9.0126584e-10 -7.2963964e-08 6.703353e-09 3.5917382e-12 2.744578e-05 -3.579492e-07 1.0203817e-06 -9.319137e-06
-4.2953985e-07 1.1649633e-08 8.01327e-09 4.5708964e-07 2.9776998e-05 2.9673708e-11 1.2447212e-07 1.631993e-07
1.9366989e-11 6.828962e-10 0.00013843123 4.3564727e-10 0.025652472 1.3803096e-06 -8.3418854e-08 0.010398333
4.7547712e-07 4.3011962e-08 1.6219724e-06 1.1814362e-06 1.0779556e-06 -3.4185334e-07 -2.731419e-06 0.009964778
00000000: f2bc 7730 5db0 9cb3 5153 e631 01bf 7c2c
00000010: 5d3b e637 2a2c c0b4 0cf4 8835 6359 1cb7
00000020: 829b e6b4 a123 4832 bcaa 0932 ec65 f534
00000030: 9ec9 f937 a081 022e a3a6 0534 e23b 2f34
00000040: 955a aa2d 8cb6 3b30 da27 1139 e77f ef2f
00000050: 2225 d23c 1443 b935 0024 b3b3 c55d 2a3c
00000060: 1445 ff34 27bc 3833 8cb2 d935 d791 9e35
00000070: 46ae 9035 f787 b7b4 6c4d 37b6 4f43 233c

running_var f4 [32]
4.9702827e-19 3.668656e-15 5.035445e-17 8.7558796e-24 4.5281573e-10 1.1608669e-12 5.840464e-13 5.842646e-11
9.685662e-14 1.2818912e-16 4.4737537e-17 1.1752594e-13 5.3473964e-10 5.7297727e-22 8.989667e-15 3.0969178e-14
2.3585762e-22 2.7603519e-19 1.0304354e-08 1.8114056e-21 0.00032290144 1.3838194e-12 5.2410096e-15 5.825433e-05
1.3286876e-13 1.0686875e-15 3.1041936e-12 1.6647655e-12 8.0129214e-13 5.8898355e-14 2.0084795e-10 5.2057843e-05
00000000: 65b2 1221 612d 8427 0b38 6824 045d 2919
00000010: 26f0 f82f a360 a32b fa64 242b 2c7b 802e
00000020: 0a1a da29 c0ca 1325 c350 4e24 8c52 042a
00000030: f5fc 1230 f82b 2d1c 86f1 2128 0879 0b29
00000040: 3391 8e1b 42f1 a220 0707 3132 aedd 081d
00000050: 194b a939 59c1 c22b c8d3 bc27 1c56 7438
00000060: d098 152a 9c03 9a26 2e70 5a2c 804b ea2b
00000070: 2f8b 612b 97a0 8429 acd5 5c2f af58 5a38

weight f4 [48, 32, 3, 3]
-4.783951e-22 -5.1345643e-27 -7.32732e-22 -1.6126629e-21 -2.621602e-25 -1.4880013e-24 -3.1269463e-20 -1.6214677e-24
-3.369544e-26 -2.0805801e-38 5.199814e-21 1.2959545e-24 1.6813243e-21 3.4848506e-24 3.226928e-28 9.247088e-22
3.1329762e-26 2.5430053e-24 3.0026e-41 9.033472e-31 1.150784e-29 1.772304e-34 1.9277023e-29 1.8702778e-25
2.7250517e-25 2.159999e-27 -3.0770835e-37 -4.9340463e-21 -4.283876e-24 -8.661075e-25 -1.480964e-39 5.405803e-35
-9.3648554e-29 -1.4169249e-30 -1.4652994e-31 -3.3075914e-28 1.3534274e-10 -1.12330605e-11 -8.968246e-12 2.9203848e-09
-4.4422632e-11 -4.080358e-14 -8.5786465e-12 -1.4856289e-12 -7.657187e-13 -6.0202206e-25 5.2555522e-17 2.1040612e-22
4.3109076e-26 4.9918427e-19 7.400836e-23 7.092794e-15 2.9628675e-21 1.6766284e-21 -3.4556093e-13 2.8554033e-14
-1.6721224e-15 4.1197015e-11 3.2665002e-16 -1.549199e-17 8.3151016e-18 -1.2425525e-18 5.825372e-16 -6.4520313e-13
8.055889e-09 -2.4075322e-11 -9.1917894e-14 3.2094175e-10 -6.4653513e-12 -2.2109528e-12 2.1145519e-10 -3.9942753e-14
-7.0632605e-10 5.713132e-10 -4.5723392e-10 -9.028854e-09 -1.2289817e-12 -3.688606e-12 -5.9925866e-15 -2.7950928e-16
-2.193967e-15 -4.5866967e-13 1.8277248e-11 -5.1619493e-22 -5.607714e-16 -8.085574e-13 -1.0962581e-21 -6.087218e-13
1.38848065e-11 2.085236e-21 4.2916067e-13 1.621627e-12 -3.1596516e-13 -1.208714e-15 1.5406635e-12 -1.9118045e-12
-2.631812e-14 1.6385487e-11 3.5193806e-11 4.8639964e-12 -4.142901e-15 4.3473543e-15 8.575611e-13 -4.417397e-17
-1.0617003e-11 7.2021566e-10 -6.1028255e-13 -1.8139031e-14 -8.215137e-10 3.3775711e-09 3.72649e-12 -5.4752007e-09
2.2332577e-10 -6.0354603e-12 -4.7107496e-12 1.02346166e-10 -1.4301905e-11 -6.767068e-13 9.990432e-14 -9.269678e-13
-6.978069e-13 2.85848e-11 8.2313305e-12 -1.9186323e-11 -1.14736484e-10 -1.5784204e-13 5.423872e-16 -4.904742e-12
5.817742e-12 -2.3717267e-13 -5.112711e-14 -3.3823516e-15 -2.582115e-16 -1.4648019e-16 -1.4861686e-18 -1.5098848e-14
-1.1685806e-12 -3.478207e-14 -2.1111407e-13 -1.4078831e-11 -2.2916635e-13 -6.544986e-13 1.8437604e-11 -2.2012004e-14
-6.967363e-22 -1.32387056e-17 -3.4682531e-18 -1.4094877e-18 -1.3854642e-19 -3.7112177e-22 -2.0132467e-16 -6.1678884e-20
-1.4740877e-22 -3.0910377e-15 1.8083853e-08 5.4862764e-12 1.76537e-14 7.4048807e-09 6.6551224e-13 3.0223691e-13
4.9492574e-09 1.0068525e-10 -7.8407246e-13 -6.2996025e-10 2.787792e-09 3.867396e-11 1.0293458e-09 -1.1715978e-10
-5.321123e-10 -1.7937707e-11 -9.440896e-13 2.5413333e-18 8.783712e-18 3.8942544e-29 1.7658879e-23 3.1744224e-25
4.939717e-23 2.2581083e-15 8.178808e-23 3.5233545e-23 5.1039706e-09 -8.539021e-11 2.5128735e-09 8.0180214e-08
5.289781e-09 -1.9953199e-10 1.672176e-08 -2.2232488e-10 -2.837866e-12 6.176882e-11 -2.0943752e-08 3.6999288e-13
-1.7221017e-12 -2.8262248e-11 -1.1054783e-11 5.196494e-11 4.919074e-10 -4.773611e-11 -4.0800696e-12 -9.0113565e-14
1.3887441e-13 1.1933408e-13 -2.2448536e-12 -1.3337707e-11 1.35266876e-14 3.857914e-12 2.4409008e-12 8.568826e-08
7.2622306e-08 4.8714623e-09 1.8562966e-08 -2.6958713e-10 -6.9890475e-11 -1.01250544e-11 -5.0799227e-09 -5.5653767e-12
-2.046042e-15 -4.5350286e-14 -1.0587138e-15 -6.74951e-16 -7.268528e-14 -1.09378006e-16 -2.2563848e-15 -7.829409e-12
-5.4993606e-18 -1.7128787e-19 4.4472344e-21 -7.982561e-13 1.3441546e-18 2.6603678e-12 -3.346372e-15 1.7813647e-15
2.9466335e-24 5.6821322e-21 4.4807238e-11 2.6157564e-11 2.406091e-07 6.556242e-08 -4.2427045e-10 2.1885472e-13
-1.4585324e-11 -4.7405696e-14 -1.7510057e-14 4.5932205e-14 -7.756503e-07 4.6240177e-17 -4.43888e-15 3.3602143e-07
-1.5530426e-16 -4.246759e-15 3.5419777e-08 -4.660589e-13 -1.7435461e-11 6.1939724e-12 8.4046025e-12 -1.5105428e-10
00000000: 0796 109c ab66 cb93 6474 5d9c e0b2 f39c
00000010: f144 a296 ce41 e697 76aa 139f f4e8 fa97
00000020: 0bda 2695 1c8e e280 8471 c41d 0c8a c817
00000030: 1513 fe1c 4ad0 8618 e687 cc11 f0bc 8b1c
00000040: 3123 1b15 69c1 4418 b353 0000 9393 920d
00000050: 1f68 690f 6194 6b07 037e c30f 7887 6716
00000060: 2bac a816 fc21 2b13 5b6a d182 2b67 ba9d
00000070: 74b9 a598 0e06 8697 5320 1080 fdb5 8f06
00000080: 636d ed90 c2e8 e58d ed34 3e8c bda4 d191
00000090: 98cf 142f 359d 45ad 64c5 1dad f4af 4831
000000a0: 705f 43ae 53c3 37a9 caea 16ad 6c15 d1ab
000000b0: d987 57ab 1a51 3a97 9c5e 7224 8a5d 7e1b
000000c0: 3f77 5515 4c55 1321 f5f0 b21a 7a8b ff27
000000d0: 31de 5f1d 6b5d fd1c 9488 c2aa 8f98 0029
000000e0: 6efa f0a6 b72f 352e 094d bc25 6de3 8ea3
000000f0: f562 1923 4e5e b7a1 a9e7 2726 c99b 35ab
00000100: 2d66 0a32 cec4 d3ad 0ffb cea9 8970 b02f
00000110: b57a e3ac fc94 1bac 587f 682f dce2 33a9
00000120: 4727 42b0 980a 1d30 f45d fbaf 521d 1bb2
00000130: bbf6 acab 02c8 81ac dbe7 d7a7 4a20 a1a5
00000140: 8c17 1ea7 a21a 01ab b4c4 a02d a602 1c9c
00000150: a0a1 21a6 b396 63ab 6ea9 a59c 0757 2bab
00000160: 9c43 742d 558e 1d1d 9298 f12a 4539 e42b
00000170: 61df b1aa ad31 aea6 41d4 d82b 0288 06ac
00000180: 740d eda8 d620 902d b4c8 1a2e fc22 ab2c
00000190: 8443 95a7 44a1 9c27 ca61 712b 6bb7 4ba4
000001a0: bbc6 3aad acf8 4530 7ec7 2bab c261 a3a8
000001b0: e3d0 61b0 dc1a 6831 3d1d 832c 6020 bcb1
000001c0: 9e8c 752f 985a d4ac a9be a5ac c50f e12e
000001d0: 0e9a 7bad dd79 3eab ebf6 e029 8975 82ab
000001e0: 496a 44ab 3f6f fb2d 9ece 102d c2c3 a8ad
000001f0: e64e fcae dfb6 31aa 1d55 1c26 fd91 acac
00000200: 90b1 cc2c 2f84 85aa 8b41 66a9 60b9 73a7
00000210: 4bd9 94a5 52e1 28a5 dd51 dba1 93ff 87a8
00000220: 8e76 a4ab ffa4 1ca9 7db1 6daa 6bad 77ad
00000230: 5a02 81aa 9839 38ab cb2d a22d 3a44 c6a8
00000240: 5c93 529c 0536 74a3 73e9 7fa2 f100 d0a1
00000250: 1691 23a0 5054 e09b 8e1c 68a5 99a2 919f
00000260: ce34 329b 95bb 5ea7 d056 9b32 fc07 c12c
00000270: a902 9f28 056e fe31 3653 3b2b ee24 aa2a
00000280: 210e aa31 c268 dd2e 60b2 5cab 8329 2db0
00000290: 5b93 3f31 0217 2a2e e378 8d30 8cd1 00af
000002a0: 1344 12b0 20c8 9dad 6ade 84ab 6e84 3b22
000002b0: e807 2223 5076 4510 44c9 aa19 bb7c c416
000002c0: bcde 6e1a bfb6 2227 5fc0 c51a 0461 2a1a
000002d0: 005f af31 6ac6 bbae f0ae 2c31 8a2f ac33
000002e0: 68c1 b531 4363 5baf 8aa3 8f32 e472 74af
000002f0: 73b2 47ac c1d4 872e cce7 b3b2 9849 d02a
00000300: 415d f2ab ed98 f8ad 517a 42ad 528b 642e
00000310: e836 0730 15f2 51ae 008e 8fac efea caa9
00000320: d35b 1c2a b55b 062a b0f7 1dac b1a3 6aad
00000330: d6ac 7328 00bd 872c 5cc3 2b2c 9e03 b833
00000340: 89f4 9b33 d661 a731 6574 9f32 0435 94af
00000350: d7b0 99ae 311f 32ad 798b aeb1 75d0 c3ac
00000360: d06e 13a7 523d 4ca9 a593 98a6 988a 42a6
00000370: 36ac a3a9 6135 fca4 f496 22a7 86bc 09ad
00000380: fee3 caa2 9538 4aa0 0303 a81d 6ab0 60ab
00000390: ba5c c621 ed34 3b2c ab21 71a7 615c 0027
000003a0: 17fc 6318 36aa d61d 7710 452e 9915 e62d
000003b0: 102d 8134 52cb 8c33 c23e e9af 9468 762a
000003c0: 3b4b 80ad 0c7f 55a9 71b7 9da8 3adc 4e29
000003d0: 4836 50b5 c43e 5524 71ed 9fa7 6f66 b434
000003e0: ba0d 33a5 7001 99a7 7520 1833 152f 03ab
000003f0: 2b5d 99ad 58ee d92c f7da 132d 0016 26af

bias f4 [48]
-5.2932028e-18 2.2996821e-20 1.1067988e-08 1.251e-42 3.34e-43 -1.35e-43 -1.347e-42 2.38e-43
6.68e-43 -1.41e-42 0.00034487044 -3.455602e-39 -8.02e-43 1.089e-42 5.11e-43 4.4e-43
7.96e-43 4.0076606e-15 0.00015569276 8.5e-43 1.4619279e-07 2.7779577e-13 -5.14e-43 -0.0001397099
1.5225e-41 2.7e-43 -4.6e-43 1.354e-42 -0.0002056553 -1.53e-43 -7.44e-43 5e-44
-5.607273e-07 9.428331e-19 1.3044062e-09 -0.00018613716 6.95e-43 -1.344e-42 6.07e-43 1.0675894e-20
2.353e-42 1.536e-42 9.28e-43 -5.31e-43 -4.79e-43 -1.9332875e-16 -1.0485438e-22 1.5111182e-33
00000000: e348 c3a2 e732 d91e 8725 3e32 7d03 0000
00000010: ee00 0000 6000 0080 c103 0080 aa00 0000
00000020: dd01 0000 ee03 0080 bacf b439 d0a0 2580
00000030: 3c02 0080 0903 0000 6d01 0000 3a01 0000
00000040: 3802 0000 2564 9027 7541 2339 5f02 0000
00000050: 2bf9 1c34 9762 9c2a 6f01 0080 177f 12b9
00000060: 712a 0000 c100 0000 4801 0080 c603 0000
00000070: 2da5 57b9 6d00 0080 1302 0080 2400 0000
00000080: e384 16b5 3a23 8b21 b746 b330 d02d 43b9
00000090: f001 0000 bf03 0080 b101 0000 75a9 491e
000000a0: 8f06 0000 4804 0000 9602 0000 7b01 0080
000000b0: 5601 0080 93e4 5ea5 b885 fd9a dc13 fb08

weight f4 [48]
4.668844e-08 5.495079e-05 1.1628947e-09 0.00046387376 5.9843842e-05 0.0011037223 2.0163996e-12 4.4536722e-12
5.645862e-10 1.3352454e-11 0.061558694 0.012772715 3.9003203e-06 3.2466906e-07 0.0073194634 0.00019073038
6.348772e-10 0.008618211 0.07476645 3.0421757e-05 6.0755745e-08 3.893739e-10 2.0539441e-10 0.12419886
0.003825504 1.2423889e-06 2.913961e-11 2.802677e-10 0.089347094 1.6062676e-10 2.4114597e-12 5.778321e-13
1.2190977e-11 0.00014212396 8.8152476e-05 0.0650704 9.7343025e-14 2.1765763e-10 1.5719723e-07 4.109829e-05
1.4571751e-12 7.749657e-05 1.5631228e-10 9.2294016e-07 1.5519055e-06 1.708976e-07 0.033175796 0.01966153
00000000: 7c86 4833 f67a 6638 b8d3 9f30 1534 f339
00000010: d600 7b38 c6aa 903a 3ae4 0d2c 1db3 9c2c
00000020: 3931 1b30 1be6 6a2d f824 7c3d a644 513c
00000030: 7fdf 8236 2d4e ae34 1cd8 ef3b ccfe 4739
00000040: 8383 2e30 6633 0d3c 271f 993d 3a32 ff37
00000050: d378 8233 810f d62f 63d5 612f f95b fe3d
00000060: 4fb5 7a3b 28c0 a635 4928 002e 2c14 9a2f
00000070: 9cfb b63d 6a9c 302f ffb0 292c 31a5 222b
00000080: 4877 562d 1c07 1539 80de b838 a143 853d
00000090: 6f32 db29 2d51 6f2f 0cca 2834 f460 2c38
000000a0: 4414 cd2b a785 a238 ffdd 2b2f f7bf 7735
000000b0: 114b d035 f97f 3734 58e3 073d 3811 a13c

bias f4 [48]
3.6446104e-10 -0.00061091303 -7.326722e-11 -0.00032148435 -0.00028700006 -0.0047175544 -8.69396e-17 -6.411145e-09
-2.2405794e-11 -2.7342473e-13 -0.023040622 -0.011937568 -9.765299e-06 -1.5623469e-07 -0.011927251 -0.00036083412
-4.4152744e-14 -0.002339728 -0.026053526 -0.0011417253 -4.3064556e-08 -3.2023817e-10 -2.0016208e-15 -0.047302984
-0.0035815123 -1.5980584e-06 -7.033226e-13 -2.7901091e-08 -0.034173053 -1.05046345e-08 -2.3094616e-12 -4.3309913e-17
-3.5309923e-12 -0.0018311111 3.660975e-05 -0.023852037 -1.5009797e-15 -2.6321095e-11 -8.6512555e-06 -5.6067584e-05
-7.346335e-16 -0.0017668253 -3.774779e-08 -1.4177216e-05 -2.0869424e-05 6.152807e-10 -0.02653949 -0.018053886
00000000: 555d c82f ae25 20ba c71d a1ae e68c a8b9
00000010: 7f78 96b9 b795 9abb 1578 c8a4 0749 dcb1
00000020: 5d15 c5ad a8ec 99aa b0bf bcbc ca95 43bc
00000030: a4d5 23b7 77c1 27b4 846a 43bc 562e bdb9
00000040: a6d8 46a9 1f56 19bb 346e d5bc f2a5 95ba
00000050: fbf5 38b3 840d b0af 633b 10a7 c6c0 41bd
00000060: ceb7 6abb de7c d6b5 bcf7 45ab 26ab efb2
00000070: 0bf9 0bbd df77 34b2 9083 22ac 52bb 47a4
00000080: b478 78ac e501 f0ba 6b8d 1938 5965 c3bc
00000090: 6050 d8a6 d685 e7ad dc24 11b7 1c2a 6bb8
000000a0: 62be 53a6 d294 e7ba 2220 22b3 aeda 6db7
000000b0: bf10 afb7 8820 2930 5869 d9bc bee5 93bc

running_mean f4 [48]
9.012311e-09 1.9735245e-10 -4.0807654e-10 1.2863766e-08 -1.4592785e-09 -1.071518e-06 -8.506675e-12 9.977807e-13
2.6594714e-12 1.0190164e-10 0.005045321 -4.3875625e-06 -2.302224e-09 -3.9265906e-11 -5.0472965e-05 -1.458158e-08
5.048843e-10 -8.6554566e-05 0.0065892134 -4.5347117e-09 -5.442698e-09 2.7569352e-10 -1.3882866e-14 0.010989285
-2.9998453e-06 5.1516453e-09 6.9481367e-13 2.8158843e-11 0.0074830283 4.9344383e-08 2.924752e-10 5.243724e-10
8.198625e-09 -1.5560569e-07 -1.5660605e-07 0.0057440843 -3.4667463e-11 6.4631706e-10 3.39388e-07 -2.5156803e-09
1.3092808e-12 -4.425274e-08 4.2296103e-10 4.605051e-10 3.197776e-12 9.353994e-10 -0.00022768426 -1.9756185e-06
00000000: 90d4 1a32 c7fd 582f ab57 e0af 71ff 5c32
00000010: cc8f c8b0 14d1 8fb5 a9a6 15ad d76c 8c2b
00000020: c724 3b2c 8615 e02e 3853 a53b e038 93b6
00000030: 2735 1eb1 7bb1 2cae efb2 53b8 7882 7ab2
00000040: 13c8 0a30 a184 b5b8 54ea d73b bfcf 9bb1
00000050: 7a02 bbb1 6a90 972f 6b17 7aa8 670c 343c
00000060: f350 49b6 5a02 b131 9a92 432b 14b0 f72d
00000070: 3134 f53b b9ee 5333 3aca a02f 6d23 1030
00000080: efd9 0c32 9114 27b4 8b27 28b4 df38 bc3b
00000090: 1878 18ae 85a8 3130 2235 b634 51e0 2cb1
000000a0: d043 b82b 6710 3eb3 7986 e82f 552a fd2f
000000b0: 0306 612c 718f 8030 87be 6eb9 de94 04b6

running_var f4 [48]
1.4786354e-16 9.196007e-20 1.5045919e-21 4.570875e-16 4.1308126e-18 1.958772e-12 1.5015422e-22 1.9038602e-24
1.3946163e-23 1.9875845e-20 4.5324527e-05 1.7798448e-09 1.2895564e-16 3.0840745e-21 4.32804e-09 5.0527495e-16
4.524603e-19 1.711193e-08 7.122079e-05 3.5766618e-17 1.2789832e-21 1.5415883e-19 3.6269394e-28 0.00021326804
1.7710236e-11 5.4919916e-17 5.4436242e-24 1.4610183e-21 9.706051e-05 4.8951122e-15 1.6335536e-19 5.609315e-19
6.857224e-17 4.2044222e-14 4.3014485e-14 5.598973e-05 3.250317e-21 8.5572625e-19 2.3232046e-13 1.306195e-17
3.532286e-24 3.431301e-15 3.4944553e-19 3.990065e-19 2.1455952e-23 1.5998506e-18 1.1327616e-07 3.2078453e-09
00000000: 9d79 2a25 7422 d91f 145e e31c 1bbf 0326
00000010: 6c66 9822 19d6 092c 7b86 351b d64d 1318
00000020: 07e1 8619 d8b8 bb1e d71a 3e38 b99e f430
00000030: fdac 1425 ad06 691d d8b5 9431 b6a2 1126
00000040: ef8a 0521 88fd 9232 5f5c 9538 c5f1 2424
00000050: 4446 c11c a6ff 3520 75e2 e511 b4a0 5f39
00000060: e8c7 9b2d fe45 7d24 0b97 d218 68c8 dc1c
00000070: f78c cb38 715d b027 21db 4020 c98e 2521
00000080: e81d 9e24 b059 3d29 53b8 4129 84d6 6a38
00000090: 4696 751d d990 7c21 e8c8 822a 51f3 7023
000000a0: 11a6 8818 5540 7727 b746 ce20 2888 eb20
000000b0: 5d82 cf19 a618 ec21 3a42 f333 0371 5c31

weight f4 [64, 48, 3, 3]
2.0535794e-11 1.0888746e-11 1.2962952e-11 7.417405e-12 5.4644836e-14 4.789824e-12 1.988136e-11 5.2284605e-12
1.0788698e-11 -1.11805e-16 -4.108254e-19 -2.6585878e-10 -4.187653e-14 -6.530802e-17 -1.21386115e-14 6.3014765e-14
-6.3908737e-20 8.0804316e-17 -2.861216e-23 -5.0420814e-21 -2.472697e-13 -3.268615e-19 4.5192624e-18 -4.359958e-19
3.9712385e-17 -2.4572837e-15 1.7680837e-15 3.008722e-11 3.733655e-12 -4.2502438e-13 6.499505e-11 1.491305e-10
3.381686e-11 9.6270276e-11 2.0356538e-12 6.947656e-13 1.1428323e-10 2.2212679e-15 7.687503e-12 3.2344984e-11
1.3141959e-14 3.874815e-11 7.167093e-10 1.7050973e-11 6.9892153e-10 7.00652e-17 2.4364167e-16 8.31277e-14
1.7676254e-17 3.2488478e-16 5.8152917e-11 1.4294162e-13 1.04076895e-14 1.3453381e-14 -1.01048935e-35 -4.0279014e-35
6.584238e-34 -3.6874426e-30 5.273841e-31 1.6072757e-34 -5.633016e-31 -9.931791e-31 2.8806052e-28 1.377647e-20
9.770336e-27 5.410562e-29 6.840607e-34 1.1503869e-24 7.764228e-23 -2.141709e-25 7.802046e-23 8.1150696e-20
5.159275e-16 -1.4894309e-14 5.7565215e-15 8.994103e-17 1.7929349e-18 -2.2490596e-19 1.4525366e-10 6.6110698e-21
4.721736e-16 -1.7855835e-21 -1.2368975e-18 1.7302847e-18 -3.1254198e-26 -2.1126107e-24 -7.710414e-24 -6.3408053e-20
2.6718864e-18 -8.608833e-23 -0.0030951349 0.0006931247 0.0004415703 0.0026575548 0.005182847 0.0033479526
0.0033456068 0.0067439 -0.0014518225 -1.7639152e-08 4.503965e-09 1.969981e-08 8.513875e-09 1.7312964e-09
5.155414e-07 -1.8941878e-07 7.633717e-09 1.8769151e-07 3.572956e-18 3.7791414e-21 4.415711e-22 5.0961717e-17
3.5364973e-20 2.0320717e-16 4.7594843e-18 1.5442446e-16 9.099499e-18 1.0097827e-24 3.8216912e-23 9.749944e-24
1.9588948e-18 2.8509757e-19 1.6649501e-22 1.0409559e-18 1.4354349e-15 1.4101255e-18 -1.2438518e-13 -1.0063023e-13
-1.043754e-11 -5.726548e-14 -4.3258743e-12 1.0820253e-11 -1.0137595e-13 1.0075425e-12 -4.09642e-13 4.1744804e-19
1.9539991e-15 4.1042277e-16 1.0954493e-15 3.264828e-14 6.7518975e-14 3.3787345e-14 4.423352e-15 7.2115075e-17
-6.678379e-22 -1.1975064e-27 -2.5356725e-33 -2.067441e-24 -5.58894e-19 -4.6592867e-31 -2.1881349e-24 -3.0623841e-18
-5.7499977e-24 2.6089772e-05 -1.4120882e-06 3.1901054e-06 -1.0086454e-05 -5.191185e-06 1.19176275e-05 -6.7732406e-05
-1.8894463e-05 1.3272542e-05 -0.0038744984 -0.00017884462 0.000955725 0.0024766847 0.0071053607 0.0050934544
0.0042343168 0.00798568 0.00083591987 6.769405e-15 8.143302e-17 2.665734e-10 2.6662614e-17 2.9024002e-18
6.170031e-11 7.720154e-12 1.3383162e-12 4.2960693e-13 1.7749345e-21 2.96848e-40 -1.1158879e-37 1.2062484e-28
1.1334409e-34 1.5222777e-23 -1.081358e-39 2.087587e-21 1.3526896e-35 5.838714e-21 3.5959968e-32 2.9870332e-27
-3.5699447e-24 2.8779974e-19 5.69552e-22 -4.1179898e-20 -1.2546801e-16 8.595554e-22 -3.2627332e-24 4.401752e-26
1.779406e-23 -1.541476e-24 -4.9279386e-25 4.7662486e-26 3.3164185e-20 9.307078e-28 9.2702483e-29 -0.0031251386
0.00015150971 0.0026726632 0.0041479054 0.011340988 0.009849748 0.0068519637 0.012534842 0.00594059
1.2099455e-08 4.579315e-10 1.4979364e-10 -3.9544844e-08 -1.7136845e-09 1.0943068e-09 -3.0620893e-07 1.515039e-08
1.3755403e-09 3.9379927e-20 2.3567226e-18 7.5203505e-21 5.9038716e-23 1.6489745e-16 1.6454538e-17 9.510942e-22
5.598258e-19 5.3937722e-18 -7.5939703e-32 1.0766423e-27 7.767051e-18 2.7826177e-19 7.2914595e-20 6.4127075e-25
-7.498111e-24 1.7631176e-19 2.3850584e-28 5.752279e-26 3.3845143e-14 5.348264e-12 2.9911155e-17 4.1698886e-19
6.5252375e-19 4.99168e-21 2.6228527e-19 1.1160847e-19 -0.003075498 0.0010272616 0.0011976976 0.0029145377
00000000: 7fa2 b42d 8d8e 3f2d f20b 642d 067d 022d
00000010: 3519 7629 e686 a82c d8e0 ae2d c9f5 b72c
00000020: facb 3d2d 03e7 00a5 2e82 f2a0 4c28 92af
00000030: 5a98 3ca9 0d97 96a4 77ab 5aa8 8ae5 8d29
00000040: 76e6 969f 7352 ba24 235c 0a9a 057c be9d
00000050: 5233 8baa eaf1 c0a0 3abb a622 e9ae 00a1
00000060: 1c24 3724 e210 31a7 c6ce fe26 3353 042e
00000070: c65d 832c 7844 efaa f6ec 8e2e 81f8 232f
00000080: 66ba 142e 59b3 d32e 143f 0f2c 238f 432b
00000090: bd4f fb2e 290f 2027 703d 072d 3741 0e2e
000000a0: 97be 6c28 8a6a 2a2e ef01 4530 61fb 952d
000000b0: 3b1e 4030 328f a124 2a73 8c25 db2f bb29
000000c0: e008 a323 8848 bb25 5dc2 7f2e 1ef0 202a
000000d0: ff7c 3b28 c55a 7228 46e8 5685 f428 5686
000000e0: 81cc 5a08 9894 958e 5b25 2b0d c2a4 5507
000000f0: 44cd 368d 0c27 a18d 7e94 b611 761d 821e
00000100: 7d85 4114 8e2c 8910 7351 6308 8503 b217
00000110: 3eba bb1a bc90 8496 53a4 bc1a 969c bf1f
00000120: bbb4 1426 f027 86a8 8a66 cf27 d063 cf24
00000130: 954b 0422 d4c2 84a0 45b5 1f2f 58c2 f91d
00000140: 4318 0826 35ea 069d ab88 b6a1 4f58 ff21
00000150: 67c3 1a95 9174 2398 1f24 1599 d1b7 959f
00000160: 8226 4522 1826 d09a bfd7 4abb d0b2 353a
00000170: 9082 e739 5f2a 2e3b dfd4 a93b 5369 5b3b
00000180: f841 5b3b effb dc3b 144b beba e884 97b2
00000190: 4cc1 9a31 5738 a932 6b44 1232 94f2 ed30
000001a0: bc63 0a35 0a63 4bb4 7125 0332 4088 4934
000001b0: 9ed1 8322 9dc5 8e1d e974 051c fa04 6b24
000001c0: a101 271f 2c48 6a25 0f98 af22 0e0a 3225
000001d0: 2bdb 2723 9d41 9c17 3fce 381a 6297 3c19
000001e0: 7a8a 1022 ba4a a820 b647 491b 349e 9921
000001f0: 33de ce26 0919 d021 960b 0caa 6199 e2a9
00000200: 809e 37ad 4df3 80a9 0334 98ac 165a 3e2d
00000210: 4247 e4a9 8bcc 8d2b a29b e6aa f76a f620
00000220: eccc 0c27 b697 ec25 f2de 9d26 e708 1329
00000230: 0a0a 9829 282a 1829 395e 9f27 3a49 a624
00000240: 74d7 499c a1c0 bd92 caa7 5289 e3f5 1f98
00000250: d6f4 24a1 d733 178d 7a4c 2998 cdf6 61a2
00000260: 3871 de98 5cdb da37 fb86 bdb5 9815 5636
00000270: fd38 29b7 f12f aeb6 d2f1 4737 8f0b 8eb8
00000280: 8d7f 9eb7 22ad 5e37 4ceb 7dbb 3d88 3bb9
00000290: 9e89 7a3a e04f 223b 16d4 e83b fee6 a63b
000002a0: 06c0 8a3b 5fd6 023c a221 5b3a bee4 f327
000002b0: 92c5 bb24 df8c 922f 51eb f523 ca28 5622
000002c0: 30ae 872e 7cd0 072d ec59 bc2b e2d8 f12a
000002d0: 3a1c 061d 7e3b 0300 05e3 1782 00e9 1811
000002e0: ffa8 1607 c539 9319 63c6 0b80 cebb 1d1d
000002f0: b7d7 8f05 9494 dc1d ffb6 3a0b 3ba8 6c13
00000300: 051b 8a98 11e3 a920 f422 2c1c 7177 429f
00000310: 9fa7 10a5 70e4 811c 1771 7c98 d6f6 5915
00000320: f517 ac19 2888 ee97 2783 1897 6103 6c15
00000330: 0a9d 1c1f fe79 9312 5a07 eb10 20cf 4cbb
00000340: 94de 1e39 d927 2f3b 27eb 873b 8dcf 393c
00000350: d660 213c 7086 e03b f05e 4d3c 48a9 c23b
00000360: f7dd 4f32 21c0 fb2f 29b3 242f 04d8 29b3
00000370: ea86 ebb0 7f66 9630 0965 a4b4 0f24 8232
00000380: 860d bd30 69f7 391f 3be5 2d22 2f0e 0e1e
00000390: 32bf 8e1a 231d 3e25 2ec4 9723 adb9 8f1c
000003a0: 3e3b 2521 bdfe c622 9726 c58b cd99 aa12
000003b0: dc46 0f23 bb41 a420 2b2a ac1f b476 4617
000003c0: d908 1199 f626 5020 c92b 9711 666b 8e15
000003d0: cb6c 1829 e12c bc2c dcf0 0924 9325 f620
000003e0: 4d97 4021 9194 bc1d 6ed3 9a20 97c3 0320
000003f0: 4b8e 49bb 2ea5 863a 10fc 9c3a d401 3f3b

bias f4 [64]
8.9496076e-05 7.44e-43 -1.03e-42 -3.7589398e-06 -1.613e-42 3.589043e-17 4.309432e-15 -1.43e-42
-9.91e-43 -1.11e-42 -8.97e-43 -8.904126e-06 1.195e-42 1.676e-42 -5.55e-43 -2.94e-43
-5.38e-43 -8.157866e-38 4.2423548e-05 2.515057e-06 -1.1442306e-14 1.11e-43 4.067322e-09 -4.34e-43
1.257e-42 5.7797904e-05 -6.61e-43 -8.28e-43 -1.079e-42 1.497e-42 -4.01e-43 -4.46e-43
-1.541e-42 9.1e-43 -3.807422e-36 -1.83e-42 5.75e-43 2.351e-42 -3.044e-42 2.45e-43
-1.309e-42 -2.2e-43 -1.261e-42 -0.0002590277 -9.46e-43 1.3825152e-18 -7.47e-43 1e-43
4.5244114e-20 4.23e-43 -6.25e-43 2.27715e-07 1.4e-42 -4.5636914e-19 1.8268056e-09 -1.1260384e-34
8.79e-43 -3.66e-43 -3.66e-43 -7.75e-43 1.281e-42 -8.72e-43 -2.44e-43 -3.78e-43
00000000: d7af bb38 1302 0000 df02 0080 1842 7cb6
00000010: 7f04 0080 f183 2524 7f43 9b27 fc03 0080
00000020: c302 0080 1803 0080 8002 0080 ee62 15b7
00000030: 5503 0000 ac04 0000 8c01 0080 d200 0080
00000040: 8001 0080 0714 de81 f0ef 3138 5ac8 2836
00000050: 5320 4ea8 4f00 0000 8bc0 8b31 3601 0080
00000060: 8103 0000 076c 7238 d801 0080 4f02 0080
00000070: 0203 0080 2c04 0000 1e01 0080 3e01 0080
00000080: 4c04 0080 8902 0000 27f3 a184 1a05 0080
00000090: 9a01 0000 8e06 0000 7c08 0080 af00 0000
000000a0: a603 0080 9d00 0080 8403 0080 1cce 87b9
000000b0: a302 0080 f305 cc21 1502 0080 4700 0000
000000c0: c7a8 551f 2e01 0000 be01 0080 d381 7434
000000d0: e703 0000 47b2 06a1 0213 fb30 1aad 1587
000000e0: 7302 0000 0501 0080 0501 0080 2902 0080
000000f0: 9203 0000 6e02 0080 ae00 0080 0e01 0080

weight f4 [64]
0.022273289 8.465842e-06 -2.7287784e-12 0.005651596 5.62385e-07 1.0633829e-07 3.4508134e-12 -2.7364841e-08
1.0464601e-10 1.1404186e-08 2.1445287e-10 0.00631166 1.3311843e-05 0.008568368 0.0052786386 3.0307894e-09
0.0022663644 1.0977962e-08 0.12412245 0.0033188646 0.0001795072 5.8333126e-12 -7.0773967e-06 0.0008786778
0.0006314555 0.04860472 2.809792e-07 0.0007227608 4.1136994e-07 0.007042987 3.4925715e-11 0.0011189672
0.0001785005 -1.02730977e-10 -1.2731493e-08 0.013079458 0.0062191514 0.0044509107 0.0026392336 0.00019616223
6.222707e-07 0.00039704627 0.00065573945 0.12196665 0.0033835457 3.895746e-09 1.8548582e-05 0.0008441763
1.6206124e-10 0.0025523289 1.4299998e-09 -0.00015594218 7.644906e-13 6.4674605e-10 0.0008145329 0.003546596
7.995972e-06 0.0018062913 1.8996728e-06 2.363611e-12 6.3495913e-06 0.013565974 0.000109907785 8.191331e-06
00000000: 7976 b63c 8408 0e37 4d05 40ac 0631 b93b
00000010: cef6 1635 185c e433 54d4 722c ec0f ebb2
00000020: 771e e62e 24ec 4332 1ecb 6b2f 0bd2 ce3b
00000030: ee55 5f37 5762 0c3c 6ef8 ac3b 3646 5031
00000040: 4987 143b 9699 3c32 e933 fe3d 4f81 593b
00000050: 193a 3c39 cf3d cd2c 607a edb6 1257 663a
00000060: 4388 253a be15 473d 7dd9 9634 a877 3d3a
00000070: 41da dc34 dbc8 e63b dc9a 192e 4faa 923a
00000080: dd2b 3b39 66e8 e1ae b3b9 5ab2 394b 563c
00000090: 06ca cb3b f2d8 913b fef6 2c3b e6b0 4d39
000000a0: 1e0a 2735 a62a d039 eee5 2b3a a7c9 f93d
000000b0: 7abe 5d3b 58db 8531 c798 9b37 b64b 5d3a
000000c0: 2f30 322f f944 273b a589 c430 6984 23b9
000000d0: 5a2f 572b b5c6 3130 6186 553a 026e 683b
000000e0: 7026 0637 14c1 ec3a 43f8 fe35 0853 262c
000000f0: 930e d536 d243 5e3c 4b7e e638 806d 0937

bias f4 [64]
-0.0037640096 -8.278489e-05 -1.3626021e-08 -0.001329941 -7.174314e-06 -2.5361322e-05 -5.172534e-14 -2.5179706e-05
-8.285647e-12 -1.1180664e-07 -1.0109496e-10 -0.001182698 -0.00016790135 -0.010295308 -0.007999643 -2.5827416e-09
-0.0079328315 -2.5495836e-11 -0.02274868 0.01645244 -0.0022507946 -2.991905e-13 0.00015712528 -0.0047932654
-0.002050034 -0.00885262 -4.2299657e-06 -0.0013888688 -4.8861407e-06 -0.009336225 -8.438869e-12 -0.005645815
-0.00041613064 -5.6305815e-08 -4.6361297e-11 -0.011670421 -0.0073003042 -0.004872921 -0.0046641715 -0.0018405038
-9.139858e-07 -0.002533847 -0.0049893404 -0.022168448 -0.006102525 -1.6007325e-06 -8.3294006e-05 -0.0010097645
-9.428063e-10 -0.004979734 -3.8922794e-06 -5.033691e-08 -4.647727e-11 -1.2637754e-06 -0.00534205 -0.0020853644
-0.00011681077 -0.003756461 -1.8556711e-05 -2.3227903e-14 -0.00014729415 -0.011649743 -0.00013120177 -3.92961e-06
00000000: 9aad 76bb cd9c adb8 e017 6ab2 6a51 aeba
00000010: e3ba f0b6 06bf d4b7 42f3 68a9 0239 d3b7
00000020: 3dc3 11ad 5a1a f0b3 674f deae c204 9bba
00000030: ad0e 30b9 a7ad 28bc ef10 03bc 127c 31b1
00000040: b5f8 01bc 8543 e0ad 715b babc 44c7 863c
00000050: 1182 13bb e56d a8aa ffc1 2439 d310 9dbb
00000060: dd59 06bb 940a 11bc 21ef 8db6 b40a b6ba
00000070: a1f3 a3b6 f7f6 18bc 4a75 14ad 8700 b9bb
00000080: 1c2c dab9 e6d4 71b3 2ee6 4bae 4b35 3fbc
00000090: 6437 efbb 06ad 9fbb e8d5 98bb 0f3d f1ba
000000a0: a058 75b5 e60e 26bb 9f7d a3bb 9b9a b5bc
000000b0: b1f7 c7bb c0d8 d6b5 21ae aeb8 135a 84ba
000000c0: 0c94 81b0 092d a3bb 6d9a 82b6 0532 58b3
000000d0: c168 4cae fe9e a9b5 5d0c afbb 9caa 08bb
000000e0: 4ef8 f4b8 f52e 76bb 3caa 9bb7 e637 d1a8
000000f0: f972 1ab9 90de 3ebc 3593 09b9 18db 83b6

running_mean f4 [64]
0.0044586114 1.736516e-11 1.7533775e-14 -0.00024640493 -1.9399109e-11 -1.1874931e-15 -1.6489144e-16 1.3010658e-12
1.2346483e-12 -2.3381853e-13 -3.9677998e-16 9.229733e-06 1.4831337e-12 -1.24526e-07 -6.5809553e-09 2.8167777e-11
-5.216023e-09 4.4233355e-16 0.014041924 0.00028747047 -2.3871601e-12 1.7712588e-18 -1.9103586e-08 2.1173754e-07
-7.379422e-10 0.007320405 2.0444627e-11 -1.7658898e-07 -2.7898905e-12 -2.4288873e-08 -2.5023736e-17 -9.659616e-09
3.991174e-12 7.030435e-17 1.8985178e-14 -1.137668e-05 -4.0629424e-09 -6.1187877e-09 -5.7700893e-09 -6.6421226e-12
7.4291356e-10 -9.0780695e-11 -2.6924613e-10 0.013575494 -7.2910904e-09 -6.036876e-12 1.8531248e-14 -8.364916e-10
3.077853e-11 -2.5362297e-09 2.7074345e-12 -7.0705353e-09 -1.3740562e-11 -1.07370256e-13 -1.4824335e-09 -6.409322e-06
1.3834929e-15 -2.3833708e-07 -2.9356237e-12 -3.1233815e-13 1.1845361e-13 -8.289778e-06 6.998445e-10 -2.0417783e-14
00000000: 8b19 923b ddbe 982d 22ee 9d28 e92f 81b9
00000010: e9a2 aaad c322 aba6 5d1b 3ea5 d61b b72b
00000020: e5c2 ad2b cda0 83aa 64ba e4a5 67d9 1a37
00000030: 86bb d02b 72b5 05b4 b21e e2b1 32c4 f72d
00000040: a038 b3b1 e9fc fe25 1910 663c a2b7 9639
00000050: 41fb 27ac 22b2 0222 3b19 a4b2 f959 6334
00000060: 11d8 4ab0 02e0 ef3b 35d5 b32d 699c 3db4
00000070: 3352 44ac cca3 d0b2 a0cd e6a3 71f3 25b2
00000080: 4d6d 8c2c 5d1c a224 d700 ab28 78de 3eb7
00000090: 059a 8bb1 6d3d d2b1 3e42 c6b1 ecb2 e9ac
000000a0: e535 4c30 fda0 c7ae 0605 94af c06b 5e3c
000000b0: 1c85 fab1 5867 d4ac 26ea a628 ddee 65b0
000000c0: 8b5d 072e d349 2eb1 ce84 3e2c 16f1 f2b1
000000d0: fdb9 71ad bdc6 f1a9 7ebe cbb0 a80f d7b6
000000e0: e161 c726 99e9 7fb4 7f93 4eac acd4 afaa
000000f0: ee5d 052a 5314 0bb7 2e5f 4030 34e8 b7a8

running_var f4 [64]
6.294631e-05 1.0428009e-21 1.0807677e-27 6.2860477e-07 1.2059476e-21 3.5254644e-30 2e-44 5.751101e-24
5.0195586e-24 1.7923834e-25 5.672791e-31 2.2318211e-07 1.1325886e-23 5.1736556e-14 1.446931e-16 2.8656513e-21
8.8417276e-17 1.6226056e-30 0.0006177834 2.5980896e-07 8.6646387e-23 2.366068e-37 1.8961915e-15 2.6607766e-13
1.7920667e-18 0.00016613341 1.762715e-21 1.2618354e-13 2.5151571e-23 2.0121956e-15 2.0394107e-30 3.0361576e-16
5.3859194e-23 1.7284817e-32 1.2087002e-27 4.2908296e-10 5.183454e-17 1.4076332e-16 1.08256727e-16 1.9646481e-22
1.8847217e-18 2.6267954e-20 3.0207674e-19 0.0005697538 1.7289684e-16 1.299605e-22 1.2478551e-27 2.2361176e-18
3.3498422e-21 2.1512693e-17 2.5055516e-23 3.7536953e-17 6.6927777e-22 3.959676e-26 6.187731e-18 1.3131211e-10
6.327437e-30 1.9012848e-13 3.0349846e-23 3.786496e-25 6.7197335e-26 2.1961509e-10 1.8946857e-18 1.4234228e-27
00000000: 0b02 8438 6895 9d1c 2541 ab12 64bd 2835
00000010: d73c b61c 8402 8f0e 0e00 0000 257c de18
00000020: 4d2f c218 e6e2 5d16 b417 380d d5a3 6f34
00000030: 1213 5b19 3000 6929 ded1 2625 c285 581d
00000040: 59e0 cb24 33a4 030e bef2 213a df7b 8b34
00000050: 847f d11a b806 a102 8fa2 0827 d5c9 952a
00000060: 2f3b 0422 1934 2e39 de2f 051d ee11 0e2a
00000070: 4640 f319 75fe 1027 e774 250e c705 af25
00000080: 3a39 821a ed7e b30a b586 bf12 0fe4 eb2f
00000090: 6c0b 6f24 004a 2225 7e9f f924 ea82 6d1b
000000a0: 6311 0b22 0418 f81e 8c50 b220 885b 153a
000000b0: 2456 4725 d41c 1d1b 04bb c512 11ff 2422
000000c0: 5f1b 7d1d 696b c623 7452 f219 d01b 2d24
000000d0: dc46 4a1c db12 4415 7849 e422 1361 102f
000000e0: ee55 000f ce10 562a 4ac3 121a 6d5f ea16
000000f0: 5f5f a615 2778 712f 9acd 0b22 e38c e112
