models/model_all_fold_2_thresholding_4_l2.pkl (torch_old, 704404 bytes, 38 tensors)

weight f4 [16, 3, 3, 3]
000000 f6 a0 60 bb a0 e0 8c 3d 5f 4e 0e 3e d7 8b e4 bc
       -0.0034275628 0.06878781 0.13897084 -0.027898712
000010 c0 75 60 3b 71 b7 41 bd b1 7f 99 3d ed ae 32 3d
       0.0034249872 -0.047294084 0.07495058 0.043623853
000020 8b 66 10 3e 67 d7 ff bd c1 6d 1a bc 5b 1d 28 be
       0.14101617 -0.124922566 -0.009425581 -0.16417448
000030 c3 9f 26 be 37 35 c5 bd 11 8d ea bc d8 15 25 be
       -0.16271882 -0.096292906 -0.028631719 -0.16121614
000040 7f 2f 4a bd ca a6 15 be 32 e4 af 3d 84 ed b6 bd
       -0.049361702 -0.14614406 0.08588447 -0.08932021
000050 39 9e 98 bd 09 62 02 3e 3a a3 00 3d eb aa aa 3d
       -0.074520536 0.1273271 0.031405665 0.08333381
000060 73 01 3f bc a1 19 9a bd da 52 32 be 44 3f cc 3d
       -0.01165806 -0.075244196 -0.17414418 0.099730045
000070 4f e3 1f 3e 8f dc 0c 3e 41 57 24 be 71 f5 b9 3d
       0.15614055 0.13756011 -0.1604891 0.09080017
000080 d7 ee 18 be ea 63 04 bd 89 44 4f bd 75 ba 2a be
       -0.1493486 -0.032321848 -0.05060247 -0.1667269
000090 00 60 b8 3b de 15 03 3e fd af 58 3e c4 8d 96 3c
       0.0056266785 0.1280131 0.21160884 0.018378146
0000a0 b8 82 9a 3d da 76 5f 3d 4a da f6 bd fc 25 30 be
       0.07544464 0.054556705 -0.12053354 -0.1720199
0000b0 de cc 01 3d cb 74 7a bc 93 f1 e5 bd 9a f8 04 3d
       0.031689517 -0.015286635 -0.11227717 0.032463647
0000c0 ba 9e 32 3e 3d 4a 50 bd 7c 16 f1 3d f5 04 8e 3d
       0.17443362 -0.05085205 0.11771867 0.06934539
0000d0 ee 23 6e be 66 28 c0 bd d3 d7 2e bd fb cb 24 3e
       -0.23255894 -0.093827054 -0.042686295 0.16093437
0000e0 f3 f2 a8 3d 6c 3c 64 be c9 74 2b be 6d 62 90 3d
       0.08249464 -0.22288674 -0.16743769 0.07050023
0000f0 6e 52 12 be 1e 7e ed 3d f4 22 15 3e e1 c0 a4 3b
       -0.14289257 0.115963206 0.14564115 0.005027876
000100 22 0b 6e 3c a8 7e 0c 3e 4b ac b9 bd a6 fc 23 bd
       0.014529021 0.1372019 -0.090660654 -0.040035866
000110 2f 63 51 3e 2a 3a 85 bd d4 f3 ea 3d 6d 92 07 3e
       0.20447992 -0.065052345 0.11472288 0.13239451
000120 84 56 6e be 18 3e aa 3d 76 b2 99 3d ed ee 86 bd
       -0.2327519 0.08312625 0.07504742 -0.0658854
000130 7c f2 48 bd 0b 53 d0 3d c6 80 3d be b7 62 8f 3d
       -0.049059376 0.10172089 -0.18506154 0.0700125
000140 a3 ee 03 bd ca 68 8c bd 8f bf e1 bc a3 d7 30 be
       -0.032210004 -0.068559244 -0.027557163 -0.17269759
000150 f7 31 d9 bc e4 30 07 3e 7a d4 eb bc c4 57 1b bc
       -0.026513083 0.13202244 -0.02878784 -0.009481374
000160 f3 82 5d bd b9 5e da bd 5f e4 64 be 0e f0 73 3d
       -0.05407996 -0.10662598 -0.22352742 0.059555106
000170 16 66 33 be 06 30 14 3e 8c 3d e2 3d 79 9b 22 3c
       -0.17519411 0.14471444 0.110468954 0.009924763
000180 0c ac 64 3c 91 e8 71 bd 61 38 f1 bc 09 0c fe 3c
       0.013957035 -0.059059683 -0.029445829 0.031011598
000190 65 20 5b 3d 1a 4a d6 3b 8d 46 bd bc a9 49 5a 3e
       0.05349769 0.0065395953 -0.02310493 0.21317162
0001a0 e7 84 ec bd c9 8b c3 3d 89 d8 49 3e 0d 1f 39 3e
       -0.115487866 0.09548146 0.19711508 0.18078251
0001b0 12 76 85 3d df 52 2d 3d 61 fc d8 bd b5 c8 73 3d
       0.06516661 0.04231536 -0.105950125 0.05951758
0001c0 e5 63 09 3d d4 27 d3 bd ea d1 d9 bd 3f cd f0 3c
       0.033542532 -0.10310331 -0.10635741 0.029394744
0001d0 57 b6 0e be 0a 34 4c 3c 51 f1 43 3d 32 88 d9 bd
       -0.13936745 0.012463579 0.04783756 -0.1062168
0001e0 9d 73 0e 3d 8c 0a 80 bb 65 cd ec bc 49 58 2f 3d
       0.034778226 -0.0039075073 -0.028906533 0.042808805
0001f0 20 70 a3 bd 09 59 5a bd 5b 73 bd 3d 53 1c 90 bd
       -0.079803705 -0.053307567 0.09250518 -0.070366524
000200 38 27 2b 3d 90 3e d1 bc a8 75 95 3c 6d 35 94 3d
       0.04178545 -0.025542527 0.01824458 0.07236753
000210 05 fb be 3d 16 0f a7 3c 9f 9b 7d bd 5e 2a b4 bd
       0.09325222 0.020392936 -0.06191599 -0.087971434
000220 e3 db 05 3d 65 f4 a6 bd e6 bc e5 bd 4f fa ed bd
       0.032680403 -0.08152083 -0.1121767 -0.11620008
000230 fe fe 20 bd 75 79 ba 3d bd 1a fa 3d 76 af 7c 3d
       -0.03930568 0.09105197 0.12212131 0.06169077
000240 cc 5e b3 3c aa 81 89 bd 0d 94 45 3c 40 6e 1c be
       0.021895789 -0.067141846 0.012059224 -0.15276432
000250 17 3a bf bd 87 0a 5e 3d 45 5f bb 3d 68 8d 1a 3e
       -0.09337252 0.05420926 0.091490306 0.15093005
000260 99 f9 0c 3d fd 20 44 3a 0a eb e5 ba 95 45 bc bd
       0.034417722 0.0007481722 -0.001754136 -0.09192959
000270 a0 e6 c4 bd 06 58 89 3d 85 4e 98 bc 06 25 b1 3d
       -0.09614301 0.06706242 -0.018592129 0.0864964
000280 6d 7e 12 3e be fc 8c 3c 27 da e9 3d 7c 04 cd 3d
       0.1430604 0.01721036 0.114185624 0.10010621
000290 b4 86 d2 3d b5 91 d6 3b 73 5b 04 be d1 36 33 be
       0.10279599 0.0065481314 -0.1292551 -0.1750138
0002a0 76 16 f8 3d 90 98 92 3d 2c ef 1c be 23 a7 35 3e
       0.12113659 0.07158005 -0.15325612 0.17739539
0002b0 54 d3 16 be 66 35 4a be 78 f0 00 3e 3e 9a df bd
       -0.14729053 -0.19746932 0.12591732 -0.10918091
0002c0 8f 6e 69 bd 59 a8 46 3e 39 b8 41 3d 92 bb 9c bd
       -0.056990203 0.19400157 0.04729483 -0.07652964
0002d0 98 b4 ee 3d 7e 2a ee 3d 77 b6 41 be 19 bf 46 3e
       0.11655539 0.116291985 -0.18917261 0.19408835
0002e0 76 76 84 bd 0b c6 f1 bd 11 8c 2a 3e 9e 8d fd bd
       -0.06467907 -0.11805352 0.16654994 -0.12380527
0002f0 b1 f5 2c be e0 75 0a be bc ce 84 3d dd 80 2a 3d
       -0.16890599 -0.13521528 0.06484744 0.0416268
000300 54 0d 96 3d ba d3 b7 bd ae 7a 12 3e 66 27 8d bd
       0.07326761 -0.089759305 0.14304611 -0.0689228
000310 b1 43 13 be 79 4a c9 3d a7 38 60 3e 60 69 fa 3b
       -0.14381291 0.09828658 0.21896611 0.007641956
000320 16 9e 79 3d ab 92 02 3e f4 09 41 3e 22 08 83 3c
       0.060941778 0.12751262 0.18851453 0.015995089
000330 d3 e9 24 3e 56 9c 0a 3c 8d cc 69 3d 11 ce 22 be
       0.16104822 0.008460125 0.05707984 -0.1589892
000340 1a 69 0d be d1 fa 19 be 7b 26 4e be 8f 2a 15 be
       -0.13809624 -0.15037085 -0.20131867 -0.14567016
000350 4d bb 1d be 84 1e 06 be 21 d8 b0 3d ad d9 50 be
       -0.15403481 -0.13097578 0.08634973 -0.20395537
000360 80 f4 0a be 8e 45 3f bd 1a dc a3 bd 93 2f 5c 3d
       -0.13569832 -0.046697192 -0.080009654 0.053756308
000370 4c 65 21 be 97 4c 44 be ff 07 4a be d0 13 02 be
       -0.15761298 -0.19169842 -0.19729613 -0.1270287
000380 f9 75 44 be 64 bf 37 3e 2b 05 78 bd 05 1f 03 be
       -0.19185628 0.17944103 -0.060551804 -0.12804802
000390 0c ee eb 3d d0 8b 70 3d 38 7e ed 3d 9a c9 a3 3d
       0.11520013 0.058727086 0.1159634 0.07997437
0003a0 7d b9 4b 3d d4 a3 1a 3d f0 5e f8 3b a7 e5 e5 bd
       0.049737442 0.037753895 0.007579677 -0.11225443
0003b0 7b 97 da 3d dc b4 0c 3e 32 87 26 3e cb bf a4 bd
       0.10673424 0.13740867 0.1626251 -0.08044394
0003c0 eb e9 4c bc 29 78 2f 3e 58 31 40 3e 3a 1c 5e 3c
       -0.012506942 0.17135681 0.18768823 0.013556534
0003d0 cc 3d 1d bd f8 fd c9 bd c8 ba c8 bd eb e4 3c be
       -0.038389012 -0.09862894 -0.09801251 -0.184467
0003e0 e7 64 7c 3d e9 9e 64 3c b1 2c d0 bd 67 03 58 3e
       0.061619665 0.013953903 -0.10164774 0.21095048
0003f0 29 83 4b 3d 42 25 81 bc a8 0b c1 bd 15 24 2e be
       0.04968563 -0.015764836 -0.094260514 -0.17005952

bias f4 [16]
000000 05 13 ac ba b3 f1 3d bb 0f 03 a6 3a 05 65 26 3b
       -0.0013128227 -0.0028983175 0.0012665706 0.0025389802
000010 e4 33 a5 b5 56 8c 69 39 e4 c0 a3 b9 44 71 b3 ba
       -1.230856e-06 0.00022272891 -0.00031233497 -0.0013690372
000020 0d 6c 81 39 4c ac d8 ba 34 88 5a ba 11 7c 13 bb
       0.00024685301 -0.0016530841 -0.0008336336 -0.002250437
000030 1f b0 19 3a 4b e3 7f ba 0c da cb b9 f2 f7 43 b9
       0.0005862731 -0.00097613473 -0.00038881635 -0.00018689016

weight f4 [16]
000000 76 01 85 3e ca 72 38 3f 0e a6 04 3f bf 55 d4 3e
       0.25977677 0.72050154 0.5181588 0.4147167
000010 fb 4f 6b 3d 64 2e e5 3c 01 fc b0 3e 9c 29 d8 3e
       0.057449322 0.027976222 0.34567264 0.42219245
000020 54 0e b6 3e 8a 9f 92 3e 3e 1a 06 3f da 8f a4 3e
       0.35557806 0.28637344 0.5238379 0.32141
000030 23 17 0d 3f 2b 2e 05 3f b6 15 18 3f e1 4e a3 3e
       0.5511343 0.5202357 0.5940813 0.31896117

bias f4 [16]
000000 66 d6 37 3c d3 f7 93 3e c5 03 e0 3d ec 6b 0e 3e
       0.01122055 0.28900012 0.10938219 0.13908356
000010 30 5c a5 bd 9e a6 56 3d 1a 7c f5 bd e6 38 14 be
       -0.08074224 0.052404992 -0.11986561 -0.1447483
000020 d2 b6 d8 3c ab e6 bc bd cf 3f 21 3e cc 61 5e 3e
       0.026454363 -0.09223684 0.15746997 0.21716994
000030 44 76 10 3c c8 92 a2 3d 9d 8e 10 3e e0 ee 91 3d
       0.008817259 0.079381526 0.14116903 0.0712564

running_mean f4 [16]
000000 8d ed f1 3e 49 3b e9 bc c0 a3 14 be c2 d7 52 bd
       0.4725155 -0.028470652 -0.1451559 -0.051475294
000010 41 f1 4d 3e 5a d2 fe 3a 67 18 26 3d 49 66 c3 3e
       0.20111562 0.0019441352 0.040550616 0.38163975
000020 5a fb a5 3e f6 68 11 3f 40 5f 6d bd ed 7b e0 3c
       0.3241833 0.5680078 -0.057952166 0.027402842
000030 8b 69 a0 be 20 4e 98 be 6f cb 8c 3d 63 74 b2 bf
       -0.31330523 -0.29747105 0.068747394 -1.3941768

running_var f4 [16]
000000 a3 98 c6 3f 2f 98 c6 3e 6d c7 4d 3f bb 81 83 3e
       1.5515331 0.38787982 0.80382425 0.25684914
000010 d8 a7 b3 3e a0 b4 84 3e e8 1b 49 3f dd 2e 37 3f
       0.35088992 0.25919056 0.78558207 0.7155588
000020 44 b6 6e 3f fd 2a fe 3f e3 9d d0 3e 10 1d ae 3e
       0.93246865 1.9856869 0.40745458 0.34006548
000030 3a fb 4f 3f 4f a8 35 3f 87 b6 be 3e 44 cb 28 41
       0.81242716 0.70959944 0.37248632 10.549625

weight f4 [32, 16, 3, 3]
000000 c3 ff f0 3a 95 cf ff 3b c2 fa d4 3c 9f 0d c7 3b
       0.001838677 0.007806728 0.025998477 0.006074622
000010 07 6e df 3b f9 e8 0f bd 50 e6 bf bb 37 92 7e bd
       0.006818536 -0.03513429 -0.005856313 -0.06215116
000020 02 0c c1 bb 72 c0 02 3d 80 25 f6 3d 4b d4 44 bd
       -0.005891324 0.03192181 0.12018871 -0.04805402
000030 54 d5 5a bb 84 e8 e9 3d f4 6c b4 3d bb f9 e6 3d
       -0.0033391314 0.11421302 0.08809844 0.11278101
000040 91 29 d1 3d 56 50 d7 3d 31 2e 25 3c 2f fa de 3d
       0.10213006 0.1051337 0.010081814 0.108875625
000050 5e f5 09 bd b7 56 92 bd f7 8f b7 bc 4b 86 ea 3d
       -0.033681266 -0.07145446 -0.022407515 0.114513956
000060 aa a6 1f ba 55 4a d5 bc 88 4f a7 3c be 3d 37 bc
       -0.00060902035 -0.02603642 0.020423666 -0.011184154
000070 0b df 50 3b ff 58 1d 3d bd 8f 8c bd f7 7e 0b bd
       0.0031871225 0.03841495 -0.068633534 -0.03405663
000080 87 a7 92 bd 88 75 91 bc e8 ed d1 bd 06 5c 48 bc
       -0.071608596 -0.017756239 -0.10250455 -0.012228971
000090 af f4 b1 bc 77 40 de bc c8 5f f8 bb 3b bd 99 bc
       -0.02172312 -0.027130349 -0.0075797774 -0.01876699
0000a0 eb 89 69 bd 1c a1 06 bd ee 56 7d bc a7 ad d5 bc
       -0.057016294 -0.03286849 -0.01546262 -0.02608378
0000b0 20 59 0d bd 4e 16 6c 3c 59 30 36 3c 9e 6b 24 3d
       -0.034508824 0.014409615 0.011119925 0.040141694
0000c0 01 99 65 3c 7e 09 40 3c ff 76 26 3c 60 8b aa bc
       0.01401353 0.011721013 0.010160207 -0.020818412
0000d0 69 90 d9 bb cb 57 a2 bb 32 6f a7 bc 1e 5a a5 bd
       -0.0066395295 -0.0049543134 -0.020438764 -0.08073829
0000e0 4b cb e0 3c c3 98 86 bd 7c 36 43 bd 7c 51 4b bd
       0.027440688 -0.06572106 -0.047659382 -0.049638256
0000f0 cc 2e 28 be 6e 7e da 3c fc dd 0a bd b6 f1 83 3d
       -0.16424102 0.026671614 -0.033903107 0.06442587
000100 3c d4 0a bd 8f 42 fa 3c 50 df 7f bd 52 b6 bc bc
       -0.03389381 0.030549316 -0.062468827 -0.023036156
000110 b9 d5 90 3d 1b 98 54 3d 41 d5 85 3c 43 9f a0 3c
       0.07072014 0.05190287 0.016337039 0.019607192
000120 13 c4 c8 ba fb 83 2d bd 96 5c 7c bc cc b2 e5 bd
       -0.0015317224 -0.042362195 -0.015402934 -0.112157434
000130 2b 92 f4 bc c0 47 ff bd ed 35 dd bd 1d b1 0d be
       -0.029854855 -0.12464857 -0.10801301 -0.13837095
000140 10 bc e3 bd 8d 1a 8f bd fc a4 66 3c 6e 9f 4a 3d
       -0.111198545 -0.06987486 0.014077421 0.04946845
000150 0c a4 26 bd f5 6a 40 bd f5 bc 2f 3d 56 f3 34 bd
       -0.04068379 -0.046977002 0.042904813 -0.044177376
000160 c7 78 2a 3d d4 aa 0f bd fb be ac bd f1 d9 fb 3c
       0.04161909 -0.035075024 -0.08434864 0.030743571
000170 df c1 0b 3c bb fb 82 3d cc 5e 14 bd 12 bd bb 3d
       0.008530109 0.0639567 -0.036223218 0.09166922
000180 2a b0 8a 3d fc 6b 1e bd 29 3d 69 bd c3 66 1d 3e
       0.06771882 -0.0386772 -0.056943092 0.15371232
000190 af f9 59 3d 0d 51 44 bd 94 4d 91 3d a5 80 bb ba
       0.053216632 -0.04792886 0.07094875 -0.0014305307
0001a0 e7 e5 93 3d 47 3c d1 3d 61 79 80 3d 52 57 c9 3d
       0.07221585 0.10216575 0.06273151 0.09831108
0001b0 79 65 8b 3a 71 54 13 3d 22 e8 78 bd 9b 76 b2 bd
       0.00106351 0.0359692 -0.060768254 -0.087140284
0001c0 9f 01 a2 bb 3a 1d a2 bc 25 42 f5 bc a8 3c af bd
       -0.004944041 -0.019789327 -0.029938767 -0.08556491
0001d0 f7 9d b8 bd 67 46 ba 3c de e9 5c 3d f0 3e b0 3d
       -0.090145044 0.022738649 0.05393397 0.086057544
0001e0 9b b6 98 bd c3 b8 62 3d b9 66 f1 3d 13 d8 07 b9
       -0.07456704 0.055351984 0.11787171 -0.00012955097
0001f0 72 31 81 bc 8c 3c 5b 3d 5b bc fd bd e1 a0 c7 bd
       -0.015770648 0.05352454 -0.123894416 -0.09747482
000200 9e 71 d1 3c 37 3f 9c bc a6 d5 98 bd 68 53 0a be
       0.025566872 -0.019073112 -0.07462625 -0.1350838
000210 a7 ee c8 bd 67 28 d2 bd 0f 9e 19 be 77 b3 ec bc
       -0.09811144 -0.102616124 -0.15001701 -0.02889417
000220 37 a9 0b 3c a2 c2 ca 3d a8 72 9b 3c 88 2b 1a 3d
       0.008524231 0.099004045 0.01897557 0.03763917
000230 42 d2 6e 3d 83 d8 99 bd f3 68 2a 3d ed ef 5b 3d
       0.058305986 -0.075119995 0.041603994 0.053695608
000240 5a 41 0d bd da 24 6e 3d 48 dc 87 3d b3 4e 6b 3d
       -0.034486152 0.058140613 0.06633812 0.0574481
000250 f9 f1 47 3d 68 0c c2 3d b9 fc b8 3b cb 7e 92 bd
       0.048814747 0.094750226 0.0056453613 -0.0715309
000260 98 09 36 3d 63 a0 b5 bd 2c b5 d4 bd e4 58 32 3d
       0.044442743 -0.08868482 -0.10386118 0.043541804
000270 fc 2c 0b bd 28 ce 81 bd 3e e7 c8 bd 1e 42 94 bd
       -0.033978447 -0.06338149 -0.09809731 -0.07239173
000280 2b d8 68 bd d3 b3 8e 3b 0e 81 f5 ba d6 0f dd bd
       -0.05684678 0.004354933 -0.0018730478 -0.10794036
000290 1d f9 e6 bd 67 17 0b 3d 74 79 b7 bb 15 dd 4b bd
       -0.11277983 0.033957865 -0.005599195 -0.049771387
0002a0 4f 62 04 bb 07 70 68 bd a3 80 1d bd 2c 9e 8b 3d
       -0.0020200198 -0.056747463 -0.038452756 0.06817278
0002b0 67 53 0b 3c 4a 2b d3 bc e6 65 fd 3c 23 3d eb 3c
       0.008503771 -0.025777478 0.030932378 0.028715676
0002c0 ae 73 8f 3d 9e b0 9f 3c 62 78 8e 3d 1c 6c d2 3d
       0.07004486 0.019493397 0.06956555 0.102745265
0002d0 0e 47 cf ba b2 e8 35 3c b9 08 ac 3c 0c 03 a5 bb
       -0.0015814023 0.011102842 0.021000253 -0.0050357636
0002e0 bc 4c c2 3c c0 72 4e 3b a6 ff 93 bb 38 d2 70 bc
       0.02371823 0.0031501502 -0.0045165597 -0.014698558
0002f0 d5 bd 6a 3b a8 75 af bc 96 30 2a bc ba a1 b6 bb
       0.0035818715 -0.021418408 -0.01038756 -0.0055734785
000300 2e 12 47 bc 02 ea 8b bb 4b 25 a3 3b e1 be 8a 3b
       -0.0121503305 -0.0042698393 0.004978811 0.0042341803
000310 d3 61 a6 b8 20 a5 14 bc 3b f1 96 bd 71 43 c5 3d
       -7.933718e-05 -0.009072572 -0.0737023 0.09632004
000320 33 14 92 3d 7c 5d bf bd 29 b0 55 3d 86 20 d7 3d
       0.07132759 -0.093440026 0.052169953 0.1050425
000330 2b cc 36 be 0b cb cd bd 52 10 32 3d 25 b4 1e 3d
       -0.17851321 -0.10048493 0.043472596 0.038746018
000340 80 cf c1 3c 69 8f 9d bd e1 c9 be bd de ae 4e bd
       0.023658514 -0.07693369 -0.09315849 -0.050459735
000350 94 92 3c 3d 15 47 05 bd 38 0a 26 bb 50 96 78 bb
       0.046038225 -0.032538492 -0.002533568 -0.003793139
000360 b4 3f 65 bd 1b 8f f8 bc 97 1e b7 bd a7 15 56 bd
       -0.055968955 -0.030341676 -0.089413814 -0.052266743
000370 d7 27 8e bd 48 df 17 bd 44 7a bb bd ee c7 38 bd
       -0.069411926 -0.037078172 -0.0915418 -0.045112543
000380 17 0b 7d bc 57 af 98 bd a9 50 87 bd 2c 44 69 bd
       -0.015444539 -0.074553184 -0.066071816 -0.05694978
000390 7c ea 98 bd 06 77 98 bd a2 0a 53 bd 42 23 a7 bd
       -0.07466599 -0.07444577 -0.051523812 -0.08161022
0003a0 bb c9 64 bc 09 34 55 bd b7 dc 0f 3d 15 a6 ec 3c
       -0.013964112 -0.052051578 0.0351226 0.028887788
0003b0 18 61 98 3d b2 53 3a bc 31 e6 c4 3c 6c c6 13 3d
       0.07440394 -0.011372494 0.024035545 0.0360779
0003c0 26 28 97 bd 4f a8 51 bd b7 1f 8b bc c3 24 d9 bd
       -0.073807046 -0.051185902 -0.016982896 -0.10602715
0003d0 82 8e 17 be bd cf 7f bd 21 b0 c3 bc 03 0c 48 bd
       -0.14800456 -0.062453974 -0.023887696 -0.04883958
0003e0 c3 cf 20 be 23 b2 cf bd b6 48 fc bd 49 85 38 be
       -0.15704255 -0.10141399 -0.12318556 -0.18019594
0003f0 33 09 eb 3c e0 0c 4e 3d 19 c5 08 bd 53 cb 80 3d
       0.02869091 0.050305247 -0.033391092 0.06288781

bias f4 [32]
000000 d3 ee 46 b9 67 6c 26 ba 0a a8 e5 39 6e 18 2c 39
       -0.0001897172 -0.00063485507 0.00043803483 0.00016412299
000010 20 53 05 b9 ef 0a 00 b8 94 df 01 b9 aa 5f 2b b9
       -0.00012714835 -3.052776e-05 -0.00012385688 -0.00016343468
000020 93 0d 97 b9 15 49 13 3a ed 0a 76 b8 e5 75 79 b7
       -0.00028811078 0.0005618495 -5.8661146e-05 -1.4869006e-05
000030 ac 63 25 b8 a3 69 25 39 2c 96 03 b8 e7 fc a3 38
       -3.9431892e-05 0.00015774979 -3.1372692e-05 7.8195524e-05
000040 d3 d5 9c b9 d7 21 dc b9 df 8e ba b5 8f ce 7b b8
       -0.0002991395 -0.00041986883 -1.3899661e-06 -6.0035436e-05
000050 31 de ff b7 77 cd 1e 39 a4 d6 66 38 aa 6a 6a 38
       -3.0501835e-05 0.00015144596 5.5036173e-05 5.5889286e-05
000060 7c 8d 1a 39 d3 ba c8 38 c7 67 9b b9 7b 6e 45 3a
       0.00014739292 9.571542e-05 -0.00029641224 0.00075314165
000070 64 7b 5c b9 93 b8 15 39 48 cb 87 b8 75 76 7f 39
       -0.00021026802 0.00014278507 -6.475166e-05 0.00024362824

weight f4 [32]
000000 4b a8 da 3e 55 28 fa 3e 9f 46 7e 3e d7 5e 27 3f
       0.42706522 0.48858896 0.24831627 0.6537909
000010 76 62 ae 3e cb 76 86 3e 18 14 64 3f 0f 7d cc 3e
       0.34059495 0.26262507 0.8909316 0.39939162
000020 46 aa fa 3e 62 5c c2 3e d3 19 01 3f 07 87 51 3f
       0.48958033 0.37961107 0.5043003 0.8184666
000030 84 38 10 3f c8 6d a6 3e e6 ac a7 3e 53 3d c5 3e
       0.56336236 0.3250563 0.327491 0.3852335
000040 07 e2 46 3f 59 87 1f 3e 89 f5 57 3e 40 84 01 3f
       0.7768864 0.15578975 0.21089758 0.5059242
000050 d6 ed 1f 3f ae 91 11 3f 18 9e 7b 3e 6f 81 1a 3f
       0.62472284 0.56862915 0.24572027 0.6035375
000060 11 c0 1f 3f 45 a3 9a 3e dd aa ee 3e 77 b3 6e 3f
       0.62402445 0.3020269 0.46614733 0.9324259
000070 af ae 4d 3e 94 cc f7 3e 39 5e b4 3e 09 4c 05 3f
       0.20086168 0.48398268 0.35228136 0.52069145

bias f4 [32]
000000 45 bf c9 bb 95 00 56 bd 15 c1 f0 bd 20 f8 d5 bd
       -0.0061568343 -0.05224665 -0.117555775 -0.10447717
000010 a6 0f a5 bc 3b a4 1d bc 02 1e 4c be cd 85 2a bd
       -0.020149063 -0.009621675 -0.19933322 -0.04163151
000020 f1 f0 54 bc b4 39 0e ba 80 0e 94 bd e0 9c 74 bd
       -0.012996898 -0.00054254686 -0.07229328 -0.05971992
000030 46 37 9c bd 8f b0 cd bd 6e 5a 0b bc 4d aa d8 3b
       -0.0762773 -0.100434415 -0.008505447 0.0066120983
000040 9f 4f cd 3d 2b f5 0a bc 42 ab 13 be 56 f7 ad bd
       0.10024952 -0.008481304 -0.14420798 -0.08494441
000050 c0 c5 e5 bc 46 50 f9 bd 70 ce 25 bd cc c2 1d bd
       -0.028048396 -0.12173514 -0.040480077 -0.03851585
000060 85 4f ed 3c a8 04 71 bd 3b 18 50 bd a3 61 1c bd
       0.028968582 -0.05884233 -0.050804358 -0.03817905
000070 69 26 c7 bd d0 1b 4a 3d 0f 0d 62 bc 38 91 8d bd
       -0.09724123 0.04934293 -0.013797059 -0.06912464

running_mean f4 [32]
000000 6b 6e e9 3d ba 78 2f bf 82 53 8b 3e 97 bb 43 be
       0.11398014 -0.6854359 0.2721215 -0.19114529
000010 f0 d9 fc bd a5 98 11 be c4 94 3a bf c3 82 00 bf
       -0.12346256 -0.14218386 -0.7288325 -0.50199527
000020 3c ab 81 bd 31 d2 26 be ed 7b a7 be 13 79 f9 be
       -0.063314885 -0.16291119 -0.32711735 -0.48725185
000030 20 5e ab 3e 54 66 89 be 2d 84 f9 3d 7a 25 29 3e
       0.3347025 -0.26835883 0.12183414 0.16518202
000040 0d d9 f7 be 0e fe bf bc e9 6b 80 bf c4 83 ee bd
       -0.48407784 -0.023436572 -1.0032932 -0.11646226
000050 97 a7 2d 3d 63 15 44 bf cc e6 78 be 3d 6c 9d 3d
       0.042396154 -0.76595134 -0.24306792 0.076866604
000060 1d fa a1 be 18 bb aa be 78 75 9c be aa a1 94 bf
       -0.31636134 -0.33345866 -0.30558372 -1.1611836
000070 75 93 a6 be e0 fb 61 be 27 4c af be b9 de 2e 3e
       -0.32534376 -0.22068739 -0.34237787 0.1707715

running_var f4 [32]
000000 d0 76 5e 3e 31 39 81 3e ec 37 23 3e 61 d3 1c 3e
       0.21725011 0.25238946 0.15939301 0.1531501
000010 f3 e8 31 3d a7 55 11 3e c3 0e a4 3e ff f1 62 3e
       0.04343505 0.1419283 0.32042512 0.22162627
000020 5c b5 98 3d ea 39 c4 3d 8d dc 39 3e d7 a2 eb 3e
       0.074564666 0.09581359 0.1815054 0.46022674
000030 bb c0 58 3e 3b 92 c5 3d 83 36 43 3e f7 91 99 3d
       0.21167271 0.09647032 0.19063763 0.07498544
000040 2d b8 2e 3e a3 41 a5 3d dc c4 2e 3e f6 0b 43 3e
       0.17062445 0.0806916 0.17067283 0.19047531
000050 01 9e 1f 3e 83 7d 61 3e 83 59 ec 3d 0e 78 37 3e
       0.15587617 0.22020535 0.115405105 0.17916891
000060 a7 27 58 3e 21 a9 18 3e d9 f4 7a 3e 42 6a f1 3e
       0.21108876 0.14908268 0.24507464 0.4715138
000070 b7 06 86 3d 53 a9 31 3e fc d6 1d 3e 77 8f 6f 3e
       0.065442495 0.17349748 0.15414041 0.23394571

weight f4 [48, 32, 3, 3]
000000 60 a7 36 bd 3e 73 82 bd 18 3d b8 bc e3 8c 0e bb
       -0.044593215 -0.06369637 -0.02249007 -0.0021751455
000010 28 9b 7d bc 30 ed 8f 3d bb 5a 57 bd e4 80 26 bd
       -0.015478887 0.07027662 -0.05257676 -0.040650263
000020 0f e8 18 bc f6 6f ad bd f6 7d a1 bd e1 ad 83 bd
       -0.009332671 -0.084686205 -0.07885353 -0.06429649
000030 59 68 66 bd ab 28 88 bb 45 01 8b bc 11 c6 fb bc
       -0.056251857 -0.0041552386 -0.016968379 -0.030734094
000040 c8 09 21 3d 3e b1 e7 3c ca 19 ee bd 0e 89 68 bd
       0.03931597 0.028282758 -0.116260126 -0.05677133
000050 b3 63 4d 3c 45 48 23 bd 98 14 4f 3d 90 c0 e8 3c
       0.012535977 -0.039863843 0.05055675 0.028412133
000060 6c a4 96 bb 1d 8b 00 3d 17 3e b9 bb 0b 47 d1 bd
       -0.0045972373 0.03138267 -0.0056531536 -0.102186285
000070 87 65 c4 bd f0 eb 11 be b1 4c be 3c 7f 4c 1c bc
       -0.09589677 -0.1425016 0.023229929 -0.009539722
000080 06 77 11 3c 3a 94 36 3d 55 e0 a4 3d d0 6f 9d 3d
       0.008878475 0.044574954 0.080506004 0.07687342
000090 4b 74 32 3d 3e 8e 86 3d 79 bd 9b 3d 4e d7 80 bc
       0.043567937 0.06570099 0.076044984 -0.015727665
0000a0 8e 20 0d bc 67 1f ca bc e3 d4 dc bc 0d 91 da bc
       -0.008613719 -0.024673177 -0.026956981 -0.026680494
0000b0 5c c1 26 bd a7 37 f6 3b b1 a1 b4 3c 0c c9 e5 3c
       -0.040711746 0.0075139585 0.022049757 0.028049968
0000c0 f4 73 fc bc 2e e6 49 3c c2 b0 1e 3c e1 05 83 3c
       -0.03081701 0.0123229455 0.009685697 0.015994014
0000d0 72 b0 8d 3d 4f 43 13 3d 51 5f b9 bd b5 e4 26 be
       0.0691842 0.035952862 -0.09051383 -0.16298182
0000e0 5e 86 23 be 6a d2 cf 3c e0 16 65 3c cb 6c 5b bb
       -0.15969226 0.025368888 0.013982505 -0.0033481594
0000f0 0b 4c c0 3c f3 7f de 3d 0d 31 a7 3d 53 66 fb bc
       0.02347376 0.10864248 0.081636526 -0.03068844
000100 d1 8a 2c 3d f0 23 1e bb 65 ac 94 3d ff 14 59 3d
       0.042124573 -0.0024130307 0.07259444 0.05299854
000110 09 30 b1 3c 7b 97 18 bc a0 10 4a 3c 14 0d 39 bd
       0.02162935 -0.0093134595 0.012333065 -0.045178488
000120 e6 52 30 bc 85 f0 f7 3c 3e 3b 11 3b 2c 3e cc bd
       -0.010761952 0.030266056 0.0022160555 -0.09972796
000130 f1 65 0a be 17 b4 ed bd d3 12 7a bd 3a 28 8c bd
       -0.1351545 -0.11606615 -0.06105311 -0.0684361
000140 63 c3 e1 bd aa 7e c4 bb e0 47 7f bc 37 da 3b bd
       -0.11023595 -0.005996545 -0.015581101 -0.045862403
000150 86 4e 5a bc 95 c0 2b bd ff b3 f0 bd 8a fc 92 3c
       -0.0133243855 -0.041931707 -0.117530815 0.017942686
000160 b8 7a e9 bc 58 e4 c6 bd cd b2 11 3c c8 70 49 3d
       -0.0285009 -0.09711522 0.008892727 0.049179822
000170 50 02 ae 3c 2a 91 1d bd 94 95 22 3d a7 e7 48 bd
       0.021241337 -0.038468517 0.03969343 -0.049049046
000180 dd 03 6f bd cc d6 83 bd 1a eb 4c bd 8e fb ce 3c
       -0.058353294 -0.06437454 -0.050028898 0.025266435
000190 94 ee 6b 3d 1e cc c4 3c 1a 9b 3b bd fc 23 5e bc
       0.057600573 0.024023112 -0.045802213 -0.013558384
0001a0 d0 fa 00 bd 8c 0f 4d bd 23 76 4c bc 91 25 9d bd
       -0.031489193 -0.050063655 -0.012479338 -0.07673181
0001b0 1e d4 31 bd a9 3e 16 bc 15 89 f9 bc 01 63 4f bd
       -0.04341518 -0.009170213 -0.030460874 -0.050631527
0001c0 67 68 45 bc 16 9a 48 3b b0 8a e6 bc 00 ff b8 3c
       -0.012048817 0.003060942 -0.028142303 0.022582531
0001d0 c2 a7 e8 3c b0 b6 a2 3c 93 c3 c6 bb b2 b4 11 3c
       0.028400306 0.019862503 -0.0060657947 0.008893179
0001e0 f2 8f 72 bc cb 8d 6d 3c 10 b4 e6 3c fe 3b ed 3c
       -0.014804827 0.014499138 0.028162032 0.02895927
0001f0 c6 35 c7 3d 1b c2 cd 3d 40 39 a8 3d b6 06 2f 3d
       0.09727053 0.10046788 0.082140446 0.04273101
000200 6b 59 72 3d 47 2e 66 bb f7 4f 0b bc ac 73 9e ba
       0.059167307 -0.0035122798 -0.008502952 -0.0012088916
000210 fb 5c 3b bd 64 ea 40 bd 44 ac 3a bd 57 85 a2 3c
       -0.04574297 -0.047098532 -0.04557444 0.019838972
000220 e0 89 d8 3c 14 a8 22 bc 65 20 8c bd 1a 9b 84 bd
       0.026432931 -0.009927768 -0.06842116 -0.06474896
000230 88 ea 60 bd 55 44 a2 bd bb 07 c0 bd 8a a6 90 bd
       -0.054911166 -0.079231896 -0.093764745 -0.07063015
000240 9f cc b1 3d 95 82 12 3e 94 d0 e8 3d 01 f5 87 3d
       0.086816065 0.14307626 0.11367908 0.06638528
000250 05 37 13 3d c2 29 0c 3d d7 3e d8 bd 14 a0 cb bd
       0.035941143 0.03421951 -0.10558861 -0.09942642
000260 c4 9d 4d bd 8c 35 96 bc 88 96 2b bd eb c4 2b 3c
       -0.050199285 -0.01833608 -0.041891605 0.010483961
000270 4e 6f ef 3b 41 43 4d 3c 7b 32 18 3d 71 c7 ab bb
       0.0073069697 0.012528242 0.037157517 -0.005242281
000280 98 81 94 3c 33 60 d6 3c 67 15 19 bd 49 85 e6 bc
       0.018128201 0.026168918 -0.037373926 -0.028139727
000290 b2 58 97 bc c8 d9 7e bc 7d 38 d0 bc e5 df 20 3b
       -0.01847491 -0.015554853 -0.02541756 0.0024547514
0002a0 10 b9 9b 3c bc 36 1e 3d 7c a8 20 3d b0 5e d4 bb
       0.019009143 0.038626418 0.03922318 -0.006481014
0002b0 09 72 fd bc 13 b9 9d 3b e4 a1 09 3d 7d 16 3b 3d
       -0.030938165 0.0048133223 0.033601657 0.045675743
0002c0 b1 4b 40 3d 5a 15 3c bc 30 cf 02 bc c0 70 4d bd
       0.046947185 -0.0114797 -0.007983968 -0.050156355
0002d0 9a 94 90 3d 79 1b 61 3d 63 1b 2e 3c 3b 7c 0f 3c
       0.070595935 0.05495784 0.010626647 0.008757646
0002e0 a0 22 1e bd 2d 6d 23 bd 70 2b 26 bd 84 3d 66 bd
       -0.03860724 -0.03989904 -0.04056877 -0.05621101
0002f0 d4 3a 2a bd 3e 4b ed bc 26 f9 fa bc d9 c3 13 3c
       -0.04156001 -0.028966542 -0.030636381 0.009018862
000300 0d 40 8a 3c 48 a5 c1 3c 63 6d eb 3d dc 3e 9d 3d
       0.016876245 0.023638383 0.11495473 0.07678005
000310 ca de a3 ba 3e 28 05 3d c9 68 cf bc fe dc b5 bd
       -0.0012502309 0.03250908 -0.02531852 -0.088800415
000320 66 ac 87 bd d8 c8 47 bd c6 39 55 bb 9f 91 a4 bc
       -0.06624679 -0.048775524 -0.0032535656 -0.020088969
000330 0b 6c 5c 3c 37 15 36 3d ed 35 3e 3c 69 04 bb bd
       0.013453494 0.044453826 0.011609537 -0.091317005
000340 13 8e 09 be 0e e1 31 be c6 43 f6 3b 24 f3 04 bd
       -0.13433103 -0.17371008 0.0075154034 -0.03245844
000350 29 1b 9e bc 2b 86 0e 3d b8 98 d7 3c 6b 0a 41 3d
       -0.01930006 0.03479592 0.02631794 0.047129076
000360 2c 59 ff bc 66 69 87 bc 70 88 40 bd cc 4d 3e 3d
       -0.03117045 -0.01652975 -0.047005117 0.04646091
000370 f5 b1 de 3c e6 41 42 bc 38 5f 25 3d bd 00 ff bc
       0.027184466 -0.011856532 0.04037401 -0.031128282
000380 41 58 f5 bc eb 9a c4 bc e2 74 e6 bc 24 88 3d bd
       -0.02994931 -0.023999652 -0.028131906 -0.046272412
000390 04 98 7d bd c2 af 02 3c e8 9e f9 3c 54 fd 15 bd
       -0.06191255 0.007976474 0.03047128 -0.036618546
0003a0 7b 05 bf 3c b4 48 ea bb a3 7f c6 bc a8 3b 26 bd
       0.023318043 -0.00714978 -0.024230784 -0.040584236
0003b0 7a 8c 8a bd 4b 6c 28 3d 0e 3f 0f 3d fb 86 93 3d
       -0.06765075 0.0411189 0.034972243 0.0720348
0003c0 43 76 4a 3d 34 ee be 3d 75 60 e0 3d f7 47 cb bd
       0.04942919 0.093227774 0.10955898 -0.099258356
0003d0 49 da d3 bd dc dd aa bd b6 f7 df bd dc a3 a4 bd
       -0.10344369 -0.083430976 -0.10935919 -0.08039066
0003e0 45 09 89 bd 47 9e 8d bd d2 81 ed 3c 31 6a 95 3c
       -0.06691221 -0.06914955 0.028992567 0.018239113
0003f0 bc 46 b8 bb af 55 40 3b 25 b8 15 bb 20 96 ae 3c
       -0.0056236666 0.0029347946 -0.0022845354 0.02131182

bias f4 [48]
000000 a6 98 ac 38 d9 b2 e6 b6 0c c0 3d 37 3b f1 52 39
       8.230032e-05 -6.8753548e-06 1.1309992e-05 0.00020117026
000010 dd 58 1a b9 6d b0 f6 26 a3 26 bd b8 91 d3 ba b6
       -0.00014719689 1.7117499e-15 -9.019419e-05 -5.5678615e-06
000020 16 df b9 38 41 d4 a5 b6 8c 55 4b b6 ad 0b f3 b8
       8.8630404e-05 -4.942093e-06 -3.0299152e-06 -0.00011589318
000030 88 3c 36 b8 25 24 2f b9 44 4d b7 b8 ff 4d 17 37
       -4.3448556e-05 -0.00016702765 -8.740512e-05 9.018461e-06
000040 b9 e9 a1 38 44 fe 37 b9 f0 d5 cd b8 d3 f5 aa 37
       7.7206125e-05 -0.00017546961 -9.815011e-05 2.038005e-05
000050 2f 01 00 00 4c ba 4f 38 d0 e4 cb 36 f6 ac c0 b8
       4.25e-43 4.952615e-05 6.0765087e-06 -9.18749e-05
000060 85 75 93 37 d1 00 00 00 73 52 16 b8 d5 39 05 38
       1.757849e-05 2.93e-43 -3.5839574e-05 3.176353e-05
000070 a5 e0 25 39 db 03 00 80 bd 38 99 b7 8e 25 2a 38
       0.00015819313 -1.383e-42 -1.8265442e-05 4.0566134e-05
000080 d0 5b ef b7 c3 e9 90 38 70 cc 71 b8 c7 c6 a9 a6
       -2.8533774e-05 6.9099966e-05 -5.7649275e-05 -1.1780609e-15
000090 82 63 b5 b7 a4 3d 60 38 37 f0 70 b7 9e 1a 86 37
       -2.1623218e-05 5.346317e-05 -1.4361044e-05 1.598644e-05
0000a0 87 2d c3 38 64 75 2c 38 9e cb 9d 37 1f 19 6b 38
       9.306805e-05 4.1117324e-05 1.8810675e-05 5.6051762e-05
0000b0 48 93 7f b8 4d 3d f6 b8 fb 47 f1 b8 01 e0 18 b7
       -6.0933904e-05 -0.00011741612 -0.00011505183 -9.112061e-06

weight f4 [48]
000000 1c 95 ab 3e 12 3d e9 3e 76 31 ae 3e 04 af d9 3e
       0.335122 0.45554405 0.3402211 0.4251634
000010 18 12 4a 3f 3f 92 99 3c f7 13 06 3f e4 3a ba 3e
       0.7893386 0.018746493 0.52374214 0.36373055
000020 4c 6c 33 3f d2 f0 bf 3e a5 d6 ba 3e 64 c9 0f 3f
       0.7008712 0.3748842 0.36491886 0.5616667
000030 e2 56 86 3e 98 d0 ea 3e 92 7b 5e 3f 9b 7d 21 3f
       0.2623816 0.4586227 0.86907303 0.63082284
000040 7a 44 cd 3e 9e 70 8f 3e ba 0e 0e 3f f8 22 fd 3d
       0.40091306 0.28015608 0.5549122 0.123601854
000050 0e ac 86 3a 86 36 6d 3e 38 f1 89 3e 89 96 f3 3e
       0.0010274665 0.2316533 0.26941848 0.47575787
000060 60 14 07 3f 24 33 16 33 d5 91 47 3f 72 06 d8 3e
       0.52765465 3.497111e-08 0.779569 0.42192417
000070 33 21 23 3f 1c bc 27 3b 35 bd 1f 3f 52 d7 28 3f
       0.63722533 0.00255943 0.6239808 0.6595355
000080 a1 2b 7a 3e 8c b2 cf 3e 8c e6 ca 3e 13 ac 01 3d
       0.24430706 0.40565908 0.39629018 0.031658243
000090 2f 75 76 3e 0b 15 1f 3f ca f2 94 3d ea 78 b5 3e
       0.2406814 0.62141484 0.07272871 0.35443813
0000a0 d2 39 0d 3f 10 cb 52 3f 27 11 30 3f 58 80 07 3e
       0.5516635 0.823411 0.6877617 0.13232553
0000b0 c5 14 14 3f 4c 7e 00 3f 66 05 b5 3e 62 0e 3d 3f
       0.5784419 0.50192714 0.3535568 0.7385007

bias f4 [48]
000000 78 23 1e be 55 30 b4 bd c5 d3 29 bc f7 cf 95 3d
       -0.15443218 -0.08798281 -0.010365431 0.07315057
000010 61 73 11 be 8d c7 8c bd d5 c1 18 be 88 90 39 be
       -0.1420417 -0.06873999 -0.14917691 -0.1812154
000020 3e 2a 38 be d4 1b 3f be 9c a6 2e bd 34 4d 60 be
       -0.17984864 -0.1866296 -0.04263936 -0.2190445
000030 ae 14 ec bd 3d 52 88 be a2 06 be bd 52 ad 11 be
       -0.11527382 -0.26625243 -0.09278609 -0.14226273
000040 8c 5f 1b be 08 fe 01 be a0 aa a3 bd b9 73 b9 bd
       -0.15173167 -0.12694561 -0.079915285 -0.090552755
000050 39 4e 4d ba 8d fe 40 be 74 cd 1b be 6e 09 34 bd
       -0.00078317855 -0.18847103 -0.15215093 -0.043954305
000060 05 fb 35 be 8d 96 30 b0 08 00 1e be 82 4b 00 be
       -0.17771538 -6.424237e-10 -0.154297 -0.12528804
000070 21 66 4c be 7b e8 87 bb 08 8d 5a be d5 85 2a be
       -0.19960834 -0.004147587 -0.21342862 -0.16652615
000080 df 3f 01 bc 96 c9 37 bd cb 3a 5d be 7c b0 40 bd
       -0.007888763 -0.04486998 -0.21604459 -0.04704331
000090 73 1d 00 be e4 b5 8a be 62 bf b5 bd 96 e7 9a be
       -0.12511234 -0.27091897 -0.08874394 -0.3025481
0000a0 92 ab 06 be 74 1d 87 bd 94 80 07 bc 8b b9 ca bd
       -0.13151386 -0.065974146 -0.0082704015 -0.09898671
0000b0 b9 47 ff bd dc 15 98 bd 39 42 9a 3c 8e e9 4d bd
       -0.12464852 -0.07426044 0.018830406 -0.050271563

running_mean f4 [48]
000000 2d 99 07 bf eb a5 a7 be f5 6d e5 3d 6a f7 32 bf
       -0.529681 -0.32743773 0.11202613 -0.69908774
000010 f3 6c 62 bf c5 d1 93 bc 66 d5 be 3c 55 e6 56 bf
       -0.88447493 -0.018044362 0.023295116 -0.8394521
000020 7c a9 21 bf 78 3c 28 bf 8c 49 33 bf 34 4d 69 bf
       -0.6314924 -0.6571727 -0.700341 -0.9113343
000030 a4 de 2c 3f 26 34 96 be 0d a4 0f bf 04 8d 4e be
       0.6752722 -0.2933666 -0.56109697 -0.2017098
000040 48 a9 0d bf 2a d4 b2 bd b0 0c 0c bf 55 b0 8a 3e
       -0.5533643 -0.08731873 -0.5470686 0.27087656
000050 04 00 00 80 c5 b2 8b 3d 2a 7e de 3e 6d fb c8 3d
       -6e-45 0.06821207 0.4345563 0.09813581
000060 9a ae 7e bf 91 9e 37 33 3a 59 1f bf 6e 90 fa bc
       -0.9948517 4.2752223e-08 -0.62245524 -0.030586448
000070 3e 08 71 be 69 5f b4 2d 1b de 43 bf 4c e7 13 bf
       -0.235383 2.0506001e-11 -0.7651078 -0.57774806
000080 7b 3d 7a 3d 97 d7 5a bf 9d 40 35 bf ff 21 73 bc
       0.06109379 -0.85485214 -0.7080172 -0.014839648
000090 da 43 81 be a5 66 7d bf e6 fe 1f 3f 0d 8c 5e 3e
       -0.2524708 -0.9898475 0.6249832 0.21733113
0000a0 a4 57 3d bf 6f 74 99 bf aa 95 14 bf d0 9d c8 be
       -0.73961854 -1.1988658 -0.5804087 -0.391829
0000b0 26 a9 22 3e b1 c5 58 bf 35 7d 2a be e0 8e c1 3c
       0.15884838 -0.84676653 -0.16649325 0.023627698

running_var f4 [48]
000000 95 83 a2 3e 7d f8 83 3e ce bb 2a 3e 6c 92 89 3e
       0.31741014 0.2577552 0.16673204 0.26869524
000010 ce 83 cb 3e 4b ee d1 3b 25 f8 87 3e 0c 18 90 3e
       0.39748996 0.0064065806 0.26556507 0.28143346
000020 e0 30 b3 3e 63 63 7d 3e 74 38 e3 3e 9a 5b f6 3e
       0.34998226 0.24744944 0.44379008 0.4811676
000030 8f 0b 9e 3e dc dd 6c 3e ba d6 0e 3f fb 43 1f 3f
       0.30868194 0.23131508 0.55796397 0.62213105
000040 29 2a f2 3e 06 5f 27 3e c9 c8 a4 3e d3 a8 94 3d
       0.4729779 0.16344842 0.32184437 0.07258763
000050 04 00 00 00 19 c5 e4 3d 4f c3 2e 3e ad 49 da 3e
       6e-45 0.11170406 0.17066692 0.42634335
000060 d4 1a b7 3e d8 32 b5 28 bd 3f f3 3e 87 5a 25 3f
       0.35762656 2.0117087e-14 0.47509566 0.6459126
000070 27 bc 7f 3e 04 00 00 00 dd 13 9e 3e 8f 23 7a 3e
       0.24974118 6e-45 0.3087453 0.24427627
000080 60 dd c5 3e 0f f8 d8 3e 2e 67 8c 3e 33 8c 7d 39
       0.38645458 0.42376754 0.2742247 0.00024180188
000090 ab b6 2a 3e 9c 7b d3 3e ce 03 73 3d 7f 6b e5 3d
       0.16671245 0.41305244 0.0593298 0.11202144
0000a0 06 80 db 3e 77 fc 6f 3f a1 e5 37 3f 3f e2 3c 3d
       0.42871112 0.93744606 0.7183476 0.046114203
0000b0 6a 66 85 3e d3 75 c6 3e 00 c6 9e 3e 03 e0 29 3f
       0.26054698 0.38761768 0.31010437 0.6635744

weight f4 [64, 48, 3, 3]
000000 62 e3 14 3c 47 8f 09 bc 7c 9b b9 3c cd 02 dd bc
       0.009087415 -0.008395976 0.022657149 -0.026978875
000010 dc 7a 15 bd ff 9d d5 bc 10 13 0c bd 2d c0 ee bc
       -0.03649412 -0.026076315 -0.034197867 -0.02914437
000020 ae 73 ee bc 65 23 37 bc 0c 03 a1 bd 3c 54 0d bc
       -0.029107895 -0.011177872 -0.07861909 -0.00862604
000030 4f ce 80 bc a7 a8 ec bd 29 c8 75 bd 08 80 b3 3d
       -0.015723376 -0.115556054 -0.06000534 0.087646544
000040 95 5c d8 bc 75 3a 05 bb 70 36 2a bd 90 6d 60 bd
       -0.026411334 -0.0020329033 -0.041555822 -0.054791987
000050 e1 72 8a bb b0 2d 03 bd bb f6 38 bd 5b 2e 5b bd
       -0.0042251204 -0.032025993 -0.045157176 -0.053511005
000060 03 b4 c9 3c c9 9d 8b 3d d8 59 68 ba 05 41 9d 3d
       0.02462197 0.068172045 -0.00088634854 0.07678417
000070 23 aa bf 3d 9a e8 9f 3d 39 9c 85 bd b4 84 98 bb
       0.09358623 0.07808037 -0.06523938 -0.0046544913
000080 d2 b1 20 3c a0 2d a3 bd c8 ed 6c bd de f4 c8 b9
       0.009808021 -0.07967687 -0.057843953 -0.00038329413
000090 1f 8e bc bc 08 be 3d bd e8 56 32 bd d8 9b 6b bc
       -0.023016987 -0.046323806 -0.04353991 -0.014380418
0000a0 d0 6d 03 ba 37 29 f0 bc 6f 5b 56 bd 2c 7c cc bc
       -0.0005013617 -0.029316528 -0.05233329 -0.024961554
0000b0 4d 94 4f 3c 0f 86 f0 b8 b8 ca 34 b8 6c 5a 7e ba
       0.012669635 -0.00011469062 -4.310414e-05 -0.0009702805
0000c0 9c c4 e9 b9 e4 5f 47 b8 95 2f 2a ba a5 d9 78 b9
       -0.00044587709 -4.7534602e-05 -0.00064920756 -0.00023732202
0000d0 ef 8d 99 b8 72 6c 27 b9 26 ff ac 3c 79 ad fd 3b
       -7.322046e-05 -0.0001596676 0.021117758 0.007741627
0000e0 93 d0 05 3d e0 4f b4 ba ef e5 52 bd 31 82 6a bd
       0.032669615 -0.0013756715 -0.051488813 -0.057253066
0000f0 8b f9 86 bc 44 57 89 bb 28 45 75 bd 9f 63 08 3c
       -0.016476413 -0.004191311 -0.059880406 0.008324533
000100 d7 01 d1 bc bc 18 63 3d 0a f4 91 bc 98 75 34 bd
       -0.025513573 0.05544351 -0.017816562 -0.04405746
000110 88 81 22 3d 99 eb 0d bd 02 cf 4e bd fd 71 08 3d
       0.039674312 -0.03464851 -0.050490387 0.033311833
000120 ad 3c 1e bd a4 9f 0d 3d 54 78 76 3d 5f 72 27 bd
       -0.038632084 0.034576073 0.060173348 -0.040880557
000130 5a 5e cf 3c ec 80 64 ba 7f a3 0e bd 40 62 6b bd
       0.025313545 -0.00087167206 -0.03482389 -0.057466745
000140 53 90 23 bc 2f 28 9d 3c 08 10 8b bb 28 32 30 ba
       -0.00998314 0.0191842 -0.0042438544 -0.0006721341
000150 d0 40 77 bd 1f 90 5b bd 28 41 24 bc d1 82 30 bd
       -0.060364544 -0.05360424 -0.0100253 -0.043093506
000160 d2 10 87 bc dc d3 a7 3c 4d de b4 bb 22 d4 a1 bb
       -0.016487513 0.020486765 -0.0055196644 -0.0049386183
000170 15 02 5b bd 3a 10 25 3d 9a 4c 1d 3d 8c f4 0f bd
       -0.053468782 0.040298678 0.03840313 -0.035145327
000180 00 02 dd 3b 7e 40 ca bb 01 56 2d bd cf 69 35 bb
       0.006744623 -0.006172239 -0.042318348 -0.0027681475
000190 2c ab bb bd d8 fe b4 bd c4 83 62 3c de 02 9c bd
       -0.09163508 -0.0883767 0.013825361 -0.076177344
0001a0 39 f0 fc bd 95 07 ef bc 29 d7 88 bd 7c b5 14 be
       -0.12350506 -0.02917842 -0.066816635 -0.14522356
0001b0 cd aa bd 3c f7 59 c4 3a a0 0c 19 3c c4 ad d7 3b
       0.023152733 0.0014980425 0.009341389 0.006581994
0001c0 0a e6 83 bc 6b 5a c5 3c 10 bf 99 3d a0 e9 c0 3b
       -0.016100902 0.024090966 0.075071454 0.0058872253
0001d0 f2 e1 5d 3d ed 83 e3 bd 28 5c 95 bd 4d cf b4 3c
       0.054170556 -0.11109147 -0.07292968 0.022071505
0001e0 2c 34 e3 bd 97 ff 99 bd d4 38 a4 bc cc e8 a3 bd
       -0.11093935 -0.07519453 -0.020046629 -0.08003387
0001f0 da 67 7b bd b7 d8 70 bc 7a 14 96 bc 6a 23 2b bd
       -0.061378337 -0.014700106 -0.01832031 -0.04178182
000200 47 2f ed bd f7 a7 9e 3d 15 85 8a 3d 22 b5 bf bd
       -0.11581283 0.077468805 0.06763665 -0.0936072
000210 c6 8a eb 3d c5 79 56 3d cc 20 c1 bd b7 22 db bc
       0.11501078 0.052362222 -0.09430084 -0.026749952
000220 5f 6f 22 bc e3 61 93 bc d1 1d f3 3c 8c c8 37 3d
       -0.009914248 -0.017991012 0.029677304 0.04486899
000230 55 f3 ef bc f9 de ce 3b 3f e5 b1 3d 92 ca 2a bc
       -0.029290834 0.0063132015 0.08686303 -0.010424273
000240 09 34 31 bc b1 70 25 3c 75 1c 75 3c f8 cb cc bc
       -0.010815629 0.0100976685 0.014960398 -0.024999604
000250 79 30 db bc 82 40 fd 3c 97 4a db bc 72 8a c1 bc
       -0.026756512 0.030914549 -0.026768966 -0.023625586
000260 13 69 71 3c a2 1a 4c bd 94 3a 34 bd 01 54 88 bd
       0.014734524 -0.049830087 -0.044001177 -0.066566475
000270 35 f3 e8 bc 9c 53 2a 3c 63 58 62 bd be 32 90 bd
       -0.028436283 0.010395911 -0.055260073 -0.07040928
000280 81 ff 78 3b da 22 4d bc d2 3c ef bc 3c e7 6a 3c
       0.003799409 -0.012520516 -0.029203806 0.014337357
000290 66 8a 76 3d 0f 91 5e bd e1 30 56 ba 57 04 a1 3d
       0.06019058 -0.054337557 -0.00081707357 0.07862156
0002a0 d8 d9 85 bd 62 e5 53 bd 59 7d 7e 3d 75 1c 85 3c
       -0.06535691 -0.05173243 0.06213126 0.016248921
0002b0 0d 4f 7c bb 37 88 86 b9 fe dd 52 bc 82 f4 2f bd
       -0.0038499266 -0.0002565996 -0.01287031 -0.04295779
0002c0 77 3c c0 bc 1c 00 57 bd fe 60 43 bd 66 08 20 3b
       -0.023466332 -0.05249034 -0.04769992 0.0024419068
0002d0 3b 00 00 00 a0 00 00 80 9e 00 00 80 7a 00 00 80
       8.3e-44 -2.24e-43 -2.21e-43 -1.71e-43
0002e0 25 00 00 80 1e 00 00 00 92 00 00 00 11 00 00 80
       -5.2e-44 4.2e-44 2.05e-43 -2.4e-44
0002f0 52 00 00 00 ae 40 c9 bc c4 1c 52 bd 2e be 04 bd
       1.15e-43 -0.024566974 -0.051296964 -0.032407932
000300 17 f3 cb ba 8f 29 fb 3b f4 92 d2 bc fd 55 84 bc
       -0.0015560117 0.0076648663 -0.025704838 -0.016154284
000310 fb fb 3b 3c 13 6e a2 3c 3e 90 5b bc 7f 7f 4d 3b
       0.011473651 0.019827878 -0.013401089 0.0031356511
000320 56 d3 bd bc c8 75 20 bd 80 02 b9 bd 6b a9 d3 bd
       -0.023172062 -0.039174825 -0.0903368 -0.10335048
000330 f0 39 e6 bc b0 11 3f bc 0d 4f 93 bd 45 ad 3b 3d
       -0.028103799 -0.011661932 -0.07192812 0.04581954
000340 36 45 44 bd a1 4d e7 bc e4 b8 6c 3b fd d5 93 bd
       -0.047917567 -0.028235259 0.0036120946 -0.072185494
000350 63 02 52 bd a0 4d 69 bd 85 83 56 bb 57 ca cd bb
       -0.051271807 -0.056958795 -0.00327322 -0.0062802243
000360 5d aa 94 bc 3c 57 8b bb ab cb 1c ba 43 a2 33 bd
       -0.018147642 -0.0042523425 -0.00059812766 -0.043855917
000370 38 42 4c bd 97 20 8a 3c 3a c4 82 bd 8d 27 5e bd
       -0.04986784 0.016861243 -0.063850835 -0.054236937
000380 5e 41 87 3c c3 00 00 80 df 00 00 80 ca 00 00 80
       0.016510662 -2.73e-43 -3.12e-43 -2.83e-43
000390 e4 00 00 00 da 00 00 80 16 00 00 80 fe 00 00 00
       3.2e-43 -3.05e-43 -3.1e-44 3.56e-43
0003a0 82 01 00 80 ce 00 00 00 c1 02 51 3d 4b d8 54 bc
       -5.41e-43 2.89e-43 0.051028017 -0.012991021
0003b0 0e fc c3 bb 46 9c d7 3d 3b 56 22 3d 71 48 70 bd
       -0.005980975 0.10527854 0.039633017 -0.058662836
0003c0 6e a8 6c 3c d9 6e 9a bc 19 4d 3e bd fd 1b 42 bc
       0.014444454 -0.018851684 -0.046460245 -0.011847493
0003d0 48 67 14 bd af c9 1a 3c 40 a5 43 bd b5 eb a0 bd
       -0.03623131 0.009447499 -0.047765017 -0.078574575
0003e0 ca dd 4d bc ec 03 26 bc d6 10 7c bd ad c7 47 bc
       -0.012565086 -0.010132771 -0.061539494 -0.0121936025
0003f0 a8 ba 34 3d 6c ab 2f bd 03 6d 28 bd 75 35 ac 3d
       0.04412332 -0.04288809 -0.041119587 0.084086336

bias f4 [64]
000000 25 80 c4 b4 77 33 50 37 c5 e7 75 37 d2 0f 00 39
       -3.6601082e-07 1.2409749e-05 1.4657101e-05 0.00012212925
000010 86 dc 61 b7 94 63 74 b8 8f 50 11 b8 a6 e6 ce 37
       -1.346239e-05 -5.8266873e-05 -3.464572e-05 2.4664518e-05
000020 a5 71 85 b7 83 a7 89 38 5e a3 04 b7 3d da 22 37
       -1.5907755e-05 6.5638706e-05 -7.90585e-06 9.706765e-06
000030 70 47 94 b8 5f 02 00 00 28 49 17 b8 e3 a6 42 38
       -7.070496e-05 8.5e-43 -3.6069338e-05 4.640863e-05
000040 46 df 70 37 82 07 1f 37 e5 00 00 80 ff 9b 09 38
       1.43571e-05 9.478887e-06 -3.21e-43 3.2808628e-05
000050 93 0b 74 b7 16 28 01 38 a6 de df 36 b5 27 34 38
       -1.4546228e-05 3.079333e-05 6.6718376e-06 4.2952324e-05
000060 75 a2 b5 37 4a b7 10 35 75 f1 16 38 e3 2f 00 37
       2.1652531e-05 5.39109e-07 3.598766e-05 7.640544e-06
000070 2a 08 10 b8 03 ff a8 36 d9 96 f7 b6 a4 26 36 b7
       -3.433988e-05 5.0364774e-06 -7.3787346e-06 -1.0857042e-05
000080 fd 29 9c 36 f5 e0 f3 b7 70 cf 9d 37 c2 08 20 36
       4.6540504e-06 -2.9072611e-05 1.8812454e-05 2.3846956e-06
000090 89 22 23 37 7e 69 46 38 6d 4c c4 36 df 43 85 b8
       9.723598e-06 4.7305126e-05 5.8501523e-06 -6.354576e-05
0000a0 84 01 00 80 dd 01 00 00 2c 60 85 37 64 c6 9c b7
       -5.44e-43 6.68e-43 1.5899619e-05 -1.8689032e-05
0000b0 a8 b8 ac 37 aa ac ea b7 5b 42 3c 37 b3 c7 93 b5
       2.0589985e-05 -2.7975377e-05 1.1221123e-05 -1.1010474e-06
0000c0 51 ab 6e 37 92 96 35 b8 c8 66 8b b7 79 66 11 37
       1.4225793e-05 -4.3293992e-05 -1.6617952e-05 8.666532e-06
0000d0 c2 bf 86 38 ea 23 ca b6 e5 72 14 37 c0 c1 30 38
       6.4253356e-05 -6.02425e-06 8.848238e-06 4.2142114e-05
0000e0 19 d1 be b5 64 25 4e 38 94 39 8a b6 4c 03 00 80
       -1.4216959e-06 4.914905e-05 -4.1194235e-06 -1.183e-42
0000f0 fb 0f f9 b6 e7 d9 d1 37 a0 e0 30 b7 db ae 7d 37
       -7.4226386e-06 2.501621e-05 -1.0542717e-05 1.5120687e-05

weight f4 [64]
000000 84 a0 e0 3e 87 96 f2 3e fc 70 7b 3e 4c 90 74 3e
       0.43872464 0.47380468 0.24554819 0.2388317
000010 cc 04 91 3e f3 3b c2 3e 1e 04 21 3f 92 a3 4c 3f
       0.28323972 0.37936363 0.6289691 0.7993709
000020 25 d7 a2 3d 17 d4 84 3e 28 88 67 3e 7e 42 fe 3e
       0.07951192 0.25943062 0.22610533 0.49660105
000030 07 a4 40 3f 54 a1 04 3c d8 92 b0 3e 89 0e 10 3f
       0.75250286 0.008095104 0.34487033 0.5627218
000040 84 f3 cc 3e 11 93 28 3f 86 c4 0f 39 23 e5 3f 3e
       0.40029538 0.65849406 0.00013710753 0.18739752
000050 1f 60 e1 3e b3 30 60 3e dc 4e 1d 3f 44 4d 17 3f
       0.44018647 0.21893577 0.61448455 0.59102273
000060 f9 1f 39 3f 6c d5 ae 3e 14 32 48 3f bc 6c b1 3e
       0.7231441 0.34147203 0.78201413 0.3465327
000070 55 00 09 3f 63 ee 0f 3f 97 61 0b 3f 41 66 a5 3e
       0.5351613 0.56223124 0.54445785 0.32304576
000080 c8 9f 9b 3e af ce d8 3e 0b 4b ce 3e b8 2d 9a 3e
       0.3039534 0.42345187 0.40291628 0.30113006
000090 c2 2a 2d 3f 91 f0 15 3f 80 eb 8a 3e 4d 2f 40 3f
       0.6764337 0.585702 0.27132797 0.75072175
0000a0 55 37 71 39 24 da 5b 39 d8 62 a2 3e 3f 41 1c 3f
       0.00023004164 0.00020966731 0.31716037 0.6103706
0000b0 42 0b dd 3e 15 12 1e 3e cd 76 07 3f f0 b0 1e 3f
       0.43172652 0.15436585 0.5291565 0.61988735
0000c0 fd 5c de 3e 62 7b ef 3e e8 73 b8 3e 4a 35 bb 3e
       0.4343032 0.4677382 0.3602593 0.36564094
0000d0 9e c6 db 3e 15 b9 8a 3e 6d c4 dc 3e ea 7f 33 3f
       0.4292497 0.2709433 0.4311861 0.70117056
0000e0 d6 f2 e5 3e 6e 66 55 3e 40 11 f6 3e d5 ef c2 3a
       0.44911832 0.20839855 0.48060036 0.0014872501
0000f0 f4 d2 26 3f 34 d9 16 3f 37 6f 9c 3e cf 57 c4 3e
       0.6516564 0.58925176 0.305536 0.38348243

bias f4 [64]
000000 99 18 19 be 9b 29 21 be 7f 2f 01 be c9 83 d2 be
       -0.1495079 -0.15738527 -0.12615775 -0.4111617
000010 3f a2 4c be bb e2 8f be a6 f7 c4 be ea 80 a1 be
       -0.19983767 -0.2810267 -0.3847019 -0.31543666
000020 0f 0b 1f be b7 fb c0 be 02 01 5c be 02 93 88 be
       -0.15531562 -0.37692043 -0.2148476 -0.26674658
000030 a4 25 86 be db 79 b7 bc fb 00 44 be 9f 23 e5 be
       -0.26200593 -0.022396972 -0.19140999 -0.4475374
000040 92 e6 a2 bd 22 ce ec bd 74 71 cc b8 95 68 5d be
       -0.07954134 -0.11562754 -9.74861e-05 -0.21621926
000050 b9 19 8b bd 6f 84 41 be 9e 95 bc be 22 af 1b be
       -0.067920156 -0.18898176 -0.368329 -0.15203527
000060 5a d7 c9 be ee 08 55 be bf 9c 85 be 03 22 07 be
       -0.39422113 -0.20804188 -0.2609615 -0.13196568
000070 d5 80 7a be d2 c9 96 be 2c 7b f9 bd 54 dc 61 be
       -0.24463208 -0.29450852 -0.12181696 -0.22056705
000080 af 78 a1 be e4 8d 75 be 9e 8d 30 be 59 ad 88 be
       -0.31537387 -0.23979908 -0.17241523 -0.26694754
000090 53 a9 47 be ad 58 c7 be b1 d8 40 be ac ff 8e be
       -0.19498186 -0.38934842 -0.18832661 -0.27929437
0000a0 52 83 f5 b7 5d 81 bc b7 5e ba 53 be e2 fa a4 be
       -2.9267427e-05 -2.2471586e-05 -0.20676562 -0.32222658
0000b0 e9 b3 84 be cb ad 3d be ab 27 55 be fd c6 8e be
       -0.2591851 -0.18523328 -0.20815913 -0.2788619
0000c0 5c 91 8d be 94 7a 89 be 61 45 a0 be 61 85 92 be
       -0.27649963 -0.26851332 -0.31302932 -0.28617385
0000d0 78 48 79 be b0 16 a7 be 06 0d bb bd 0f 77 82 be
       -0.24344051 -0.32634497 -0.091333434 -0.2548146
0000e0 1a cf de be f2 b0 5a be ee 49 92 be 53 55 89 ba
       -0.4351738 -0.21356562 -0.2857203 -0.0010477699
0000f0 ba 42 bc be eb 63 88 be c3 d5 38 be 0b 11 82 be
       -0.36769658 -0.2663873 -0.18050294 -0.25403628

running_mean f4 [64]
000000 ee 84 50 bf 4f 93 53 bf 64 70 3c 3f d5 d0 4e be
       -0.81452835 -0.8264665 0.73608994 -0.2019685
000010 07 42 6a bf 74 50 f7 be e7 17 b4 bc d6 19 e2 bf
       -0.91507 -0.48303568 -0.021984054 -1.7664135
000020 93 4c d3 3d 70 da 99 bd 48 28 a0 3d d3 f4 6d bf
       0.1031734 -0.07512367 0.07820183 -0.929517
000030 dd 47 2b 3f 81 f3 95 b5 b1 86 87 be a3 8b 90 3e
       0.6690653 -1.1172234e-06 -0.2646995 0.28231534
000040 7c d9 89 bf 3e 84 df 3d 20 a7 00 96 ad 17 a6 3f
       -1.0769496 0.10913895 -1.0392493e-25 1.2975975
000050 32 56 ae bf 3a 8f 41 bf 66 c8 21 3e 23 1d 5c bf
       -1.3620055 -0.7560917 0.15799102 -0.8598196
000060 c1 1a bb 3d 03 ec 36 bf 66 da d5 be 05 41 86 bf
       0.09135962 -0.71453875 -0.41768187 -1.0488592
000070 c0 eb cd bf b0 d0 16 bf 68 ec 9d bf d4 c6 ce bf
       -1.608757 -0.5891218 -1.233777 -1.6154428
000080 3f 4a 11 3d ec 37 b4 bf c4 97 55 be 79 c2 9d 3d
       0.035471197 -1.4079566 -0.20858675 0.07703108
000090 f4 5b 83 be 2a bd c3 3e 18 45 aa 3c 8e 78 7f bf
       -0.25656092 0.38230258 0.0207849 -0.99793327
0000a0 4f 09 ec 10 95 07 ed 30 5f 3d 49 bf 2d ac ac 3c
       9.309993e-29 1.7246174e-09 -0.7860927 0.021078194
0000b0 bf 2c 08 3f 5f db 88 be 4d 19 91 be b2 9c a2 be
       0.5319328 -0.26729867 -0.28339615 -0.31760174
0000c0 1e 0a ce bd 1d 4e 18 be 0e 34 aa bd 28 1a 17 be
       -0.100605235 -0.14873548 -0.0831071 -0.14756072
0000d0 ad a8 06 bd 08 2a d0 3e dd a5 dc bc 8c 5f 17 bf
       -0.032875706 0.40657067 -0.026934559 -0.5913017
0000e0 c8 8c 13 3f 2f fb cd bd a6 c8 11 bf f4 38 29 24
       0.5763669 -0.10057675 -0.5694679 3.6694275e-17
0000f0 5a f4 43 3e 30 29 f3 bd 4c 2e a8 3d 96 45 f5 be
       0.19136181 -0.1187309 0.082119554 -0.47904652
